Projects/GVHD_data_integration/data/exported_data/latent_representation_data/TP12/best_model.pt (torch, 647921 bytes, 22 tensors)

weight f4 [116, 232]
0.022886647 0.013951829 0.08372637 -0.012206112 -0.03762554 0.0026249483 -0.0624649 -0.058553938
0.024120672 -0.057991046 0.047126595 -0.07214322 0.05093514 0.007051795 0.047555283 -0.063992105
0.022053111 -0.0055646226 0.04405478 0.021933554 0.012893005 -0.007188541 -0.007102737 -0.03179785
-0.041776024 0.013275688 -0.0027142866 0.0017174283 0.00016831934 -0.033168186 -0.063903086 0.02914408
-0.0032034903 -0.09932316 -0.09865636 0.008118949 0.030991249 0.01082785 -0.039462924 0.010060573
0.008645567 0.036716253 0.0546048 -0.0570537 -0.011778829 0.008354538 0.00021488067 0.0038027456
0.023810094 0.084058195 -0.065474585 -0.04788492 0.01831846 -0.06436085 -0.054684505 0.05409404
-0.016974214 -0.012902737 -0.055461008 -0.030785907 0.056707323 0.08527326 0.04744059 0.03997343
0.012461258 0.0115446355 -0.034641486 -0.04007615 0.04801547 0.090455994 -0.017202782 -0.0050243805
0.0010883112 -0.049373332 -0.042302903 -0.026375307 0.016352318 0.031105164 0.003211424 -0.012931849
-0.017368868 -0.03181715 0.061939087 -0.04439092 0.032689355 -0.0014911114 0.05294626 0.07607096
0.072405376 -0.041403342 0.056006644 -0.029739253 -0.03706892 0.01914166 0.004363617 0.022047957
0.047684997 -0.011440845 -0.04932898 0.008637893 -0.029253915 0.034149725 -0.092716545 0.05467405
0.010328945 -0.0024869505 -0.021753611 -0.014320245 0.007072801 -0.005785844 -0.04259922 -0.021044023
0.019075371 0.059517566 -0.05698862 -0.05531766 -0.08092219 -0.07422796 0.043528687 0.07388017
-0.02798839 0.0097814845 0.038499262 0.05354355 -0.04103524 -0.0028238858 -0.0031614127 0.007923885
-0.036027696 0.035018533 0.0381513 -0.02138599 0.005299737 0.082194105 0.033965934 -0.008370336
-0.012333237 0.027256384 -0.004188335 -0.06508543 -0.047936227 0.027531173 0.0112472745 -0.00063754653
-0.04035637 0.024348682 -0.11369061 -0.04600489 0.041755356 0.036517207 0.02403203 0.017891975
0.007858443 0.059570514 -0.026504096 -0.051755782 0.04223336 -0.056773324 0.037095815 0.025790054
0.020510087 -0.042191766 -0.0031194557 -0.072913505 -0.012507035 -0.0043087583 -0.06925189 -0.05880529
0.01338024 0.067581154 -0.06105134 -0.03570009 -0.07317641 0.042833526 -0.0908436 0.026450478
-0.0056710625 -0.051543735 -0.016500428 -0.027770154 -0.037426207 -0.091410734 0.016989961 -0.019719249
-0.009161539 0.016610887 0.06521975 -0.001236686 -0.014868021 -0.015219747 0.07228162 -0.034009285
-0.07451481 0.029676443 -0.043936968 -0.059995715 -0.018856129 0.0672378 0.06452098 -0.024379637
0.03010446 0.029900096 -0.02977396 -0.017442616 0.054232493 0.010378597 -0.05171518 0.002726362
-0.0051891687 0.025439508 0.0005783028 -0.04870912 -0.035434175 -0.012617524 -0.03893203 0.04860887
-0.033800635 -0.020514186 0.023786211 0.018552931 -0.0025045855 -0.036043357 0.044611692 -0.012030743
-0.0048507396 -0.074619085 0.01930823 -0.06289461 -0.018192148 0.033772487 0.016098475 0.08200333
-0.090605475 0.054891396 0.0038595998 -0.043298535 0.01666699 0.07657954 0.071022585 -0.06434009
0.039814528 0.03685192 0.024160285 -0.07548918 -0.02141508 0.015416168 0.054495532 0.006521646
-0.03457795 -0.10194602 -0.0711279 0.06827881 0.02323699 -0.05682224 -0.040298536 -0.026198914
00000000: c77c bb3c 3696 643c bb78 ab3d 25fc 47bc
00000010: 3d1d 1abd 5307 2c3b 32db 7fbd 41d6 6fbd
00000020: b798 c53c 0588 6dbd d107 413d d3bf 93bd
00000030: 5ea1 503d be12 e73b 54c9 423d 4b0e 83bd
00000040: baa8 b43c 7057 b6bb c972 343d ffad b33c
00000050: 2f3d 533c da8d ebbb 14be e8bb 763e 02bd
00000060: 561d 2bbd 4582 593c 2ce2 31bb 551b e13a
00000070: e17e 3039 5ddb 07bd 9fdf 82bd 91bf ee3c
00000080: a6f1 51bb f169 cbbd 580c cabd 5705 053c
00000090: 5ce1 fd3c 4b67 313c e0a3 21bd 1ad5 243c
000000a0: 23a6 0d3c c863 163d 48a9 5f3d 24b1 69bd
000000b0: fdfb 40bc 79e1 083c 9751 6139 7c37 793b
000000c0: 630d c33c b426 ac3d 8a17 86bd fa22 44bd
000000d0: 9810 963c 9fcf 83bd dcfc 5fbd b691 5d3d
000000e0: 820d 8bbc 0066 53bc 152b 63bd ba32 fcbc
000000f0: f045 683d bfa3 ae3d 1051 423d 2ebb 233d
00000100: 4e2a 4c3c b625 3d3c 3be4 0dbd e426 24bd
00000110: dfab 443d fe40 b93d d9ec 8cbc 8fa3 a4bb
00000120: aaa5 8e3a b13b 4abd cf45 2dbd 0711 d8bc
00000130: 4cf5 853c 42d0 fe3c c176 523b 1be0 53bc
00000140: 2849 8ebc b352 02bd d7b3 7d3d 41d3 35bd
00000150: 46e5 053d 6571 c3ba 2dde 583d 17cb 9b3d
00000160: 4549 943d 8d96 29bd 3967 653d bc9f f3bc
00000170: 94d5 17bd f8ce 9c3c acfc 8e3b eb9d b43c
00000180: 5851 433d 6272 3bbc 2f0d 4abd f385 0d3c
00000190: e8a5 efbc 95e0 0b3d 2ce2 bdbd e6f1 5f3d
000001a0: bc3a 293c 1bfc 22bb a134 b2bc 769f 6abc
000001b0: f4c2 e73b 2d97 bdbb 857c 2ebd 8464 acbc
000001c0: f443 9c3c b1c8 733d e66c 69bd c594 62bd
000001d0: 88ba a5bd d404 98bd 234b 323d 7d4e 973d
000001e0: e847 e5bc 8542 203c 67b1 1d3d 7b50 5b3d
000001f0: 9114 28bd f110 39bb b42f 4fbb 2fd3 013c
00000200: c791 13bd 986f 0f3d 8a44 1c3d ac31 afbc
00000210: 6ba9 ad3b 6255 a83d dd1f 0b3d bc23 09bc
00000220: 5811 4abc c848 df3c 4d3e 89bb 834b 85bd
00000230: c758 44bd 0e89 e13c 7d46 383c 0621 27ba
00000240: b94c 25bd e376 c73c 9fd6 e8bd a06f 3cbd
00000250: aa07 2b3d 1193 153d d2de c43c 3192 923c
00000260: b3c0 003c 3600 743d 1e1f d9bc dffd 53bd
00000270: e3fc 2c3d 258b 68bd c8f1 173d aa45 d33c
00000280: c504 a83c 46d1 2cbd c86f 4cbb ad53 95bd
00000290: 4fea 4cbc 7c30 8dbb efd3 8dbd d1dd 70bd
000002a0: cb38 5b3c fd67 8a3d f810 7abd 423a 12bd
000002b0: 83dd 95bd 3572 2f3d 360c babd acae d83c
000002c0: 52d4 b9bb 861f 53bd e82b 87bc 3c7e e3bc
000002d0: 394c 19bd 8d35 bbbd 882e 8b3c 438a a1bc
000002e0: 481a 16bc 8e13 883c ef91 853d 4c18 a2ba
000002f0: 0099 73bc 3f5c 79bc 6308 943d 524d 0bbd
00000300: 399b 98bd 031c f33c 40f7 33bd 11be 75bd
00000310: 2b78 9abc f9b3 893d 9323 843d ceb7 c7bc
00000320: a19d f63c 0cf1 f43c 85e8 f3bc d1e3 8ebc
00000330: e422 5e3d fe0a 2a3c 4cd3 53bd c4ac 323b
00000340: e709 aabb 8466 d03c 3e99 173a 3783 47bd
00000350: 6d23 11bd bbb9 4ebc 3177 1fbd 181a 473d
00000360: 8972 0abd 5e0d a8bc 4ddb c23c 51fc 973c
00000370: f923 24bb 33a2 13bd c0ba 363d 981c 45bc
00000380: f4f2 9ebb e4d1 98bd 4b2c 9e3c e4ce 80bd
00000390: b307 95bc 0555 0a3d f3e0 833c 5df1 a73d
000003a0: 5d8f b9bd cdd5 603d 57f1 7c3b ce59 31bd
000003b0: 3689 883c bcd5 9c3d 4a74 913d bdc4 83bd
000003c0: 8f14 233d 0af2 163d caeb c53c 129a 9abd
000003d0: ae6e afbc 1894 7c3c b536 5f3d 88b3 d53b
000003e0: 9ca1 0dbd 13c9 d0bd 81ab 91bd c3d5 8b3d
000003f0: 805b be3c 70be 68bd 1410 25bd 1b9f d6bc

bias f4 [116]
0.07183225 0.09689316 0.05759001 0.026113058 0.09918625 0.034155376 0.15972464 0.08356688
0.098321386 0.03274218 0.07251103 0.095221356 0.047444917 0.054003447 0.103947006 0.08597022
0.050886273 0.060093544 0.056969535 -0.020245424 0.023403762 0.11474068 0.043165457 0.010846302
0.021605544 0.10333041 0.10532597 0.054918822 0.1360443 0.050150108 0.11646175 0.009679035
0.027890831 0.15127036 0.037179254 0.075229146 0.0822917 0.04603554 0.14137268 0.053254653
0.060797952 0.08944932 0.016204324 0.123220816 0.08964517 0.08114085 0.11759248 0.13915643
0.062079895 0.041176956 0.05611174 0.054783527 0.021000274 0.03392326 0.14193083 0.14450523
0.0046534315 0.12401974 0.04662125 0.105342805 0.1415301 0.13557239 0.025050249 0.10655617
0.08296063 0.053680692 0.04249965 0.08724142 0.16059801 0.096557654 0.09913579 0.119652085
-0.0051369253 0.09155235 0.06325179 0.051092397 0.009331184 0.07328314 0.092430435 0.04716173
0.111647666 0.09885657 0.11777796 0.11243698 0.012117565 0.007656129 -0.014904643 0.14059423
0.050044943 0.1070548 0.07597578 -0.011533495 0.05693181 0.022348724 0.09210571 0.0670781
0.04955023 0.043897625 0.06798471 0.07398429 0.08362389 0.028521195 0.07722122 0.00059435074
0.08159275 0.1414932 0.07628676 0.020306513 0.025761204 0.043492828 0.05861384 0.08757998
0.15183993 0.08734922 0.04042724 0.16030873
00000000: c91c 933d ec6f c63d 81e3 6b3d 0deb d53c
00000010: 2922 cb3d 82e6 0b3d db8e 233e 1d25 ab3d
00000020: b95c c93d aa1c 063d aa80 943d 6a03 c33d
00000030: 9a55 423d b832 5d3d 2be2 d43d 2811 b03d
00000040: 206e 503d a624 763d e358 693d bbd9 a5bc
00000050: 3fb9 bf3c 29fd ea3d 43ce 303d b0b4 313c
00000060: 1cfe b03c e59e d33d 24b5 d73d 8ff2 603d
00000070: 324f 0b3e 336a 4d3d 7f83 ee3d d194 1e3c
00000080: 507b e43c 9ee6 1a3e 4649 183d bd11 9a3d
00000090: 8d88 a83d c38f 3c3d 00c4 103e 8d21 5a3d
000000a0: 4607 793d 3531 b73d eebe 843c 325b fc3d
000000b0: e397 b73d 2d2d a63d 53d4 f03d 067f 0e3e
000000c0: 7d47 7e3d 2ba9 283d 6dd5 653d b164 603d
000000d0: c408 ac3c 1ef3 0a3d 5156 113e 2ef9 133e
000000e0: d07b 983b 10fe fd3d edf5 3e3d f8bd d73d
000000f0: 44ed 103e 7dd3 0a3e 2e36 cd3c 1f3a da3d
00000100: 43e7 a93d 49e0 5b3d 1d14 2e3d a1ab b23d
00000110: ce73 243e 05c0 c53d b407 cb3d 270c f53d
00000120: a753 a8bb cc7f bb3d 288a 813d 4346 513d
00000130: d3e1 183c 7915 963d 2b4c bd3d a82c 413d
00000140: 88a7 e43d 5075 ca3d 9235 f13d 5c45 e63d
00000150: c088 463c 44e0 fa3b 9b32 74bc eff7 0f3e
00000160: edfb 4c3d 8c3f db3d 3199 9b3d fcf6 3cbc
00000170: 5431 693d ac14 b73c eba1 bc3d 3e60 893d
00000180: 2ff5 4a3d ffcd 333d 913b 8b3d 1385 973d
00000190: 0143 ab3d 48a5 e93c 2926 9e3d 34ce 1b3a
000001a0: 1a1a a73d 98e3 103e 3c3c 9c3d d859 a63c
000001b0: 2909 d33c 8925 323d 1115 703d 225d b33d
000001c0: ed7b 1b3e 26e4 b23d 0997 253d f927 243e

weight f4 [100, 116]
0.039389946 -0.03749111 -0.07306757 -0.043153506 -0.031466037 0.06088101 0.07641228 -0.11505301
-0.024985364 -0.04006858 -0.08578138 0.046346065 -0.05753413 -0.035797123 0.022725958 0.03734972
0.09073061 0.053567052 0.031504765 0.061884962 0.043913253 0.06965028 -0.094750345 0.02593075
-0.003589978 0.003844785 -0.058436096 -0.07175955 -0.04298737 0.006459506 -0.085944586 0.028804053
-0.059426904 0.0424629 0.028467137 0.022510037 0.045637142 0.044261158 -0.0024880134 -0.068249814
-0.059964832 0.043711204 0.0031176512 -0.0016788978 -0.070766576 -0.035741616 0.09770638 0.05580616
0.026896223 0.06801245 0.08809362 0.022093637 -0.031641897 0.05296354 -0.0035840555 -0.030894829
-0.023324955 -0.014692184 -0.030681165 0.020374041 0.07470351 0.026136456 -0.017070891 -0.016952112
0.016384533 -0.04529049 0.11981829 -0.0066433027 0.064867586 -0.035601664 0.017106568 -0.07900576
0.0069622416 -0.029416515 -0.04224522 0.0012137186 0.015482274 0.043734122 0.06202272 0.038228747
0.018540243 -0.02899495 0.012471077 7.692304e-05 0.032791663 0.024532827 -0.024674315 -0.083617456
-0.022829967 -0.035965737 0.034548905 -0.0121063655 -0.06642642 0.03172983 -0.04308825 -0.078319624
-0.026279168 -0.034239687 0.00013620124 -0.0053485394 0.027163101 -0.0023880391 0.06113651 -0.025528973
0.083173744 0.080533385 -0.046403393 -0.09145261 0.0134349745 0.05449105 0.06106953 -0.061332677
0.030321533 0.012945491 -0.00935325 0.02888041 -0.03322358 0.0025813356 -0.0460009 0.0036179663
0.053327244 -0.06615108 -0.018511163 0.00071872206 0.011366434 -0.056314044 -0.06714756 0.037543755
-0.06845804 0.060120936 0.07410302 -0.037983276 0.03534776 -0.04530954 0.05226134 -0.023272675
-0.110832855 0.030099755 -0.06645182 0.04935263 0.087725215 0.02610291 0.06569133 0.09637122
0.006741795 -0.05067873 -0.07867699 -0.078905225 -0.07745925 -0.05617504 0.012975062 0.022543518
-0.028649028 -0.06287344 -0.032708496 -0.101795845 0.027321199 -0.08526103 -0.019960983 -0.066708736
-0.0070127454 -0.057506304 0.050687347 -0.062109683 -0.014961998 -0.048567176 0.05953812 0.08211306
0.042307243 -0.010817869 0.048657782 0.04731366 0.019961122 0.027200812 0.043111958 0.067060575
-0.06180538 0.06680783 -0.12853257 0.05522704 0.059185904 -0.042072102 -0.036883533 -0.018264845
-0.010907555 -0.073615514 0.074493 -0.07279906 -0.10187479 0.025701832 0.049718037 -0.0028196573
0.08775865 -0.0114667695 -0.023174025 0.011645705 0.02751247 -0.06736323 -0.0022538954 0.051691327
-0.009577736 0.049899485 -0.04025475 -0.006628359 0.006467856 0.041981075 -0.05099822 -0.07089017
-0.03474256 0.047569145 0.088056915 -0.049352083 0.056877565 -0.10182603 0.087789685 -0.0039961534
0.012984343 0.0010487069 -0.01781496 0.09796433 -0.00899893 -0.01314944 0.047871046 0.0133902235
0.021160934 0.054836217 -0.029424844 5.448478e-05 0.092668 -0.05523331 -0.04966697 0.0244953
-0.005741853 -0.1049788 0.011971259 0.0052165966 -0.039031256 0.021633778 0.036246363 -0.007173661
0.04766601 -0.04292582 -0.053519927 -0.03548828 0.03323312 0.06364501 -0.0025798555 0.034882538
-0.084034964 0.033063225 -0.03411982 -0.08223232 -0.006724132 -0.056754667 0.058035903 0.11168609
00000000: 5a57 213d 4790 19bd 73a4 95bd bbc1 30bd
00000010: 88e2 00bd 5e5e 793d 0b7e 9c3d eaa0 ebbd
00000020: 1bae ccbc f41e 24bd 26ae afbd 5fd5 3d3d
00000030: e8a8 6bbd 01a0 12bd ca2b ba3c 05fc 183d
00000040: f8d0 b93d 2069 5b3d 240b 013d 167b 7d3d
00000050: 62de 333d cea4 8e3d 780c c2bd b96c d43c
00000060: d645 6bbb caf8 7b3b b05a 6fbd acf6 92bd
00000070: 8613 30bd 44aa d33b b703 b0bd 7af6 eb3c
00000080: a069 73bd 94ed 2d3d ea33 e93c f866 b83c
00000090: 03ee 3a3d 304b 353d f00d 23bb 8fc6 8bbd
000000a0: af9d 75bd 850a 333d 8251 4c3b 760e dcba
000000b0: 11ee 90bd cd65 12bd 481a c83d 0095 643d
000000c0: 7855 dc3c 1d4a 8b3d 6e6a b43d b7fd b43c
000000d0: ef9a 01bd 4cf0 583d 79e2 6abb 2717 fdbc
000000e0: fa13 bfbc 7cb7 70bc 1157 fbbc 76e7 a63c
000000f0: 27fe 983d 1f1c d63c 41d8 8bbc 28df 8abc
00000100: db38 863c 8582 39bd 4b63 f53d 10b0 d9bb
00000110: 4cd9 843d 0dd3 11bd 1323 8c3c c6cd a1bd
00000120: 8423 e43b e7fa f0bc 5309 2dbd a315 9f3a
00000130: 5da9 7d3c 8d22 333d 890b 7e3d bf95 1c3d
00000140: b5e1 973c d186 edbc 7d53 4c3c be51 a138
00000150: 8d50 063d 11f9 c83c ca21 cabc a13f abbd
00000160: e905 bbbc cf50 13bd 2783 0d3d c759 46bc
00000170: 930a 88bd 23f7 013d 4e7d 30bd 0a66 a0bd
00000180: 6947 d7bc ea3e 0cbd 3ed1 0e39 cd42 afbb
00000190: 2785 de3c a680 1cbb 476a 7a3d 2322 d1bc
000001a0: ff56 aa3d b0ee a43d 7c11 3ebd 824b bbbd
000001b0: 5e1e 5c3c 0232 5f3d 0b24 7a3d f937 7bbd
000001c0: dd64 f83c 5319 543c 603e 19bc 9c96 ec3c
000001d0: 7315 08bd a02b 293b 716b 3cbd 671b 6d3b
000001e0: ab6d 5a3d 387a 87bd b9a4 97bc 9f68 3c3a
000001f0: 483a 3a3c 8ea9 66bd a984 89bd 7bc7 193d
00000200: bb33 8cbd 5f41 763d 53c3 973d 5a94 1bbd
00000210: d0c8 103d 7f96 39bd fd0f 563d 56a6 bebc
00000220: 56fc e2bd c393 f63c e417 88bd fc25 4a3d
00000230: 47a9 b33d c5d5 d53c 2d89 863d 465e c53d
00000240: 47ea dc3b 8094 4fbd 6721 a1bd 1099 a1bd
00000250: f5a2 9ebd cc17 66bd 5b95 543c 2fad b83c
00000260: 5eb1 eabc cac3 80bd 58f9 05bd 577a d0bd
00000270: b5d0 df3c 569d aebd 3785 a3bc 979e 88bd
00000280: 2ccb e5bb bb8b 6bbd 899d 4f3d b966 7ebd
00000290: 2b23 75bc 60ee 46bd 3ede 733d e42a a83d
000002a0: 5c4a 2d3d 6e3d 31bc 624d 473d f8cb 413d
000002b0: 8285 a33c 3dd4 de3c 2a96 303d 0e57 893d
000002c0: a327 7dbd 8bd2 883d 0b9e 03be c035 623d
000002d0: eb6c 723d cc53 2cbd 3013 17bd 28a0 95bc
000002e0: 9ab5 32bc bbc3 96bd c98f 983d ac17 95bd
000002f0: bba3 d0bd a68c d23c 24a5 4b3d 00ca 38bb
00000300: cfba b33d 1edf 3bbc 74d7 bdbc a1cd 3e3c
00000310: d561 e13c bcf5 89bd 17b6 13bb 49ba 533d
00000320: f0eb 1cbc 6763 4c3d 2ae2 24bd b532 d9bb
00000330: 4ff0 d33b 59f4 2b3d 82e3 50bd de2e 91bd
00000340: 374e 0ebd ddd7 423d 2f57 b43d 6925 4abd
00000350: 73f8 683d 2a8a d0bd 14cb b33d 2af2 82bb
00000360: 48bc 543c c474 893a aef0 91bc 86a1 c83d
00000370: 4070 13bc c070 57bc 6e14 443d ab62 5b3c
00000380: b259 ad3c f19b 603d 5f0c f1bc 9686 6438
00000390: b8c8 bd3d 533c 62bd 986f 4bbd 5eaa c83c
000003a0: 2726 bcbb 20ff d6bd 1923 443c fcef aa3b
000003b0: 3ddf 1fbd 5239 b13c 1177 143d 0811 ebbb
000003c0: 6f3d 433d fcd2 2fbd b637 5bbd 295c 11bd
000003d0: 741f 083d 5158 823d cb12 29bb fee0 0e3d
000003e0: 861a acbd 4e6d 073d 39c1 0bbd 6b69 a8bd
000003f0: 1c56 dcbb 9577 68bd 0eb7 6d3d adbb e43d

bias f4 [100]
-0.08527879 0.046659123 0.051350776 -0.017567674 0.051968146 -0.047817256 0.0757691 0.011502314
0.08101663 -0.029673977 0.05023611 -0.021254817 -0.06562634 0.07882569 -0.054789796 -0.0152546475
-0.06344278 0.07062527 0.014309397 -0.015649434 -0.042280495 -0.000999439 -0.02080423 0.023591863
0.043104388 0.054666072 0.042409375 -0.064011134 -0.080416605 -0.09413898 -0.021170318 -0.03954923
0.0238543 0.08665916 -0.017304577 -0.077214375 0.025405461 0.04844014 0.037429582 -0.09603041
-0.0781053 0.017828923 0.056927014 -0.016654598 -0.04464073 0.031529456 -0.041661575 0.031119712
-0.056147132 -0.046323135 0.038240686 0.042137317 0.0077503724 0.053316947 0.06278019 0.009894756
0.021033928 0.06978444 0.075739674 -0.05949303 -0.008301816 -0.07312913 -0.038540803 -0.09260685
-0.09123583 -0.024263438 -0.058347583 -0.043143123 -0.03658094 0.002885416 0.08533344 -0.018734984
0.08149325 -0.077336095 -0.0028700186 0.097230285 0.010027979 -0.0127535425 0.02745296 -0.034715287
0.057531726 0.057046898 -0.045233488 0.052667007 0.044877786 -0.02106605 -0.074408345 -0.068068326
-0.007138697 0.023194678 -0.051580723 0.022865275 0.0769103 0.07597061 -0.07699374 0.049507864
0.046184752 0.051910184 -0.017511299 0.009419589
00000000: a5a6 aebd a31d 3f3d 3155 523d 15ea 8fbc
00000010: 8ddc 543d 07dc 43bd d42c 9b3d 3474 3c3c
00000020: 0cec a53d d716 f3bc 61c4 4d3d 951e aebc
00000030: 1a67 86bd 5d6f a13d 446b 60bd a1ee 79bc
00000040: 4aee 81bd fba3 903d f671 6a3c 3e33 80bc
00000050: 502e 2dbd 9cff 82ba a26d aabc b943 c13c
00000060: 3a8e 303d 88e9 5f3d 74b5 2d3d 4518 83bd
00000070: 76b1 a4bd f0cb c0bd 606d adbc 60fe 21bd
00000080: 186a c33c 5c7a b13d 54c2 8dbc 9222 9ebd
00000090: 1d1f d03c 2b69 463d c34f 193d 97ab c4bd
000000a0: acf5 9fbd f60d 923c 4d2c 693d 396f 88bc
000000b0: 33d9 36bd 0825 013d 54a5 2abd c4ee fe3c
000000c0: 89fa 65bd 54bd 3dbd 44a2 1c3d 2e98 2c3d
000000d0: d6f6 fd3b df62 5a3d e692 803d 9d1d 223c
000000e0: 584f ac3c 25eb 8e3d 671d 9b3d f7ae 73bd
000000f0: 5704 08bc bac4 95bd f6dc 1dbd a9a8 bdbd
00000100: dad9 babd 1ec4 c6bc e0fd 6ebd d8b6 30bd
00000110: e5d5 15bd 3f19 3d3b 4cc3 ae3d 1c7a 99bc
00000120: efe5 a63d 6362 9ebd ec16 3cbb ac20 c73d
00000130: 644c 243c 3cf4 50bc 08e5 e03c 9e31 0ebd
00000140: 63a6 6b3d 02aa 693d c046 39bd 5cb9 573d
00000150: c5d1 373d b592 acbc 6763 98bd 6867 8bbd
00000160: bbeb e9bb c402 be3c 4f46 53bd f54f bb3c
00000170: 2683 9d3d 7b96 9b3d e5ae 9dbd c2c8 4a3d
00000180: 392c 3d3d c69f 543d db73 8fbc 9f54 1a3c

weight f4 [100, 116]
-0.06007133 -0.027745446 -0.01619362 -0.11908487 -0.15471996 -0.02528615 -0.08885755 -0.15100174
-0.08940965 0.013032641 0.0075302348 -0.12883353 -0.034111857 -0.030789994 -0.14334214 0.022794096
-0.06177609 -0.01605076 -0.13949831 -0.11165778 -0.06896852 -0.05829376 0.008521156 -0.025024025
0.026228864 -0.11009436 0.0042370628 -0.108934745 -0.0737933 -0.05751049 0.018044386 -0.14642702
-0.0487431 -0.019154958 -0.070993595 -0.09828583 -0.15943192 -0.087749965 -0.09827856 -0.12678714
-0.07452064 -0.061548885 -0.039086297 -0.1453656 -0.0004157598 -0.09508167 -0.05239295 -0.16432291
-0.04405616 -0.07039565 -0.050239004 -0.09911762 -0.11127176 -0.0053552478 -0.013125731 -0.106599614
-0.058168814 -0.04959677 -0.04305428 -0.08073995 -0.011014296 -0.048793808 -0.014996154 0.0013502863
-0.034020506 -0.1127859 -0.044344302 -0.1441254 0.01707214 -0.122239254 -0.12481534 -0.08072391
-0.13468148 -0.010491527 -0.05908511 -0.010440053 -0.07100451 -0.038024724 -0.082190655 -0.093810864
-0.004248429 -0.1234571 -0.05725527 -0.057137523 -0.10249205 -0.07015547 -0.064988635 -0.051083144
0.02152466 -0.0363281 -0.15012066 -0.09209122 -0.015554871 -0.042558033 -0.14526415 -0.07007838
-0.050585024 -0.02249255 -0.07580376 -0.07286531 0.018967811 -0.068374045 -0.040171064 -0.10166322
-0.015533421 -0.03175318 -0.13085325 -0.12494117 -0.002043915 -0.05570194 -0.086148225 -0.05914555
-0.07214491 -0.033134937 -0.038835354 -0.15054396 -0.06954383 -0.07874883 -0.10081082 -0.01641421
-0.021068664 -0.09765168 -0.00438796 -0.053263143 -0.077663265 -0.016489167 -0.11646261 -0.049057085
0.010779558 -0.05200071 -0.051365145 -0.054177947 -0.024196558 -0.0339224 -0.14387876 0.003970934
-0.13276748 -0.08249306 -0.0894504 -0.1506669 0.0029537017 -0.029207084 -0.055142947 -0.0915113
-0.10636494 -0.034596525 0.00980191 0.025222182 -0.09095959 -0.13877669 0.00260428 -0.040918574
-0.019828217 -0.05184891 -0.16025257 -0.01117245 -0.14376375 -0.041487936 0.0149615025 -0.14031073
-0.12058483 0.009727214 -0.08086203 -0.13388075 -0.073816724 0.013736047 -0.14033306 -0.08578736
-0.07246894 0.013988371 -0.083272815 -0.099033475 0.010178574 0.012690955 -0.07839401 -0.017488092
-0.16057955 -0.033447646 -0.10589704 -0.059285965 -0.08353301 -0.07911312 -0.0054563195 -0.054819632
-0.14319655 -0.089123525 -0.08153474 -0.02755121 -0.081038184 -0.076411955 -0.07940636 -0.061049413
-0.15375677 0.00061686384 -0.023597298 -0.0059552137 -0.0090715755 -0.049675707 -0.12044335 -0.13298404
-0.10501324 0.0070425603 0.018680463 -0.09125974 -0.11864005 -0.12809007 -0.09390732 -0.14582817
-0.13080728 -0.1199914 -0.064879954 -0.034593362 -0.091344416 -0.03544493 -0.11756117 0.014363463
-0.13855706 -0.04714397 0.006563533 -0.015065855 0.0040657045 -0.079477504 -0.02897256 0.019161325
-0.064051725 -0.063625574 -0.13554491 0.0067739943 -0.12612985 -0.09433422 -0.10947562 -0.035776976
-0.025493195 -0.07029641 -0.0028483823 -0.04756546 -0.0009828 -0.07517448 -0.091325544 -0.15510413
-0.09098032 -0.018674178 -0.017412834 -0.12436506 -0.05442062 -0.014493308 -0.10139443 -0.12297179
-0.043284435 -0.124337636 -0.009702542 -0.07188171 -0.010701675 -0.1140296 -0.024267318 0.015053488
00000000: 5b0d 76bd 6b4a e3bc 7ca8 84bc c5e2 f3bd
00000010: e96e 1ebe e624 cfbc f2fa b5bd 33a0 1abe
00000020: 681c b7bd dc86 553c 30c0 f63b f0ec 03be
00000030: e0b8 0bbd 4c3b fcbc 48c8 12be afba ba3c
00000040: ed08 7dbd e27c 83bc a5d8 0ebe d6ac e4bd
00000050: 5e3f 8dbd 70c5 6ebd 529c 0b3c 2fff ccbc
00000060: eadd d63c 2779 e1bd 0fd7 8a3b 2e19 dfbd
00000070: f120 97bd 1f90 6bbd d2d1 933c f7f0 15be
00000080: d8a6 47bd dcea 9cbc 1765 91bd 154a c9bd
00000090: 1f42 23be 41b6 b3bd 4546 c9bd 7dd4 01be
000000a0: 479e 98bd af1a 7cbd f418 20bd b8da 14be
000000b0: 56fa d9b9 2eba c2bd fd99 56bd 4444 28be
000000c0: 3b74 34bd 982b 90bd 6ac7 4dbd 2efe cabd
000000d0: 73e2 e3bd 137b afbb 4e0d 57bc e650 dabd
000000e0: 6c42 6ebd fc25 4bbd af59 30bd fd5a a5bd
000000f0: 4e75 34bc 04dc 47bd 6eb2 75bc 17fc b03a
00000100: 1659 0bbd 4bfc e6bd 5fa2 35bd 9c95 13be
00000110: dfda 8b3c 9358 fabd 2f9f ffbd 9452 a5bd
00000120: f1e9 09be a7e4 2bbc 3a03 72bd c20c 2bbc
00000130: d06a 91bd d0bf 1bbd 9353 a8bd e91f c0bd
00000140: 6836 8bbb 13d7 fcbd 8184 6abd 0909 6abd
00000150: 5ae7 d1bd acad 8fbd c318 85bd 8f3c 51bd
00000160: 7c54 b03c c6cc 14bd 3bb9 19be 529a bcbd
00000170: dcd9 7ebc 5551 2ebd 20c0 14be 4185 8fbd
00000180: 3e32 4fbd 4c42 b8bc 003f 9bbd 683a 95bd
00000190: 6262 9b3c b107 8cbd 6a8a 24bd ce34 d0bd
000001a0: e47f 7ebc 9f0f 02bd 65fe 05be 28e1 ffbd
000001b0: 34f3 05bb b827 64bd 7b6e b0bd 9b42 72bd
000001c0: b6c0 93bd 80b8 07bd d211 1fbd 3228 1abe
000001d0: ff6c 8ebd 1147 a1bd e775 cebd 1877 86bc
000001e0: 3198 acbc 9bfd c7bd e0c8 8fbb 742a 5abd
000001f0: eb0d 9fbd 4a14 87bc f383 eebd 15f0 48bd
00000200: be9c 303c b2fe 54bd 4264 52bd b2e9 5dbd
00000210: dc37 c6bc 37f2 0abd f454 13be 9c1e 823b
00000220: 33f4 07be 1ff2 a8bd c531 b7bd 6d48 1abe
00000230: e492 413b b243 efbc 92dd 61bd 476a bbbd
00000240: ddd5 d9bd 16b5 0dbd 3198 203c c09e ce3c
00000250: 0649 babd 7a1b 0ebe 91ac 2a3b 3c9a 27bd
00000260: c96e a2bc 865f 54bd 4019 24be a70c 37bc
00000270: ce36 13be 41ef 29bd 1721 753c 9ead 0fbe
00000280: 2ef5 f6bd e55e 1f3c fe9a a5bd 0918 09be
00000290: 392d 97bd 280d 613c 78b3 0fbe 49b1 afbd
000002a0: 986a 94bd 7b2f 653c f08a aabd 10d2 cabd
000002b0: 09c4 263c b9ed 4f3c 0a8d a0bd 3043 8fbc
000002c0: f76e 24be 6600 09bd 8ce0 d8bd d7d5 72bd
000002d0: 5b13 abbd 0f06 a2bd edca b2bb 8d8a 60bd
000002e0: 1ea2 12be 6586 b6bd b0fb a6bd 13b3 e1bc
000002f0: 59f7 a5bd df7d 9cbd cd9f a2bd f30e 7abd
00000300: 6a72 1dbe 08b5 213a 1f4f c1bc f423 c3bb
00000310: f2a0 14bc c178 4bbd 01ab f6bd f82c 08be
00000320: 2e11 d7bd 47c5 e63b c507 993c 63e6 babd
00000330: 8ef9 f2bd 0b2a 03be 7b52 c0bd fb53 15be
00000340: 58f2 05be 0dbe f5bd c8df 84bd c5b1 0dbd
00000350: c812 bbbd b42e 11bd e9c3 f0bd bb54 6b3c
00000360: e7e1 0dbe 091a 41bd e812 d73b c7d6 76bc
00000370: 9a39 853b 1ac5 a2bd dd57 edbc 36f8 9c3c
00000380: 8d2d 83bd 204e 82bd 49cc 0abe 62f8 dd3b
00000390: 2f28 01be 4d32 c1bd c134 e0bd e18a 12bd
000003a0: 1bd7 d0bc 90f7 8fbd edab 3abb 00d4 42bd
000003b0: 4cd1 80ba 14f5 99bd e308 bbbd 9ed3 1ebe
000003c0: e453 babd 97fa 98bc 5ca5 8ebc 1cb3 febd
000003d0: 28e8 5ebd 5775 6dbc e2a7 cfbd a2d8 fbbd
000003e0: 054b 31bd bba4 febd 69f7 1ebc b836 93bd
000003f0: 1456 2fbc 5a88 e9bd 41cc c6bc e8a2 763c

bias f4 [100]
-0.025089817 -0.06268112 -0.060794678 -0.091523744 -0.11206514 -0.10277593 -0.040805083 -0.11278003
-0.073153354 -0.09480763 -0.14897789 -0.10917607 0.015702222 0.0049896496 -0.049661305 -0.019824795
-0.121320955 -0.1107302 -0.15376286 -0.08897131 -0.054070797 0.021467576 -0.07100208 -0.15684105
-0.10715422 -0.006830558 -0.040573794 -0.058298845 -0.11851692 -0.027021095 -0.112829626 0.008473223
0.017373372 -0.034330327 -0.14613964 -0.08311966 0.0018430398 0.02793097 -0.06947317 -0.10305296
-0.041119266 -0.15215406 -0.1507078 -0.004601845 -0.03988622 0.0036135332 0.004563747 -0.0024566136
-0.08683561 -0.07346916 -0.08552627 -0.15110041 -0.11177345 -0.1396311 -0.111681916 0.011510566
-0.10118318 -0.097941354 -0.1173765 -0.05596922 -0.07450832 -0.12842046 -0.007090886 -0.06703103
-0.15259045 -0.029113837 -0.007091665 0.010075218 -0.03690194 -0.040963445 -0.047918975 -0.0075572846
-0.05254442 -0.0455293 -0.14946344 -0.07443104 -0.114291996 -0.03771522 -0.08775017 -0.055589326
-0.109180816 -0.06312371 -0.013627699 -0.054884262 -0.1557979 -0.093125 -0.13849741 -0.047799215
-0.10835123 -0.15143904 -0.12962045 0.009681124 0.0068334024 0.025718117 -0.07976431 -0.08585059
-0.03869295 -0.09747943 0.0009691415 0.002418526
00000000: 2989 cdbc f65e 80bd d703 79bd cd70 bbbd
00000010: 6882 e5bd 307c d2bd 3b23 27bd 37f9 e6bd
00000020: 6dd1 95bd 812a c2bd a98d 18be b497 dfbd
00000030: f2a1 803c 3780 a33b a769 4bbd 9c67 a2bc
00000040: 1f77 f8bd 84c6 e2bd 0374 1dbe 9736 b6bd
00000050: 5779 5dbd c5dc af3c 8a69 91bd f19a 20be
00000060: ac73 dbbd e0d2 dfbb b530 26bd c5ca 6ebd
00000070: 00b9 f2bd 585b ddbc 3813 e7bd 46d3 0a3c
00000080: 9a52 8e3c f59d 0cbd a1a5 15be a43a aabd
00000090: 2792 f13a 7dcf e43c f347 8ebd 6e0d d3bd
000000a0: ad6c 28bd 46ce 1bbe 2553 1abe 13cb 96bb
000000b0: bc5f 23bd 07d1 6c3b 7c8b 953b 23ff 20bb
000000c0: ded6 b1bd 0077 96bd 6628 afbd 11ba 1abe
000000d0: 7be9 e4bd 75fb 0ebe 7db9 e4bd d096 3c3c
000000e0: 2139 cfbd 7a95 c8bd 1763 f0bd fb3f 65bd
000000f0: d197 98bd a780 03be aa5a e8bb 9147 89bd
00000100: ac40 1cbe 2480 eebc 3361 e8bb 8712 253c
00000110: 7d26 17bd 49c9 27bd b046 44bd 19a3 f7bb
00000120: d138 57bd ee7c 3abd f20c 19be 4d6f 98bd
00000130: ec11 eabd 467b 1abd 5cb6 b3bd a2b1 63bd
00000140: 319a dfbd 0147 81bd b646 5fbc 52ce 60bd
00000150: 7c89 1fbe 52b8 bebd 44d2 0dbe 1cc9 43bd
00000160: 40e7 ddbd d612 1bbe 39bb 04be 949d 1e3c
00000170: bcea df3b cdae d23c 785b a3bd 6fd2 afbd
00000180: 807c 1ebd 4ca3 c7bd fc0d 7e3a 2280 1e3b

weight f4 [116, 100]
0.08155419 -0.1327814 0.15515608 0.16079926 -0.17216569 0.07407039 -0.027184641 0.04006774
0.13646619 0.06253552 -0.08257335 -0.06104966 -0.049672596 0.014915736 0.062694386 -0.046287186
-0.06581407 0.017977692 0.0656775 -0.07862881 -0.19020066 -0.18479815 -0.06253006 -0.04752147
-0.059733275 0.08851953 0.1758967 0.043590073 0.029860293 0.10498086 0.17650543 -0.0005014983
-0.083126284 -0.16084835 -0.045861408 0.082103625 -0.12413123 0.031833656 -0.008370583 0.031567913
-0.19132623 -0.026468825 -0.108684145 0.012795737 0.20027056 -0.0016941885 0.00085381616 0.12594673
-0.15772086 0.073101036 -0.044993844 0.20057715 -0.031098519 -0.08844613 -0.022298373 0.06871761
-0.06268048 0.010428733 0.07021218 -0.098141894 -0.040411923 -0.0323914 -0.108910166 0.09668502
-0.03329334 0.18257605 -0.07948871 0.11087447 -0.048097555 0.08179259 0.14740895 0.26138926
0.016399477 0.14063352 0.0077658244 -0.12842089 0.04358237 -0.0054157567 -0.079438135 -0.041288123
0.19240652 0.01490266 0.0236763 0.15751544 0.083481595 -0.020146096 0.008106286 0.09143309
-0.032125805 0.020724276 0.002009853 -0.05401524 0.073696636 -0.00489365 -0.018261831 -0.07554168
0.066807635 -0.02800158 0.119985014 0.10322599 0.11867362 -0.11919388 0.047828 -0.076706134
0.23143098 0.16246027 0.052586872 0.30245104 0.11426169 0.11267078 0.08455225 0.028875142
0.01681622 -0.15898149 0.034248736 -0.03176166 -0.15597968 -0.16328704 -0.0063574095 -0.044353742
-0.14052922 -0.19059558 0.01898656 0.129221 -0.23491359 -0.023803866 0.10400103 0.079435885
-0.20682831 0.14595306 0.12783921 -0.074001625 0.028727995 -0.12995987 -0.0038817117 0.045995656
-0.11739467 0.12048807 -0.07211692 0.078391455 0.022720497 -0.14946197 -0.21530157 0.02244297
-0.07834478 0.07058521 -0.1279484 -0.042867217 0.024059875 -0.24571545 0.056673896 0.021065325
-0.042732265 -0.11529995 -0.03399812 0.15132502 -0.0029361579 -0.20910555 -0.13335194 0.11002744
0.16453256 0.27775398 0.11182475 0.044297222 -0.13720544 0.1621441 0.12706757 0.19547759
-0.034381382 -0.049990106 -0.05119271 0.12409724 -0.07505924 -0.014123482 0.21210168 0.0758789
-0.009277966 0.020116732 0.16415992 0.18348359 0.22355162 -0.1330071 -0.047246963 -0.08726268
-0.011287561 -0.1623819 -0.15672082 0.26296425 -0.048196338 0.05250225 -0.104168445 -0.11627608
0.0925276 0.11795602 -0.05583741 0.0019639595 0.12879667 -0.04261291 0.006942239 0.0129380915
0.060535084 -0.04836139 -0.079136975 0.25704062 -0.2856887 -0.09716288 -0.014017025 -0.018734628
-0.025649142 -0.181653 -0.07044669 0.13709198 0.09748216 -0.026995962 -0.082057334 -0.1306735
-0.01962478 -0.2289539 0.15959609 -0.03474682 -0.13304535 -0.2939014 -0.0630177 0.03378051
0.027034046 -0.03202348 -0.21553575 0.11957123 0.035984416 0.044397183 -0.059896432 -0.0012355119
0.055255122 -0.19910738 0.014330399 -0.064534456 0.07957993 -0.03424606 0.20308068 -0.16927558
-0.16224928 -0.06920612 -0.106276534 -0.19894336 0.2148985 -0.053942073 -0.0179953 -0.12222776
-0.13843931 0.15345311 0.050765593 0.18116863 0.061495718 -0.053067435 -0.06670019 -0.12508923
00000000: e205 a73d d9f7 07be 3ce1 1e3e 90a8 243e
00000010: 344c 30be 37b2 973d 53b2 debc 121e 243d
00000020: cbbd 0b3e 9f12 803d 371c a9bd 350f 7abd
00000030: 7e75 4bbd 2261 743c ea65 803d a297 3dbd
00000040: 87c9 86bd f445 933c ed81 863d 2408 a1bd
00000050: f6c3 42be ba3b 3dbe c30f 80bd dfa5 42bd
00000060: e1aa 74bd ba49 b53d 441e 343e 818b 323d
00000070: 939d f43c 3500 d73d d7bd 343e fb76 03ba
00000080: 1d3e aabd 6eb5 24be 2cd9 3bbd f225 a83d
00000090: 8438 febd 0264 023d c524 09bc 5b4d 013d
000000a0: 06eb 43be 26d5 d8bc cb95 debd 36a5 513c
000000b0: ba13 4d3e 880f deba a2d2 5f3a 2ef8 003e
000000c0: 9481 21be ffb5 953d 774b 38bd 1964 4d3e
000000d0: 52c2 febc 3f23 b5bd 14ab b6bc d1bb 8c3d
000000e0: a05e 80bd 47dd 2a3c 67cb 8f3d 9efe c8bd
000000f0: f986 25bd d8ac 04bd 4b0c dfbd cc02 c63d
00000100: 995e 08bd 37f5 3a3e faca a2bd 2712 e33d
00000110: f101 45bd e082 a73d 5ff2 163e d0d4 853e
00000120: 3258 863c 3c02 103e 7578 fe3b c480 03be
00000130: 6d83 323d a976 b1bb 76b0 a2bd bc1d 29bd
00000140: 3706 453e 492a 743c cdf4 c13c ba4b 213e
00000150: 66f8 aa3d 6d09 a5bc 3ad0 043c 4641 bb3d
00000160: 5996 03bd f5c5 a93c bdb7 033b 163f 5dbd
00000170: 43ee 963d e95a a0bb d699 95bc 99b5 9abd
00000180: 71d2 883d 9263 e5bc b4ba f53d 2668 d33d
00000190: 280b f33d ec1b f4bd 4be7 433d 1b18 9dbd
000001a0: 3efc 6c3e fc5b 263e 5565 573d ddda 9a3e
000001b0: 0802 ea3d f0bf e63d bb29 ad3d 908b ec3c
000001c0: 2bc2 893c 0bcc 22be 6748 0c3d 8418 02bd
000001d0: 23b9 1fbe b834 27be d151 d0bb 45ac 35bd
000001e0: e4e6 0fbe 7d2b 43be b489 9b3c 8352 043e
000001f0: 308d 70be 5300 c3bc 7efe d43d 48af a23d
00000200: cdca 53be b874 153e 48e8 023e 2a8e 97bd
00000210: f956 eb3c 3314 05be 5164 7ebb f165 3c3d
00000220: 9e6c f0bd 73c2 f63d 09b2 93bd b38b a03d
00000230: 5620 ba3c 8f0c 19be 0478 5cbe 52da b73c
00000240: 3a73 a0bd fb8e 903d e804 03be 8995 2fbd
00000250: 3719 c53c d59c 7bbe e322 683d 3091 ac3c
00000260: 0708 2fbd 6122 ecbd 9d41 0bbd f2f4 1a3e
00000270: 8e6c 40bb c41f 56be 698d 08be 1156 e13d
00000280: 397b 283e c535 8e3e 6004 e53d 0171 353d
00000290: 957f 0cbe 1a09 263e 001e 023e 472b 483e
000002a0: 7ed3 0cbd 6dc2 4cbd 72af 51bd b226 fe3d
000002b0: a9b8 99bd 2d66 67bc 2f31 593e 6666 9b3d
000002c0: 9c02 18bc d8cb a43c 8a19 283e 1fe3 3b3e
000002d0: b7ea 643e 0333 08be 0886 41bd c7b6 b2bd
000002e0: 76ef 38bc 7147 26be 6c7b 20be 40a3 863e
000002f0: 8669 45bd 990c 573d 4456 d5bd 2722 eebd
00000300: 1c7f bd3d ed92 f13d c5b5 64bd c6b5 003b
00000310: 46e3 033e e08a 2ebd b97b e33b 4afa 533c
00000320: a3f3 773d 9816 46bd 9112 a2bd d49a 833e
00000330: ca45 92be 55fd c6bd aaa7 65bc 5d79 99bc
00000340: 261e d2bc 3e03 3abe 5b46 90bd d761 0c3e
00000350: baa4 c73d a326 ddbc ad0d a8bd 46cf 05be
00000360: 26c4 a0bc e472 6abe 286d 233e ae52 0ebd
00000370: 0a3d 08be 3f7a 96be 6d0f 81bd 6f5d 0a3d
00000380: 8176 dd3c 0d2b 03bd 67b5 5cbe c3e1 f43d
00000390: 6564 133d d2d9 353d f655 75bd e6f0 a1ba
000003a0: 3253 623d cee2 4bbe 0dca 6a3c a42a 84bd
000003b0: cdfa a23d 9945 0cbd 62f4 4f3e 9456 2dbe
000003c0: ad24 26be f0bb 8dbd 83a7 d9bd cfb7 4bbe
000003d0: 5a0e 5c3e 5df2 5cbd e16a 93bc 8c52 fabd
000003e0: 09c3 0dbe d022 1d3e 95ef 4f3d 4584 393e
000003f0: efe2 7b3d 3d5d 59bd 1c9a 88bd 6417 00be

bias f4 [116]
0.23324673 0.09210078 0.12208394 0.10274102 0.10165016 0.24606904 0.24934968 0.22128704
0.11848407 0.103071086 -0.016115934 0.04564572 0.14883213 0.068573534 0.09784954 0.20633979
0.07939651 0.112130634 -0.01877158 -0.008511834 0.09408557 0.12996672 0.17372976 0.15196376
0.14549908 -0.019834584 0.15078495 0.1554164 0.13655819 0.02094118 0.09511304 0.065360315
0.029632425 0.097183004 0.10645256 0.0042163753 0.123884365 0.20418511 0.1549969 0.28099012
0.08365351 0.19881849 0.20753118 0.08591807 0.06917776 0.21470784 0.180508 0.08383252
0.18484712 0.003941804 0.056118548 0.18389666 -0.007914995 0.12772183 0.113491595 0.06836966
0.12506346 0.06623164 0.07019271 0.062128786 0.12897131 0.27849036 0.12783949 0.17844588
0.22097543 0.12090833 0.18082003 0.124079265 0.23116347 0.18264903 0.06382837 0.049140766
0.20085812 0.05188966 0.16565642 0.21594776 0.19273262 0.21914248 0.11583054 -0.007477494
0.14407547 0.033864427 0.12627037 0.15189242 0.101568684 0.19728623 0.012030933 0.15499943
0.13270019 0.18275407 0.0656665 0.122587256 0.0900992 0.19067022 -0.015790626 0.0072230375
0.038978532 0.11194619 0.20705923 0.2117185 0.20827357 0.19478483 0.1119405 0.11592853
0.17897372 0.020272708 0.14566578 0.059584085 0.09719295 0.08639336 0.1618862 0.19745196
0.222786 0.242208 0.26017556 0.18668628
00000000: 3bd8 6e3e 559f bc3d 2507 fa3d e269 d23d
00000010: f62d d03d 86f9 7b3e 8655 7f3e 1299 623e
00000020: c7a7 f23d ef16 d33d 9005 84bc 02f7 3a3d
00000030: 7367 183e 4870 8c3d 5765 c83d bd4a 533e
00000040: a39a a23d bfa4 e53d dbc6 99bc 3875 0bbc
00000050: efaf c03d ff15 053e 37e6 313e 639c 1b3e
00000060: b6fd 143e 237c a2bc 5f67 1a3e 7a25 1f3e
00000070: e9d5 0b3e d68c ab3c a0ca c23d a1db 853d
00000080: b3bf f23c e207 c73d cd03 da3d 8529 8a3b
00000090: 16b7 fd3d e715 513e 82b7 1e3e f0dd 8f3e
000000a0: 8852 ab3d 1397 4b3e 0e83 543e d0f5 af3d
000000b0: 12ad 8d3d 5fdc 5b3e 17d7 383e 62b0 ab3d
000000c0: 9048 3d3e 402a 813b 90dc 653d 684f 3c3e
000000d0: e5ad 01bc 83c9 023e 486e e83d 6405 8c3d
000000e0: a310 003e 74a4 873d 32c1 8f3d c17a 7e3d
000000f0: 0e11 043e 4a96 8e3e 5be8 023e 84ba 363e
00000100: 6247 623e c99e f73d e328 393e 451d fe3d
00000110: 1eb6 6c3e 5908 3b3e 73b8 823d d447 493d
00000120: c0ad 4d3e 418a 543d d6a1 293e 6921 5d3e
00000130: b35b 453e e366 603e 9038 ed3d c405 f5bb
00000140: 8588 133e 6db5 0a3d 054d 013e b089 1b3e
00000150: 3e03 d03d 6705 4a3e 641d 453c 2cb8 1e3e
00000160: 8fe2 073e e223 3b3e 287c 863d 070f fb3d
00000170: ee85 b83d 0e3f 433e 585b 81bc 3baf ec3b
00000180: f4a7 1f3d 0b44 e53d 5607 543e bccc 583e
00000190: ab45 553e ad75 473e 1041 e53d f06b ed3d
000001a0: e344 373e f312 a63c 6929 153e 710e 743d
000001b0: 190d c73d 00ef b03d 7fc5 253e d930 4a3e
000001c0: 0322 643e 6005 783e bb35 853e b02a 3f3e

weight f4 [232, 116]
-0.005316452 0.0752134 0.13019834 -0.018223211 -0.0004520397 0.08008216 0.16620164 -0.089709036
0.0480514 0.0122110015 0.00031680125 0.014372941 -0.008868286 -0.049761023 0.2045307 -0.058928106
-0.0786066 -0.118828304 -0.09127154 0.022591855 0.032679487 0.0694028 0.055188898 0.06816831
0.035502013 0.05484991 0.061248627 0.014292007 0.051991705 0.17752904 -0.00021660507 0.015066931
-0.0017312085 -0.046850797 0.15152965 -0.036127776 0.08325936 0.058228083 -0.032948557 0.070392154
-0.12211833 -0.038808066 -0.18215118 -0.076729916 0.13510776 -0.035137706 0.09164775 -0.09154657
-0.11286363 0.09161009 -0.13972096 0.007815743 -0.09755364 -0.07817359 -0.001726957 -0.03601441
-0.023477634 0.040914208 0.1412663 0.069876745 -0.037434865 -0.17105107 0.019401746 -0.06885712
0.021126026 -0.15685369 -0.085637316 -0.2821185 -0.1156902 -0.04126235 -0.108229816 -0.03474802
0.031559706 0.07651886 0.09633382 -0.15539074 0.09879138 -0.08673123 0.03565875 -0.035076775
-0.07680572 0.040886067 -0.164569 -0.056342706 -0.14673638 0.20198464 0.021796012 0.12745537
-0.038182802 -0.07559529 0.020002538 -0.20985198 0.12508547 0.06248641 -0.02442595 0.05177341
0.11130182 -0.079168275 0.030107943 0.06440278 -0.04408861 0.0007333481 0.08966428 0.07617184
0.05167292 0.19284584 0.1624875 0.17529434 -0.035096187 -0.12817511 0.08791846 -0.0434584
-0.1639411 0.025310012 -0.046445843 -0.13580708 -0.07514317 0.053436603 0.078592695 0.028022198
0.032229047 0.12998912 0.11776517 0.07233696 0.009103063 0.022368377 0.004843097 -0.11634699
0.097511806 0.10009907 0.046900593 -0.10423292 0.04946787 0.005476477 -0.029335735 0.007454746
0.03442087 0.048309013 0.031045312 0.0495626 -0.056182273 -0.0514398 -0.037924938 -0.067545556
-0.016714664 0.120704696 -0.10281395 -0.06320458 -0.1362019 -0.10852934 -0.0011116334 -0.11186424
0.08032521 0.1572463 -0.06539055 0.12700114 0.061003942 -0.09043958 -0.093148924 -0.0023877712
0.017551726 0.039305788 -0.04549655 -0.0066722785 -0.15579079 -0.15222089 0.068547636 0.017490478
-0.036644604 -0.053259507 -0.039624136 0.015125955 0.08533862 -0.05151844 0.058865946 0.011698173
0.0065653236 0.0013359262 -0.021419952 -0.030521654 -0.03262552 -0.12842424 -0.07098959 -0.14197944
-0.06709682 0.06973431 -0.08562762 0.11010896 0.043489665 0.081076354 -0.028324528 -0.08549638
0.03718572 0.0104322815 0.11308432 0.1591354 -0.07498123 -0.02454479 0.013731866 -0.14167584
-0.0066707255 0.0543031 -0.09359391 -0.047760632 0.03702347 0.0966921 -0.09758722 -0.15718976
0.05196683 -0.058810856 -0.03193945 -0.039109953 0.05961322 -0.040309418 -0.037760284 0.10305138
0.20489042 -0.06275898 -0.012228633 0.17154273 0.09692041 -0.063307755 -0.033726644 0.02794873
-0.0018069759 -0.15058562 0.18063717 0.06035811 0.054816574 -0.17306733 0.03665216 0.014761083
0.061746016 -0.109827474 -0.023286665 -0.08391292 0.1956792 -0.060084596 0.0062884856 -0.08133614
-0.048089392 0.015052746 0.025651341 0.13889143 -0.18580163 0.05490924 0.04362907 -0.15757035
0.07187943 0.06859698 -0.06018098 0.062105358 -0.07572734 0.0013762083 0.03195172 -0.10375469
00000000: a235 aebb 7c09 9a3d b752 053e d848 95bc
00000010: beff ecb9 1e02 a43d c330 2a3e 5fb9 b7bd
00000020: 8bd1 443d a710 483c 5818 a639 7c7c 6b3c
00000030: 4a4c 11bc 37d2 4bbd 7f70 513e 995e 71bd
00000040: 7ffc a0bd 415c f3bd 93ec babd 8e12 b93c
00000050: edda 053d 0e23 8e3d c10d 623d d49b 8b3d
00000060: 8f6a 113d 4daa 603d d7df 7a3d 0629 6a3c
00000070: 41f5 543d 2cca 353e 7b20 63b9 4adb 763c
00000080: b8e9 e2ba 9fe6 3fbd 972a 1b3e b8fa 13bd
00000090: e283 aa3d 9280 6e3d 11f5 06bd c329 903d
000000a0: 2d19 fabd 35f5 1ebd d785 3abe 9324 9dbd
000000b0: b059 0a3e 8eec 0fbd d1b1 bb3d c57c bbbd
000000c0: 0c25 e7bd 129e bb3d 0313 0fbe 9a0d 003c
000000d0: 34ca c7bd 7a19 a0bd 105b e2ba d983 13bd
000000e0: 2b54 c0bc a895 273d 1da8 103e 8a1b 8f3d
000000f0: 4d55 19bd 0328 2fbe 69f0 9e3c f604 8dbd
00000100: 7d10 ad3c 419e 20be 9e62 afbd d671 90be
00000110: fcee ecbd b602 29bd 98a7 ddbd f153 0ebd
00000120: c044 013d ecb5 9c3d aa4a c53d c01e 1fbe
00000130: 2353 ca3d 25a0 b1bd e90e 123d aaac 0fbd
00000140: 514c 9dbd 2678 273d c784 28be 9cc7 66bd
00000150: 1042 16be 10d5 4e3e 8d8d b23c a983 023e
00000160: 9265 1cbd b4d1 9abd 5ddc a33c 70e3 56be
00000170: 6816 003e c0f1 7f3d ee18 c8bc 5b10 543d
00000180: 35f2 e33d fa22 a2bd efa4 f63c 9be5 833d
00000190: 4296 34bd 283e 403a e8a1 b73d fbff 9b3d
000001a0: fca6 533d 6179 453e 2063 263e 5c80 333e
000001b0: 05c1 0fbd 5640 03be 980e b43d 6f01 32bd
000001c0: 2de0 27be f156 cf3c ff3d 3ebd 0311 0bbe
000001d0: aae4 99bd 57e0 5a3d 35f5 a03d cf8e e53c
000001e0: 9b02 043d de1b 053e de2e f13d 6625 943d
000001f0: 0325 153c e33d b73c d8b2 9e3b 5547 eebd
00000200: 45b4 c73d be00 cd3d d61a 403d 1278 d5bd
00000210: d29e 4a3d 0574 b33b 7f51 f0bc f146 f43b
00000220: e6fc 0c3d acdf 453d bd52 fe3c 2702 4b3d
00000230: 621f 66bd 8ab2 52bd 2e57 1bbd 5355 8abd
00000240: 31ed 88bc 0634 f73d 1f90 d2bd 6771 81bd
00000250: 8378 0bbe a144 debd 3ab4 91ba 1419 e5bd
00000260: 8b81 a43d 2d05 213e 7beb 85bd 960c 023e
00000270: 45df 793d 6338 b9bd ddc4 bebd 277c 1cbb
00000280: a3c8 8f3c 1bff 203d 975a 3abd 21a3 dabb
00000290: 9f87 1fbe cbdf 1bbe b462 8c3d 3148 8f3c
000002a0: a718 16bd a426 5abd eb4c 22bd dbd2 773c
000002b0: 04c6 ae3d 0005 53bd 6b1d 713d b2a9 3f3c
000002c0: ed21 d73b 3f1a af3a e578 afbc 8c08 fabc
000002d0: 56a2 05bd a581 03be fd62 91bd 0f63 11be
000002e0: 0f6a 89bd ddd0 8e3d 895d afbd ce80 e13d
000002f0: 3822 323d 5c0b a63d d708 e8bc ba18 afbd
00000300: 0e50 183d 29ec 2a3c c198 e73d 64f4 223e
00000310: c28f 99bd 2812 c9bc 9ffb 603c 7913 11be
00000320: 1a96 dabb ed6c 5e3d 2aae bfbd a7a0 43bd
00000330: eca5 173d 8206 c63d cfdb c7bd 5af6 20be
00000340: 2cdb 543d a7e3 70bd f1d2 02bd c231 20bd
00000350: fe2c 743d 7d1b 25bd 87aa 1abd 9a0c d33d
00000360: cbce 513e c887 80bd 9b5a 48bc e6a8 2f3e
00000370: 357e c63d 7fa7 81bd f324 0abd bcf4 e43c
00000380: 0dd8 ecba 1e33 1abe f3f8 383e 113a 773d
00000390: 5887 603d 9038 31be 9320 163d 78d8 713c
000003a0: 64e9 7c3d 3aed e0bd adc3 bebc 89da abbd
000003b0: 2160 483e 441b 76bd a40f ce3b 9093 a6bd
000003c0: 62f9 44bd cb9f 763c c322 d23c 8e39 0e3e
000003d0: c842 3ebe 83e8 603d 65b4 323d 1f5a 21be
000003e0: 8635 933d 937c 8c3d 5580 76bd 3062 7e3d
000003f0: f016 9bbd e361 b43a cfdf 023d 577d d4bd

bias f4 [232]
0.02184599 -0.023062227 0.03340212 0.001925383 -0.08524013 -0.05464476 -0.004528898 -0.088924564
-0.025680067 0.08088386 -0.04883339 0.050029725 -0.07881151 0.02543303 -0.00097035035 -0.06529757
-0.014253952 -0.022053763 0.013331348 0.06324729 -0.037868273 -0.016332168 -0.03212943 -0.10360427
0.091720656 0.047587514 0.069919445 -0.074797295 0.017727759 0.06575367 -0.041319255 0.042979077
0.0008037031 -0.04741918 0.069560535 -0.000884411 0.08963514 0.05555044 -0.05433715 -0.0062806187
0.002011332 -0.06254593 0.031778753 0.07483441 -0.05977431 -0.008582602 -0.030804738 -0.07289123
-0.014093376 0.1072948 0.0048709293 -0.04121846 0.08833589 -0.033809867 -0.08503025 0.052685022
0.054482207 -0.023753634 -0.028713262 0.072751485 -0.032276478 -0.028652957 0.03042302 -0.06397146
0.017479815 -0.05572313 0.005850563 -0.048958063 0.07754296 0.03354458 -0.021909634 0.07944817
-0.05920744 0.012638332 0.041367035 -0.0896575 0.033505004 -0.044869058 -0.057136763 -0.03429825
0.03805524 -0.000539241 -0.08543102 -0.0015548302 0.009072565 -0.0044854726 -0.06086353 -0.04253878
0.027104797 0.08481966 -0.003248807 0.062177807 -0.05272882 -0.015918052 -0.0074924263 -0.051378544
-0.013563687 -0.0641281 0.08719519 -0.078610785 0.038374104 -0.050565083 -0.023220045 0.040878784
-0.064445704 0.039258886 0.017705798 0.07248492 -0.075860076 -0.0043406477 0.08092408 -0.020561773
-0.0665776 0.054888126 -0.05375085 -0.018109297 -0.0621572 0.015228925 -0.03276871 0.08539936
-0.08217206 0.07832579 -0.0397207 0.0029635343 0.0667597 -0.062018972 -0.060949896 0.08549446
0.00965273 0.017626401 -0.05052043 -0.0050039194 0.033902638 -0.07134813 0.0545103 0.0035302425
-0.06528529 0.005483009 0.021525396 -0.06845133 0.026462829 -0.045787208 0.024761695 -0.08191873
0.0182247 -0.022088513 0.041077197 -0.018838685 -0.0026931693 -0.016220124 -0.03836338 0.07410109
-0.048532367 0.09826536 -0.026022917 -0.06756168 -0.06412778 -0.0884271 -0.04782232 0.05907009
0.060532678 0.025220051 0.020535404 -0.027719969 -0.06502077 -0.031049218 0.018224327 0.02844457
-0.0037437102 0.035380024 0.0116778035 -0.056188468 0.06667955 -0.041917548 0.062093817 0.06642037
-0.07603141 -0.03352686 -0.047672924 -0.0269065 -0.002623459 0.05132571 0.011559432 0.048842717
0.027776532 0.045826275 0.026241362 -0.021474369 0.040589355 -0.032475896 0.015026636 0.012098712
0.05022009 0.019346265 -0.061305985 0.06687384 0.029002089 0.055909455 0.068823814 -0.016606359
0.08357684 0.056601387 -0.051214974 -0.0435789 0.0019828454 0.085443035 -0.00941314 -0.013272954
-0.03393965 -0.09438539 -0.04404704 -0.002941802 -0.0031878063 -0.053860415 0.021896278 -0.052523132
-0.033782057 0.030061264 0.05191506 0.0857079 0.059268363 0.08088383 -0.043265603 0.04682547
-0.029062232 0.008975323 0.07067608 -0.006962794 0.048189055 0.014307046 0.0039621447 0.0718442
00000000: 5df6 b23c ffec bcbc a9d0 083d 225d fc3a
00000010: 6192 aebd 2fd3 5fbd 2667 94bb 151e b6bd
00000020: 015f d2bc 70a6 a53d 8505 48bd f8eb 4c3d
00000030: ee67 a1bd ee58 d03c 1c5f 7eba bbba 85bd
00000040: 6889 69bc 18aa b4bc ba6b 5a3c cc87 813d
00000050: c31b 1bbd 0acb 85bc 269a 03bd 7a2e d4bd
00000060: 0ad8 bb3d 20eb 423d ed31 8f3d 532f 99bd
00000070: ce39 913c dca9 863d 613e 29bd d40a 303d
00000080: 9aaf 523a 9d3a 42bd c175 8e3d d1d7 67ba
00000090: a192 b73d dc88 633d a290 5ebd a6cd cdbb
000000a0: 8dd0 033b 1518 80bd 702a 023d c842 993d
000000b0: e8d5 74bd 0b9e 0cbc 385a fcbc ff47 95bd
000000c0: e7e7 66bc 60bd db3d 519c 9f3b b0d4 28bd
000000d0: 72e9 b43d 377c 0abd 5724 aebd 40cc 573d
000000e0: bc28 5f3d fb96 c2bc 1338 ebbc bbfe 943d
000000f0: 5734 04bd 9bb9 eabc b239 f93c 7803 83bd
00000100: d431 8f3c f03d 64bd 14b6 bf3b 4088 48bd
00000110: d8ce 9e3d 0b66 093d d57b b3bc b9b5 a23d
00000120: 8083 72bd 0211 4f3c 7b70 293d 5a9e b7bd
00000130: 8b3c 093d 9ec8 37bd 3d08 6abd 527c 0cbd
00000140: d0df 1b3d da5b 0dba 75f6 aebd 72cb cbba
00000150: 18a5 143c dffa 92bb 094c 79bd 253d 2ebd
00000160: e10a de3c eeb5 ad3d f0e9 54bb 28ae 7e3d
00000170: 2dfa 57bd 9366 82bc 0783 f5bb 4f72 52bd
00000180: 3a3a 5ebc 9855 83bd 6493 b23d b1fe a0bd
00000190: 2a2e 1d3d 551d 4fbd f737 bebc 8370 273d
000001a0: 1cfc 83bd edcd 203d c00b 913c f972 943d
000001b0: 875c 9bbd fe3b 8ebb 86bb a53d 2a71 a8bc
000001c0: d659 88bd 5fd2 603d da29 5cbd f359 94bc
000001d0: 8c98 7ebd be82 793c 7c38 06bd dce5 ae3d
000001e0: d349 a8bd 4669 a03d 2cb2 22bd db37 423b
000001f0: 4fb9 883d 9b07 7ebd 99a6 79bd b817 af3d
00000200: 7c26 1e3c 3e65 903c 83ee 4ebd ebf7 a3bb
00000210: 7edd 0a3d f81e 92bd 3146 5f3d a45b 673b
00000220: 4bb4 85bd d0aa b33b 0756 b03c 3630 8cbd
00000230: 93c8 d83c 5e8b 3bbd 0ad9 ca3c 02c5 a7bd
00000240: f74b 953c f8f2 b4bc 9040 283d 9653 9abc
00000250: e27f 30bb 11e0 84bc eb22 1dbd 50c2 973d
00000260: e0c9 46bd 593f c93d 032e d5bc c75d 8abd
00000270: 6d55 83bd 4419 b5bd 56e1 43bd 7bf3 713d
00000280: 1df1 773d 489a ce3c dd39 a83c fd14 e3bc
00000290: 9c29 85bd ee5a febc 2f4b 953c 9604 e93c
000002a0: 0959 75bb a5ea 103d 4254 3f3c e125 66bd
000002b0: 4a8f 883d bcb1 2bbd 1656 7e3d 6707 883d
000002c0: 5bb6 9bbd 7653 09bd af44 43bd 056b dcbc
000002d0: 57ee 2bbb e83a 523d c663 3d3c 4d0f 483d
000002e0: 9c8b e33c 55b4 3b3d 20f8 d63c 04eb afbc
000002f0: 0641 263d 7205 05bd 4832 763c ad39 463c
00000300: 95b3 4d3d 0f7c 9e3c fc1b 7bbd 27f5 883d
00000310: ca95 ed3c 5001 653d 80f3 8c3d 0f0a 88bc
00000320: 562a ab3d dbd6 673d cbc6 51bd ca7f 32bd
00000330: a0f2 013b c2fc ae3d 9239 1abc ce76 59bc
00000340: 4d04 0bbd 214d c1bd ab6a 34bd 3fcb 40bb
00000350: 84ea 50bb bd9c 5cbd d35f b33c 7f22 57bd
00000360: 0e5f 0abd 0a43 f63c e3a4 543d a087 af3d
00000370: 62c3 723d 6ca6 a53d 4637 31bd 10cc 3f3d
00000380: eb13 eebc 3c0d 133c 9fbe 903d 2628 e4bb
00000390: e361 453d 1a68 6a3c e1d4 813b 0d23 933d
