Mice Tumors/tumor_load/b/in_dim:62_mid_dim_1:70_mid_dim_2:35_out_dim:1_lr:0.001_test_size:0.2_batch_size:4_shuffle:True_epochs:500_.pt (torch_old, 28750 bytes, 5 tensors)

fc1.weight f4 [70, 62]
000000 53 b3 b0 bb c7 cf 20 bd 54 69 80 3d 67 4e 05 3c
       -0.005392471 -0.039260652 0.0627009 0.008136368
000010 b9 be 64 bd 1e 76 ab bc 41 e8 fd bc dc ba 68 3c
       -0.05584595 -0.020930346 -0.030994536 0.014204707
000020 0b f2 e5 3a e3 3b 9c 3c 77 84 c0 3b bb 10 bf bd
       0.0017543448 0.019071525 0.005875166 -0.09329363
000030 1a 72 a5 bd 30 57 1c bc 19 4d 82 bc 0e b5 c7 bd
       -0.08078404 -0.0095422715 -0.015905904 -0.0975133
000040 0f 5c cd bb f4 38 fd bb d5 70 37 3c 77 c3 b1 bb
       -0.0062670778 -0.0077277366 0.011196335 -0.0054249126
000050 29 45 b2 bb 73 fd b0 bb d0 22 b1 bb a7 51 2b bc
       -0.0054403734 -0.0054013073 -0.0054057613 -0.010456479
000060 ff a7 92 3c 2c e3 b1 bb 66 ee 20 bd b0 aa b3 3d
       0.017902372 -0.0054286923 -0.039289854 0.087727904
000070 56 44 1e 3d 99 e0 3f 3b 6e 49 82 3d 21 4e 81 3d
       0.03863939 0.0029278158 0.06361662 0.0631373
000080 38 6f ac 3c 05 02 c8 3d e9 04 34 3d 8d d7 19 3c
       0.021049127 0.0976601 0.043949995 0.00938977
000090 3a 26 b5 3b 06 b1 8c 3b 33 b9 8c bc dc b4 b3 3c
       0.0055282386 0.004293564 -0.017178154 0.021936826
0000a0 0a 34 18 3d 70 6f fd bc b3 56 5f bc 51 8a b0 bb
       0.037159003 -0.030936927 -0.013631511 -0.0053875824
0000b0 e1 e1 b0 bb b0 56 9a bc 55 39 b2 bb bc 21 db bc
       -0.0053980206 -0.018840164 -0.0054389634 -0.026749484
0000c0 cd d0 af bb 25 fe 63 3a 01 4d 56 3d 79 69 b1 bb
       -0.005365467 0.0008697233 0.05231953 -0.0054141846
0000d0 81 ea b1 bb a2 3e ed 3a 78 a2 e0 bc 3d b3 2d 3c
       -0.0054295664 0.0018100331 -0.027421221 0.010601816
0000e0 54 22 b0 bb cb b5 b1 bb d8 df 09 bd 5c 37 be b9
       -0.005375186 -0.0054232827 -0.03366074 -0.0003628087
0000f0 35 e8 cf bc ef 4a c2 3d 25 67 bb 33 06 5c 62 32
       -0.02537928 0.09486949 8.726628e-08 1.3175855e-08
000100 13 84 02 34 e3 10 db 32 8c 36 7a b5 ee 1f 06 b2
       1.2155242e-07 2.5502635e-08 -9.3211634e-07 -7.8070865e-09
000110 ba 7c cf 32 32 03 3f 32 7e 8e 17 35 32 e6 96 b5
       2.415469e-08 1.111839e-08 5.6459237e-07 -1.1242867e-06
000120 08 f3 bf b4 1b 60 0f 36 7d 92 15 b4 cd f4 8d b5
       -3.575335e-07 2.1364601e-06 -1.3929998e-07 -1.0576565e-06
000130 cd 87 05 34 af 93 71 b4 12 8f 18 34 d3 86 65 b3
       1.2435994e-07 -2.2498601e-07 1.4208152e-07 -5.344084e-08
000140 92 cd 95 b4 95 67 bb 33 94 84 bb 33 d6 68 bb 33
       -2.7902985e-07 8.7267075e-08 8.731982e-08 8.7269356e-08
000150 80 6e bb 33 0f 5c 15 34 a6 6e aa 34 2c 99 bb 33
       8.727966e-08 1.3910197e-07 3.1745475e-07 8.735728e-08
000160 bc 45 34 34 e4 7a 0c b3 69 ca 0c 34 d1 db e0 b1
       1.6789176e-07 -3.270806e-08 1.3112152e-07 -6.5442483e-09
000170 6c 2a 2b b2 c2 9d 3a b2 20 f8 12 b4 61 9a 0d 33
       -9.963156e-09 -1.0862495e-08 -1.3687577e-07 3.2969528e-08
000180 fb 1d df 32 a9 6e e2 b2 0e fe 10 34 4c 39 08 b3
       2.597425e-08 -2.6360185e-08 1.350347e-07 -3.171708e-08
000190 e7 1a 1c 32 ea ca c8 b1 9f fd 70 b3 f4 eb 2a 32
       9.086512e-09 -5.8438347e-09 -5.611002e-08 9.948952e-09
0001a0 d1 bb bb 33 03 72 bb 33 cd b1 bb 33 61 c7 8f b2
       8.74203e-08 8.728605e-08 8.740208e-08 -1.6738058e-08
0001b0 96 c1 09 34 ff 14 b6 32 4b 8c bb 33 cd 39 ca b4
       1.2829545e-07 2.1197136e-08 8.733385e-08 -3.7667488e-07
0001c0 80 d5 b4 b4 a7 91 bb 33 44 68 bb 33 8c 4b 06 b3
       -3.3682954e-07 8.73436e-08 8.726832e-08 -3.1268016e-08
0001d0 69 29 3d 34 c1 a2 ba 33 18 88 bb 33 65 d1 bb 33
       1.7617062e-07 8.690905e-08 8.7326214e-08 8.745955e-08
0001e0 0a 44 0e 33 50 b4 95 b3 87 8b 1d b3 3d ce 4e b5
       3.3123833e-08 -6.971152e-08 -3.668131e-08 -7.7041096e-07
0001f0 08 b6 64 ba 2a 5f 80 3d ab a1 dc 3d 2e 7b ac 3c
       -0.00087246345 0.06268151 0.10773023 0.02105483
000200 86 69 ff 3c e6 47 08 3d 77 57 ea 3d 52 87 88 3d
       0.031178247 0.033271693 0.11442464 0.06666435
000210 46 4c 35 3c 9f f7 51 3d 81 d7 1e bb 13 75 50 bd
       0.011065548 0.05126154 -0.0024237337 -0.0508929
000220 04 00 31 bd 69 13 d5 3c a4 78 97 bd 73 4a 17 be
       -0.043212906 0.026010232 -0.07396057 -0.14774494
000230 8e d0 2d bd 3f 16 63 3d e1 3c 95 bb 6b df d3 3a
       -0.04243522 0.055441137 -0.0045543765 0.0016164606
000240 d5 37 58 3a 66 3c b1 3a d0 c5 8f 3a 88 23 a7 bc
       0.0008248066 0.0013522028 0.0010968987 -0.020402685
000250 d3 e7 ce bc ab 0a e7 3a b7 c8 62 be 10 21 9e 3c
       -0.025257027 0.0017627081 -0.22146879 0.019302875
000260 2f ee 77 bd b5 10 28 bd f2 b1 9c 3d 1f 1c d8 3d
       -0.060529884 -0.041031558 0.07651128 0.10552239
000270 88 7d 60 bc 83 fe 04 3e 2c 2b a0 bb 9d 2b 05 bd
       -0.013701804 0.12987714 -0.004887959 -0.032512296
000280 c9 36 3a bb 9f e5 5b bd c9 79 92 bc 8a 41 5b b9
       -0.0028414002 -0.05368578 -0.017880337 -0.00020909883
000290 dd fa 59 3d d4 b2 70 bb 24 c8 0d bd 0c a6 55 3a
       0.053217757 -0.0036727684 -0.034614697 0.0008150048
0002a0 39 fe 2b 39 75 d6 6f 3d d7 22 03 ba 90 bc 14 bc
       0.00016402536 0.05855413 -0.0005002445 -0.00907816
0002b0 32 ca 57 ba 68 96 be bb 74 73 62 3d 64 bc 62 3a
       -0.00082317286 -0.0058162697 0.055285886 0.0008649288
0002c0 38 37 2c ba 05 e4 b9 bb 0c 17 e3 bd bc 09 c9 3c
       -0.00065695075 -0.005672934 -0.1108838 0.024540775
0002d0 fc f0 82 3a 42 03 03 3a f1 4f 14 bd 4a ca 55 bd
       0.0009990032 0.0004997739 -0.03620905 -0.05219487
0002e0 db 40 74 bd 76 a7 c3 3d e6 b9 94 b4 6e ed c2 b4
       -0.059632163 0.09553425 -2.7702407e-07 -3.630807e-07
0002f0 68 d0 85 b4 75 d5 94 b4 ad 6a c2 34 b1 7d 25 b4
       -2.4924816e-07 -2.772246e-07 3.6212933e-07 -1.5412549e-07
000300 a5 04 9f 34 6c b8 a3 b4 d4 ea 89 34 95 e5 39 34
       2.9619437e-07 -3.04953e-07 2.5689098e-07 1.7312989e-07
000310 e2 40 7b 34 68 86 b8 34 af 81 84 34 0c 5f 8f 34
       2.3399801e-07 3.4370464e-07 2.4681273e-07 2.670498e-07
000320 2a d9 94 34 fc ee 5a b3 5e c5 65 b4 e2 82 c2 34
       2.7725156e-07 -5.0974435e-08 -2.1399089e-07 3.6230546e-07
000330 47 69 f5 33 f3 e9 a3 b4 47 1d 9c b4 00 46 8b b4
       1.14278514e-07 -3.0531336e-07 -2.9078566e-07 -2.59417e-07
000340 62 3a 73 b4 2f 48 8a b4 7a 94 a6 34 68 49 b6 b4
       -2.2652378e-07 -2.5757024e-07 3.102794e-07 -3.3953552e-07
000350 34 cc 4c b4 1e 0a e6 b3 47 19 97 34 5e 65 50 34
       -1.9073269e-07 -1.071205e-07 2.8144333e-07 1.9408387e-07
000360 3a 17 e2 b3 25 df 61 b4 a8 ff 09 34 28 a7 4a b4
       -1.052817e-07 -2.1035937e-07 1.2852126e-07 -1.8873527e-07
000370 10 6a 71 34 c2 19 a7 33 0a 98 32 b5 ae 78 44 34
       2.248346e-07 7.781229e-08 -6.6531413e-07 1.8297825e-07
000380 e4 d6 36 b4 75 b9 5e 34 12 87 db b4 ff 27 76 34
       -1.7028248e-07 2.074283e-07 -4.0890205e-07 2.2925086e-07
000390 6f 48 aa b4 31 e9 a3 b4 42 fa 60 b4 f2 60 d6 34
       -3.171767e-07 -3.0530785e-07 -2.0952669e-07 3.9931143e-07
0003a0 28 1c 92 b4 71 e6 ac b4 f4 23 7b b4 f7 b8 96 34
       -2.7215106e-07 -3.2205165e-07 -2.3389276e-07 2.8074257e-07
0003b0 33 72 87 34 96 a6 9b b4 49 c4 a1 b4 5e 8b 95 b4
       2.52288e-07 -2.8992207e-07 -3.0131403e-07 -2.7854816e-07
0003c0 76 f0 40 b4 69 20 ae b4 2d 6c a1 b4 12 1c 6e b4
       -1.7968873e-07 -3.2433607e-07 -3.0067295e-07 -2.2175689e-07
0003d0 b0 95 7b b4 17 25 b1 b4 a6 d2 bf 33 75 42 53 34
       -2.3430653e-07 -3.2995806e-07 8.932447e-08 1.9675083e-07
0003e0 4b e4 bf bb d9 d8 f8 bc ad da 71 3d 00 31 ed 3b
       -0.005856072 -0.030376839 0.059046436 0.0072385073
0003f0 b4 8c 2c bd 90 92 8a bc 42 5a d9 bc 36 52 15 3d
       -0.042126372 -0.01691559 -0.026532296 0.036455356

fc1.bias f4 [70]
000000 81 43 cf 3b 62 41 3c b4 2f 15 36 3c fa ca 8a 34
       0.0063251858 -1.753265e-07 0.011113449 2.5852188e-07
000010 df 11 eb 3b b7 b6 96 85 d0 cc 76 30 06 58 11 3c
       0.0071737613 -1.4173051e-35 8.9785335e-10 0.008871084
000020 6a d2 4a 3a 06 ec 16 bb 4e 17 a8 a7 ca 25 cd 23
       0.00077370426 -0.0023028865 -4.6654634e-15 2.2242149e-17
000030 7a 36 ed ba 32 47 d8 18 01 1c 67 3b 07 f1 a4 bb
       -0.00180979 5.590658e-24 0.0035264494 -0.0050336155
000040 62 73 11 22 9e cd 48 b2 c3 8c df 3b cb c0 53 38
       1.9712248e-18 -1.1688284e-08 0.0068222 5.0485873e-05
000050 63 8e cd 3b de 6d 49 37 da 07 df bb f4 a5 ad ab
       0.0062730773 1.2006114e-05 -0.006806356 -1.2338451e-12
000060 14 f1 02 3c ac a9 32 a7 ad 48 e6 3b 8d fb 06 3b
       0.007992048 -2.4794442e-15 0.0070277066 0.0020596713
000070 36 b5 08 00 26 ed a4 3a ee 70 c4 b6 20 6b e4 ba
       7.9969e-40 0.0012582883 -5.854402e-06 -0.0017426945
000080 2b b1 b8 3a 71 42 a4 16 c0 1a 38 38 2f 71 49 3b
       0.0014090886 2.653756e-25 4.389393e-05 0.0030737629
000090 3c 72 93 39 b4 0f e2 20 a1 f5 29 80 13 78 6d 93
       0.00028123136 3.829628e-19 -3.85337e-39 -2.9972807e-27
0000a0 df 5b 4b 3a 74 4f 86 3c 1d 20 d9 aa ed 96 c5 ac
       0.00077575253 0.016395308 -3.8569226e-13 -5.615833e-12
0000b0 bb f7 52 3c 6b 60 5e 3c a3 dd 29 3c de 54 36 3c
       0.012876446 0.0135727925 0.010367784 0.011128632
0000c0 f1 aa 9f b9 66 25 92 af 54 3e a4 3a 43 ff 06 3c
       -0.00030454205 -2.6583818e-10 0.0012530782 0.00823957
0000d0 92 fd 3a 3c de 0f 26 39 09 47 85 3b a3 6c 9f 3c
       0.011412995 0.00015836905 0.004067306 0.019460982
0000e0 1b 0d 54 22 3f ae 8b b9 05 fb b0 37 6d a6 2b ba
       2.8738296e-18 -0.0002664197 2.1097725e-05 -0.00065479317
0000f0 56 fa 52 b1 24 38 9f 1f 35 50 16 3a b6 b9 0e b9
       -3.0701321e-09 6.7431996e-20 0.00057339977 -0.00013611358
000100 4f 48 c1 8f 0f 9b 2e 3c 23 f7 b5 bb bf 81 0d 20
       -1.9059122e-29 0.010657086 -0.0055531426 1.1986094e-19
000110 72 cb 91 99 e7 7c c6 3a
       -1.507482e-23 0.0015143425

fc2.weight f4 [35, 70]
000000 80 3d 28 a4 58 9e 89 97 12 c5 a7 a3 13 e3 a6 99
       -3.6481286e-17 -8.893389e-25 -1.8189639e-17 -1.7255712e-23
000010 4e 08 1b 23 e5 06 00 00 f6 07 36 96 72 62 b1 22
       8.4043254e-18 2.473e-42 -1.4704355e-25 4.808018e-18
000020 fa 90 b5 a0 23 38 06 22 50 44 0c 16 a9 29 e0 89
       -3.075853e-19 1.8190105e-18 1.1330666e-25 -5.3965215e-33
000030 c6 b0 aa 1f f8 7d 6f 83 98 e6 3b 22 ce 87 1e 22
       7.229025e-20 -7.0380392e-37 2.5465301e-18 2.1484887e-18
000040 60 65 8c 89 4a 2d 21 99 e0 0f 59 22 f6 25 19 9e
       -3.3799107e-33 -8.332651e-24 2.9417388e-18 -8.107603e-21
000050 c8 f5 0e a3 5c 6a d3 9d ea 02 c8 a1 9c ec 25 96
       -7.749882e-18 -5.5961208e-21 -1.3553299e-18 -1.3403255e-25
000060 8d a8 04 23 6b 91 28 8e 68 68 54 a2 86 e2 82 a1
       7.191426e-18 -2.0777615e-30 -2.878663e-18 -8.869103e-19
000070 f5 06 00 00 c4 20 25 a1 24 df 94 9c 2c 42 b5 9f
       2.496e-42 -5.594754e-19 -9.851499e-22 -7.6765954e-20
000080 92 18 2e a2 d9 43 7c 80 65 07 27 1e 08 98 4b 21
       -2.3594405e-18 -1.141194e-38 8.8424355e-21 6.8980287e-19
000090 80 db cf 9c e6 25 bb 2d 9b 04 00 80 b8 18 00 00
       -1.375485e-21 2.1276269e-11 -1.652e-42 8.867e-42
0000a0 51 a3 9e a0 fa ed c1 22 54 1b 84 0e ca ee 71 92
       -2.6874315e-19 5.2564722e-18 3.256683e-30 -7.634052e-28
0000b0 7e ea 5f 22 df 33 24 23 e9 cf b0 a1 1f 84 48 a2
       3.0346275e-18 8.901442e-18 -1.1981257e-18 -2.7174999e-18
0000c0 ce 73 64 1c 14 03 46 16 5d 6e 17 21 ea 45 2c a2
       7.5588546e-22 1.5995284e-25 5.1306855e-19 -2.3347359e-18
0000d0 c2 ee d5 a3 ed d7 93 9f f1 47 4f 22 08 e8 89 a2
       -2.3194624e-17 -6.261414e-20 2.8091817e-18 -3.7379597e-18
0000e0 c4 56 aa 88 d7 ee 1a 1c 9d 32 69 9e da 5f 1f 20
       -1.0251901e-33 5.126302e-22 -1.2345384e-20 1.3499538e-19
0000f0 02 f5 42 16 00 59 82 8f 03 fb 9f a0 02 dc 3b b1
       1.5748506e-25 -1.2853271e-29 -2.7101753e-19 -2.7337141e-09
000100 76 09 00 00 c9 aa 3c 23 fa f2 03 21 5e 8e 89 85
       3.394e-42 1.02276656e-17 4.4706103e-19 -1.2935716e-35
000110 af 04 f9 b4 d8 36 f0 9e bf f1 fb ac 58 92 04 a1
       -4.6383272e-07 -2.5433671e-20 -7.1606883e-12 -4.4917024e-19
000120 19 80 c3 ac 00 5c 97 2f 4c 27 c0 2c a7 0f 00 80
       -5.556455e-12 2.753211e-10 5.461331e-12 -5.615e-42
000130 76 26 11 24 80 17 d2 2b 7a 0b a2 2b 30 13 22 2c
       3.147444e-17 1.492792e-12 1.1513978e-12 2.3032236e-12
000140 8f 2c 5b 98 68 5e da 92 ec d0 33 2c 02 33 12 0a
       -2.8327583e-24 -1.3781007e-27 2.5553405e-12 7.039238e-33
000150 0c 82 44 2c bc bb 9a 2c 60 ea 88 0f f0 78 9f a2
       2.7925466e-12 4.397786e-12 1.3500913e-29 -4.3225084e-18
000160 71 86 2a ac 8d ca 35 2a 84 26 82 2c 6c 3d fc 27
       -2.4233083e-12 1.6146303e-13 3.6990983e-12 7.0010644e-15
000170 1e 47 19 2d e3 05 00 00 aa 82 00 2c 00 2a 71 19
       8.712834e-12 2.112e-42 1.8262427e-12 1.246789e-23
000180 20 e0 2c 2d 61 3a 6b 2c 9b 07 00 00 7e fd 30 2c
       9.826834e-12 3.3427915e-12 2.728e-42 2.515182e-12
000190 0a 3e ec 25 96 58 3b 2c 42 c8 2b 2a a6 4c 14 87
       4.0981513e-16 2.6623473e-12 1.525733e-13 -1.1156807e-34
0001a0 cf 82 11 2a 84 bc b7 2a 36 b3 ad 2b 4f 7e 50 10
       1.292397e-13 3.263814e-13 1.234213e-12 4.1118072e-29
0001b0 fc 0e 00 00 9e ba cd 01 e6 88 06 2b 4c 92 0d 2c
       5.375e-42 7.557289e-38 4.779635e-13 2.0118516e-12
0001c0 5c ed c3 1a 91 ba 45 1e c3 6b ad ac 58 ea 7b 2d
       8.1033584e-23 1.0467674e-20 -4.9289197e-12 1.4319733e-11
0001d0 e1 aa e8 2b f8 e0 64 2b fb 94 74 25 ad a8 44 20
       1.653202e-12 8.131408e-13 2.1214103e-16 1.6657656e-19
0001e0 fe 4a d2 2b 6f 4f 01 2d 58 66 e0 2b 38 75 ae 29
       1.4942212e-12 7.350439e-12 1.5944563e-12 7.7474865e-14
0001f0 96 73 1f 2e 6e bf e8 2c a0 78 00 94 a4 c3 61 a9
       3.6255075e-11 6.6150896e-12 -6.486138e-27 -5.0129727e-14
000200 d8 e8 7d 29 52 7a 2d 2b 73 1f 61 22 b9 28 47 11
       5.6379245e-14 6.16317e-13 3.0509835e-18 1.5710881e-28
000210 fc 08 b8 2b 4a d2 78 29 aa fe 04 80 f0 ba 8d ab
       1.307648e-12 5.524946e-14 -4.58698e-40 -1.0070538e-12
000220 80 b8 c9 2c 1d b7 33 10 12 69 f6 0a af 7a b5 2a
       5.733247e-12 3.544259e-29 2.3728461e-32 3.2237188e-13
000230 56 8e 2e 3d 14 b7 01 b2 06 0e 90 3d d0 65 89 b4
       0.04261621 -7.550415e-09 0.07033925 -2.5592317e-07
000240 d3 1d 2b 3d 8a 6d 04 86 ab f3 8d af e7 4d 33 3d
       0.04177649 -2.4906917e-35 -2.5820887e-10 0.043775465
000250 22 35 02 38 b6 18 2e bc db 0e 46 28 51 c1 96 22
       3.10439e-05 -0.010626009 1.0994429e-14 4.0862263e-18
000260 8f 10 09 bc fc e9 88 99 e5 1a 87 3c bb 4f c4 bc
       -0.008365764 -1.4156576e-23 0.016492316 -0.0239638
000270 d3 97 10 22 de ad 17 b2 c5 68 0e 3d a8 75 23 37
       1.9596014e-18 -8.82889e-09 0.034767885 9.742951e-06
000280 15 51 18 3d c8 db 4b b6 4a bd 1c bd 4d cc 13 b5
       0.0371867 -3.0377287e-06 -0.038266458 -5.5059064e-07
000290 f4 f1 1e 3d 9a c4 61 a8 f8 bf 20 3b 60 67 41 39
       0.038804963 -1.253264e-14 0.0024528485 0.00018444424
0002a0 88 a3 12 00 7f 39 6e 38 56 6d 49 b6 fa 1a dd bb
       1.711703e-39 5.679717e-05 -3.0014976e-06 -0.0067476006
0002b0 b8 53 aa 3b d4 5b 05 96 33 fa 13 37 45 0b f0 3c
       0.0051979683 -1.077263e-25 8.820137e-06 0.029302249
0002c0 b5 07 1e 38 48 36 dc a0 ab 98 05 80 a5 1f d4 93
       3.7677313e-05 -3.730537e-19 -5.13944e-40 -5.3547528e-27
0002d0 9e 0a a3 3a ae 64 5c 3d 48 96 9c 29 35 36 2f 2d
       0.0012439077 0.053806953 6.953861e-14 9.959635e-12
0002e0 63 05 72 3d 7b 8c 8d 3d e1 05 80 3d 8d df 7e 3d
       0.05908717 0.0691156 0.06251121 0.062224913
0002f0 7b ee 55 b9 e2 ee 9f 2f 59 3f 2f 3d c5 80 3b 3c
       -0.00020402104 2.9091668e-10 0.042785022 0.011444275
000300 2b f7 6e 3d fc e5 9c 37 92 79 b1 3d 63 23 90 3d
       0.058341186 1.8703744e-05 0.08665766 0.070379995
000310 f5 c4 48 22 c2 c9 99 38 dd 3c 2f 36 74 9e e5 ba
       2.7209322e-18 7.333189e-05 2.611246e-06 -0.0017518536
000320 24 e6 64 b1 28 9e eb 21 34 f8 61 38 40 4a fb b9
       -3.3309187e-09 1.5966083e-18 5.3875337e-05 -0.0004792977
000330 7e ca 88 0e 01 b4 79 3d f8 1d d0 bc fb 80 55 a0
       3.372158e-30 0.06096268 -0.025404915 -1.8084478e-19
000340 f4 f8 84 98 6b a2 c4 3b c6 27 41 9e 3b cd 8a 93
       -3.437258e-24 0.006000807 -1.022556e-20 -3.503847e-27
000350 30 66 4f 9e 88 29 c4 94 e1 73 90 1e 40 0c 00 80
       -1.0979621e-20 -1.9807324e-26 1.529452e-20 -4.394e-42
000360 37 fa 1a 93 e8 89 43 1c 22 5d 60 9b 2b c2 f5 9c
       -1.9560898e-27 6.4698327e-22 -1.8558939e-22 -1.6262931e-21
000370 c8 41 7e 31 f2 3b 5f 04 40 ea 5d 9c 6d 11 00 80
       3.6999257e-09 2.624105e-36 -7.3425527e-22 -6.251e-42
000380 1b ba 4f 9d 40 34 35 9a 11 eb 93 85 e6 99 a3 12
       -2.7492436e-21 -3.747213e-23 -1.3910163e-35 1.0324685e-27
000390 ef 27 f8 1c ac e2 48 99 3a f3 b0 1d c3 f8 3d 99
       1.6421586e-21 -1.0385534e-23 4.6838302e-21 -9.821308e-24
0003a0 e3 5a 9f 9d db 55 06 80 b3 21 a7 1d 70 17 e5 89
       -4.2180924e-21 -5.81812e-40 4.4239376e-21 -5.5151785e-33
0003b0 53 26 00 9c 97 f0 4c 9b da 05 00 00 1e be 97 9b
       -4.240118e-22 -1.6952223e-22 2.099e-42 -2.5103715e-22
0003c0 ec e5 76 16 de bc 67 9c c5 67 ea 1c 50 04 00 80
       1.9944272e-25 -7.6675594e-22 1.5511645e-21 -1.547e-42
0003d0 d7 4e 38 9a 56 d1 59 9b 16 37 85 1a ba f2 10 81
       -3.8113994e-23 -1.801746e-22 5.509651e-23 -2.662277e-38
0003e0 cf 02 00 80 45 08 00 80 94 39 1a 1c fd ef 81 9e
       -1.008e-42 -2.967e-42 5.1028744e-22 -1.3757663e-20
0003f0 82 6d a9 0b 7a a2 c2 0e 16 49 ed 1c 32 b5 1a 1e
       6.52612e-32 4.798115e-30 1.5702237e-21 8.1901624e-21

fc2.bias f4 [35]
000000 10 41 1b a3 5b ee d6 2d 37 9f 26 3c 54 b9 ac 9c
       -8.416344e-18 2.4434834e-11 0.010169796 -1.1429911e-21
000010 bc f4 a0 3c 9f ff 2f 00 2d 48 2c 25 69 b6 a7 3c
       0.019647948 4.407968e-39 1.4943076e-16 0.020472722
000020 57 5c 0e 15 86 3e 3c af 72 1d a0 3c 2a 93 64 3c
       2.8749515e-26 -1.7120713e-10 0.01954529 0.013951102
000030 60 6e 0a 80 36 fa d0 a9 b8 d1 a9 3c 27 73 af 3c
       -9.5795e-40 -9.28046e-14 0.020729885 0.021417214
000040 2f ed 00 80 c7 a7 8c 3c 84 3f a7 b0 c8 49 7a 08
       -8.5085e-41 0.017169846 -1.2168901e-09 7.531837e-34
000050 88 38 9c 3c 21 18 36 a3 a1 c3 9c 3d ac 90 cb 3c
       0.019069925 -9.871349e-18 0.07654501 0.024849258
000060 bf c4 00 3a fe d0 91 3c 5e 42 94 01 7e bd 8e aa
       0.000491213 0.01779985 5.4461846e-38 -2.5355754e-13
000070 48 e1 92 3c 6b 03 9d 2e 9e db 30 27 96 4a b2 3c
       0.017929688 7.1401406e-11 2.4543961e-15 0.021764081
000080 aa 2e 90 3c 16 28 b4 3c 9c 49 9b 3c
       0.017600376 0.02199177 0.018955998

fc3.weight f4 [1, 35]
000000 58 f1 83 29 d8 3b 2c ad e1 d0 76 3e 89 91 01 1e
       5.859435e-14 -9.790356e-12 0.24103118 6.859299e-21
000010 e0 03 cf 3e ba 0b ec 80 a6 7c b1 a4 67 6d 09 3f
       0.40432644 -2.1677384e-38 -7.6972676e-17 0.5368256
000020 c9 23 34 99 d5 a9 ae 2f 5c 10 dd 3e 14 b4 a5 3e
       -9.313009e-24 3.1771089e-10 0.43176544 0.3236395
000030 85 3c 06 00 d9 18 01 aa 7c 34 1a bd 15 2d 0a 3f
       5.72723e-40 -1.1466122e-13 -0.03764771 0.5397504
000040 b7 29 01 00 d2 bf c4 3e 61 68 48 32 28 e5 7a 0b
       1.068e-40 0.38427597 1.1665265e-08 4.8320647e-32
000050 bd fd c8 3e ed aa 54 a3 69 03 2b be a9 f0 3a bd
       0.39256087 -1.1528738e-17 -0.1670052 -0.045639668
000060 fd b6 4b ba 86 38 f2 3e 40 a1 c6 81 71 7b bd 29
       -0.0007771103 0.4730875 -7.2965095e-38 8.4147e-14
000070 51 ce ee 3e 0c 38 d6 ae b6 a5 03 a9 2b eb 20 bd
       0.46641782 -9.741549e-11 -2.9231575e-14 -0.039286774
000080 34 04 00 bd ea 9b f6 3e 29 5d dc 3e
       -0.03125401 0.48165828 0.43039826
