Mice_Tumors/tumor_load/in_dim:62_mid_dim_1:40_mid_dim_2:20_out_dim:1_lr:0.001_test_size:0.2_batch_size:4_shuffle:True_epochs:500_.pt (torch_old, 14470 bytes, 5 tensors)

fc1.weight f4 [40, 62]
5.68e-43 -1.28e-43 5.48e-43 5.69e-43 -2.72e-43 -1.32e-43 1.11e-43 2.94e-43
-5.47e-43 -6.24e-43 -2.68e-43 -5.28e-43 -2.26e-43 -5.09e-43 -5.93e-43 3.67e-43
1.23e-43 -2.27e-43 -2.1e-44 2.3e-43 1.5e-44 5.7e-43 3.5e-43 2e-44
-2.34e-43 5.62e-43 1.53e-43 4.57e-43 2.72e-43 7.1e-44 9e-44 -3.5e-44
2.35e-43 -1.43e-43 3.5e-43 7.02e-43 5.69e-43 4e-44 6.07e-43 -1.51e-43
5.47e-43 2.51e-43 5.93e-43 3.14e-43 5.7e-43 -3.77e-43 2.7e-43 5.44e-43
2.82e-43 -1.32e-43 -1.71e-43 4.64e-43 -1.35e-43 3.35e-43 -1.29e-43 1e-45
1.88e-43 2.59e-43 6.78e-43 5.73e-43 1.75e-43 -5.83e-43 2.0591917e-11 -8.220957e-11
-1.4833869e-10 -6.775369e-11 2.5542302e-10 1.6009079e-10 2.531612e-10 -8.1985155e-11 1.4693799e-10 7.75194e-11
1.1290224e-10 2.9895764e-10 1.3462816e-10 2.3165876e-10 -2.211476e-11 3.3324676e-10 -1.6613266e-11 -3.4517174e-11
-6.53992e-11 2.3851896e-11 6.643282e-11 1.8746626e-11 -5.400222e-12 -2.5737443e-11 1.6222709e-10 -3.53322e-11
-1.6427299e-11 -5.911004e-10 2.928145e-11 -2.2451346e-12 -1.6008889e-10 -7.057463e-11 -2.4762529e-11 -2.3801588e-10
-5.5353474e-12 1.7436605e-10 -1.3150937e-10 1.0102577e-11 -1.7023046e-11 1.9702365e-11 -1.0891414e-10 1.5453751e-10
3.0855492e-12 -1.43321535e-11 2.6478982e-11 -2.1808577e-10 5.9557054e-11 5.7419042e-11 2.1005649e-11 9.096013e-11
-1.1146151e-10 -4.804327e-11 3.3094923e-11 -2.2306074e-11 1.0858042e-10 -9.259118e-12 -5.6368105e-13 2.3972456e-11
-4.2543268e-11 8.260222e-11 2.062666e-12 -9.148941e-11 4.85e-43 2.77e-43 -6.32e-43 5.63e-43
3e-44 -3e-44 4.92e-43 -2.98e-43 -7e-44 1.47e-43 -1.4e-44 8.5e-44
-3.25e-43 -9.5e-44 -5.09e-43 -4.67e-43 -2.82e-43 2.63e-43 -3.69e-43 2.31e-43
1.82e-43 -4e-44 1.29e-43 8.4e-44 1.8e-43 2.7e-44 4.99e-43 2.1e-44
-2.3e-43 -3.4e-43 -6.4e-44 1.78e-43 2.62e-43 2.8e-44 2.33e-43 5.06e-43
-6.1e-43 -1.7e-43 2.55e-43 6.07e-43 -7e-45 -3e-44 1.43e-43 1.81e-43
3.24e-43 -5.82e-43 1.1e-44 3.67e-43 2.06e-43 -7.3e-44 -5.42e-43 6.17e-43
-3.67e-43 3.52e-43 -1.88e-43 5.7e-43 3.5e-44 1.58e-43 3.76e-43 -9.4e-44
-3.52e-43 4.06e-43 0.0022394797 0.044384148 0.051959682 0.012023465 0.046050277 -0.01007698
0.06883327 0.035880946 0.05261772 0.06217939 0.030534418 -0.037938267 -0.018068107 0.029852852
-0.055478502 -0.14996687 -0.025814958 0.009690174 0.015118986 0.0022394774 -0.003716098 -0.0057810894
0.0022394764 -0.04706869 0.015114327 -0.0007764687 -0.063083835 0.07411605 -0.07668309 -0.032204963
0.01582035 0.014814556 -0.03756199 0.03139375 -0.025368135 -0.028851027 0.06887789 -0.03065416
0.013499085 -0.017549923 0.039051857 -0.007512288 -0.019754719 0.0022394804 -0.0032675832 0.08696108
-0.012727712 -0.028266916 0.0022394792 0.004249306 0.0066384836 0.0022394748 -0.0122799445 -0.01116357
-0.060249392 0.011185855 0.0022394801 0.00223948 -0.021016931 -0.04080707 -0.040599406 0.06238595
0.0017800167 0.03430367 0.040399726 0.009465781 0.03603646 -0.0075007943 0.054018065 0.027954899
00000000: 9501 0000 5b00 0080 8701 0000 9601 0000
00000010: c200 0080 5e00 0080 4f00 0000 d200 0000
00000020: 8601 0080 bd01 0080 bf00 0080 7901 0080
00000030: a100 0080 6b01 0080 a701 0080 0601 0000
00000040: 5800 0000 a200 0080 0f00 0080 a400 0000
00000050: 0b00 0000 9701 0000 fa00 0000 0e00 0000
00000060: a700 0080 9101 0000 6d00 0000 4601 0000
00000070: c200 0000 3300 0000 4000 0000 1900 0080
00000080: a800 0000 6600 0080 fa00 0000 f501 0000
00000090: 9601 0000 1d00 0000 b101 0000 6c00 0080
000000a0: 8601 0000 b300 0000 a701 0000 e000 0000
000000b0: 9701 0000 0d01 0080 c100 0000 8401 0000
000000c0: c900 0000 5e00 0080 7a00 0080 4b01 0000
000000d0: 6000 0080 ef00 0000 5c00 0080 0100 0000
000000e0: 8600 0000 b900 0000 e401 0000 9901 0000
000000f0: 7d00 0000 a001 0080 e020 b52d e0c7 b4ae
00000100: a119 23af f0fd 94ae 986b 8c2f 8d05 302f
00000110: 452d 8b2f 8a49 b4ae 5e8f 212f 8b77 aa2e
00000120: 5046 f82e 8c5a a42f 7506 142f 25b6 7e2f
00000130: 0386 c2ad 5034 b72f c021 92ad e2ce 17ae
00000140: 7ad0 8fae b2cd d12d 5a16 922e a6e5 a42d
00000150: e000 beac 9263 e2ad de5e 322f 8564 1bae
00000160: fd7e 90ad fe7a 22b0 fbc7 002e c0fc 1dac
00000170: 0405 30af fc31 9bae 42d0 d9ad c2d9 82af
00000180: fac1 c2ac aeb7 3f2f 9998 10af f6b9 312d
00000190: 7ebc 95ad c84d ad2d 3681 efae 71ea 292f
000001a0: 5020 592c 4822 7cad 5ee9 e82d b0c9 6faf
000001b0: a4f7 822e 1888 7c2e 84c4 b82d 0006 c82e
000001c0: 401b f5ae ea4b 53ae 928d 112e d034 c4ad
000001d0: 58c5 ee2e 5ce3 22ad 80a9 1eab 2cdd d22d
000001e0: 761b 3bae eaa4 b52e b025 112c f62f c9ae
000001f0: 5a01 0000 c600 0000 c301 0080 9201 0000
00000200: 1500 0000 1500 0080 5f01 0000 d500 0080
00000210: 3200 0080 6900 0000 0a00 0080 3d00 0000
00000220: e800 0080 4400 0080 6b01 0080 4d01 0080
00000230: c900 0080 bc00 0000 0701 0080 a500 0000
00000240: 8200 0000 1d00 0080 5c00 0000 3c00 0000
00000250: 8000 0000 1300 0000 6401 0000 0f00 0000
00000260: a400 0080 f300 0080 2e00 0080 7f00 0000
00000270: bb00 0000 1400 0000 a600 0000 6901 0000
00000280: b301 0080 7900 0080 b600 0000 b101 0000
00000290: 0500 0080 1500 0080 6600 0000 8100 0000
000002a0: e700 0000 9f01 0080 0800 0000 0601 0000
000002b0: 9300 0000 3400 0080 8301 0080 b801 0000
000002c0: 0601 0080 fb00 0000 8600 0080 9701 0000
000002d0: 1900 0000 7100 0000 0c01 0000 4300 0080
000002e0: fb00 0080 2201 0000 3cc4 123b 27cc 353d
000002f0: add3 543d 11fe 443c 379f 3c3d eb19 25bc
00000300: 75f8 8c3d e6f7 123d ae85 573d d1af 7e3d
00000310: 5123 fa3c 2865 1bbd 9103 94bc f88d f43c
00000320: 6d3d 63bd ea90 19be e479 d3bc 89c3 1e3c
00000330: a0b5 773c 32c4 123b c789 73bb 4b6f bdbb
00000340: 2ec4 123b 19cb 40bd 15a2 773c ef8b 4bba
00000350: 1932 81bd 28ca 973d 060c 9dbd 5ae9 03bd
00000360: ae99 813c c0b8 723c 9ada 19bd bc96 003d
00000370: d6d0 cfbc fd58 ecbc da0f 8d3d 6f1e fbbc
00000380: 442b 5d3c dbc4 8fbc d7f4 1f3d a429 f6bb
00000390: a6d4 a1bc 3fc4 123b f324 56bb a718 b23d
000003a0: e587 50bc 0590 e7bc 3ac4 123b c33d 8b3b
000003b0: a387 d93b 27c4 123b d231 49bc 68e7 36bc
000003c0: 11c8 76bd e044 373c 3ec4 123b 3dc4 123b
000003d0: b32b acbc 5025 27bd 904b 26bd 6988 7f3d
000003e0: 734f e93a 0182 0c3d 2f7a 253d 5d16 1b3c
000003f0: f89a 133d 39c9 f5bb 0c42 5d3d ac01 e53c

fc1.bias f4 [40]
-5.32e-43 8.406855e-12 -4.76e-43 0.0115843695 0.009055627 0.011088943 -6.3967875e-08 0.013069496
-6.11e-43 2.8e-43 0.0010369697 -3.55e-43 1.8908668e-07 0.0111505715 1.61614e-10 0.012572754
0.0048790933 0.0065595224 -1.01e-43 0.017687252 0.009440755 0.011892303 -1.8192e-41 -4.41e-43
3.91e-43 1.4408e-41 0.014540668 -5.14e-43 -2.41e-43 3.2007752e-05 1.67e-43 0.008341965
4.0902664e-06 0.005864652 0.006186309 2.34e-43 0.005919406 -2.537367e-11 -1.1587083e-33 -5.967526e-06
00000000: 7c01 0080 1ce5 132d 5401 0080 5ecc 3d3c
00000010: 0d5e 143c 66ae 353c b65e 89b3 7021 563c
00000020: b401 0080 c800 0000 eeea 873a fd00 0080
00000030: c007 4b34 e3b0 363c 4cb2 312f f4fd 4d3c
00000040: cde0 9f3b 43f1 d63b 4800 0080 dbe4 903c
00000050: 65ad 1a3c efd7 423c b632 0080 3b01 0080
00000060: 1701 0000 2a28 0000 fb3b 6e3c 6f01 0080
00000070: ac00 0080 1040 0638 7700 0000 bdac 083c
00000080: 1f3f 8936 442c c03b 85b6 ca3b a700 0000
00000090: 94f7 c13b 6d30 dfad 0086 c088 a83c c8b6

fc2.weight f4 [20, 40]
-4.58e-43 -3.4953246e-10 -1.96e-43 0.08245048 0.06374025 0.07884136 4.212739e-07 0.0933074
2.16e-43 -2e-43 0.0062488983 -2.13e-43 -1.4398676e-05 0.07939539 -1.0053225e-10 0.08992033
0.032186598 0.04608245 -2.98e-43 0.054790657 0.06640054 0.084032245 -1.725e-41 4.53e-43
-2.55e-43 -2.3847e-41 0.04492376 9.8e-44 -5.27e-43 -4.4869812e-05 -4.54e-43 0.05909806
1.47404435e-05 0.03982422 0.043330148 3.08e-43 0.04019199 -1.0337361e-11 -2.3498072e-30 -1.1516209e-05
5.76e-43 -1.7106205e-19 3.49e-43 1.6180037e-12 1.6022458e-11 5.343629e-12 1.3585313e-16 8.23771e-12
-5.72e-43 -5.82e-43 -1.2501605e-11 -7e-43 4.0066297e-16 6.804391e-12 -2.2387619e-20 4.0316583e-11
1.1477272e-13 1.7373648e-11 5.3e-43 -1.0585396e-12 -2.811835e-11 7.352565e-13 -2.28e-43 -4.5e-44
4.32e-43 -6.4e-44 -2.4558973e-11 1.5e-44 5.58e-43 1.4980734e-13 -3.24e-43 4.9488e-12
-5.2795116e-13 5.101147e-13 -1.4539621e-11 -4.18e-43 -1.3924103e-12 1.6276934e-19 1.10917e-40 1.1899325e-13
-6.3e-43 -4.2515047e-10 -4.82e-43 0.104996 0.08126725 0.100413166 -1.4089832e-07 0.11876081
-1.86e-43 -4.62e-43 0.008097025 -4.8e-44 -0.00013376179 0.10112085 -8.763526e-10 0.1144736
0.041194495 0.058849752 5.11e-43 0.070304714 0.08463594 0.107002385 -5.0106e-41 4.33e-43
-2.179e-42 -5.4844e-41 0.05771726 6.94e-43 5.72e-43 -3.0965744e-05 -5.04e-43 0.075372405
1.8610013e-05 0.05090077 0.0553514 -1.3e-43 0.051368337 -1.8594029e-11 9.48358e-31 -9.5168616e-08
-3.18e-43 2.05e-43 2.7e-44 1.7e-43 -1.085e-42 3.77e-43 1.002e-42 -2.583e-42
1.92e-43 -1.08e-43 3e-45 5.8e-43 -5.54e-43 -4.13e-43 2.48e-43 -3.53e-43
-1.8e-43 1.02e-43 -3.64e-43 1.46e-43 -2.34e-43 -8.5e-44 -5.77e-43 -9.1e-44
1.56e-43 1.72e-43 -2.34e-43 4.22e-43 5.7e-43 -2.4e-44 -4.61e-43 -2.14e-43
-1.26e-43 -1.58e-43 1.86e-43 1.953e-42 -8e-44 4.8e-44 -4.61e-43 -3.83e-43
6.59e-43 -3.7995226e-15 5.86e-43 -4.3455952e-07 1.1576494e-05 1.1738798e-08 3.7944382e-13 -6.293649e-07
-3.81e-43 -1.42e-43 1.4782383e-06 1.2565237e-14 1.9887616e-11 -0.00012261917 -1.1619935e-14 -4.944527e-08
-3.4485575e-07 -2.2666664e-07 2.7e-43 -5.9915334e-07 -1.6226817e-07 -4.8671417e-08 -1.49e-43 1.32e-43
5.47e-43 -3.1e-44 -6.090576e-07 -3.81e-43 -3.34e-43 -9.1279784e-10 -5.9e-44 -2.5965956e-08
-3.8047038e-10 -1.442069e-07 -2.582059e-07 -2e-43 -3.6100108e-08 1.385626e-16 1.6622365e-36 1.3977658e-10
4.9e-44 -2.9847835e-10 4.29e-43 0.13740906 0.10651955 0.13142954 -1.15122816e-07 0.15531817
6e-45 2.5e-44 0.010851317 -1.54e-43 -2.7287982e-05 0.13236369 3.1509134e-10 0.14974925
0.05427815 0.07731084 -5.24e-43 0.09305806 0.110897265 0.14001915 -1.6063e-41 -4.62e-43
-1.35e-43 -5.4683e-41 0.076519445 4.37e-43 5.68e-43 1.4884157e-05 -5.86e-43 0.09883836
2.5896947e-05 0.06694764 0.07274733 4.47e-43 0.06755588 -1.5638506e-12 1.3868535e-30 -3.1440322e-05
-1.75e-43 -3.5e-44 3.087e-42 4.68e-43 -1.78e-43 1.46e-43 3.9e-44 4.16e-43
4.88e-43 -2.2e-44 5.59e-43 3.2e-44 -2.06e-43 8e-45 3.8e-44 -2.3e-43
00000000: 4701 0080 5228 c0af 8c00 0080 ccdb a83d
00000010: 408a 823d 9477 a13d 722b e234 f317 bf3d
00000020: 9a00 0000 8f00 0080 8fc3 cc3b 9800 0080
00000030: d891 71b7 0d9a a23d a012 ddae 2628 b83d
00000040: 18d6 033d f3c0 3c3d d500 0080 2b6c 603d
00000050: 02fd 873d 1919 ac3d 1630 0080 4301 0000
00000060: b600 0080 7a42 0080 fa01 383d 4600 0000
00000070: 7801 0080 9832 3cb8 4401 0080 cf10 723d
00000080: b94d 7737 b91e 233d f47a 313d dc00 0000
00000090: 5ba0 243d 56db 35ad 96a3 3e8e be35 41b7
000000a0: 9b01 0000 55f4 49a0 f900 0000 bab6 e32b
000000b0: 5eef 8c2d 2203 bc2c c4a0 1c25 59eb 102d
000000c0: 9801 0080 9f01 0080 39ee 5bad f401 0080
000000d0: 6bf7 e625 8168 ef2c f171 d39e 7050 312e
000000e0: fc38 012a fad1 982d 7a01 0000 e9f9 94ab
000000f0: e554 f7ad d0f4 4e2b a300 0080 2000 0080
00000100: 3401 0000 2e00 0080 e405 d8ad 0b00 0000
00000110: 8e01 0000 07ab 282a e700 0080 d41e ae2c
00000120: e49a 14ab a395 0f2b a2c8 7fad 2a01 0080
00000130: def6 c3ab 042a 4020 3135 0100 78f9 052a
00000140: c201 0080 9cba e9af 5801 0080 2508 d73d
00000150: 726f a63d 6ba5 cd3d d649 17b4 de38 f33d
00000160: 8500 0080 4a01 0080 62a9 043c 2200 0080
00000170: 6842 0cb9 7318 cf3d d5e3 70b0 2371 ea3d
00000180: 8fbb 283d 700c 713d 6d01 0000 ebfb 8f3d
00000190: 9c55 ad3d 1124 db3d ad8b 0080 3501 0000
000001a0: 1306 0080 e298 0080 ef68 6c3d ef01 0000
000001b0: 9801 0000 37e1 01b8 6801 0080 d95c 9a3d
000001c0: b31c 9c37 537d 503d 26b8 623d 5d00 0080
000001d0: 9b67 523d 088e a3ad 40e1 990d 805f ccb3
000001e0: e300 0080 9200 0000 1300 0000 7900 0000
000001f0: 0603 0080 0d01 0000 cb02 0000 3307 0080
00000200: 8900 0000 4d00 0080 0200 0000 9e01 0000
00000210: 8b01 0080 2701 0080 b100 0000 fc00 0080
00000220: 8000 0080 4900 0000 0401 0080 6800 0000
00000230: a700 0080 3d00 0080 9c01 0080 4100 0080
00000240: 6f00 0000 7b00 0000 a700 0080 2d01 0000
00000250: 9701 0000 1100 0080 4901 0080 9900 0080
00000260: 5a00 0080 7100 0080 8500 0000 7205 0000
00000270: 3900 0080 2200 0000 4901 0080 1101 0080
00000280: d601 0000 69e4 88a7 a201 0000 684d e9b4
00000290: aa38 4237 c8ab 4932 9e9b d52a a0f1 28b5
000002a0: 1001 0080 6500 0080 e267 c635 ee5a 6228
000002b0: eeee ae2d 5593 00b9 7e53 51a8 a65d 54b3
000002c0: 9d24 b9b4 a761 73b4 c100 0000 81d5 20b5
000002d0: ef3b 2eb4 ca0a 51b3 6a00 0080 5e00 0000
000002e0: 8601 0000 1600 0080 1f7e 23b5 1001 0080
000002f0: ee00 0080 70e8 7ab0 2a00 0080 be0b dfb2
00000300: 722a d1af 4ad7 1ab4 8c9f 8ab4 8f00 0080
00000310: 7d0c 1bb3 76c0 1f25 4e68 0d04 9caf 192f
00000320: 2300 0000 1817 a4af 3201 0000 f6b4 0c3e
00000330: ec26 da3d 7795 063e 7039 f7b3 ba0b 1f3e
00000340: 0400 0000 1200 0000 b9c9 313c 6e00 0080
00000350: 7fe8 e4b7 598a 073e 2a39 ad2f de57 193e
00000360: c452 5e3d 2555 9e3d 7601 0080 3995 be3d
00000370: 1b1e e33d 2e61 0f3e c72c 0080 4a01 0080
00000380: 6000 0080 6f98 0080 3ab6 9c3d 3801 0000
00000390: 9501 0000 f8b6 7937 a201 0080 c46b ca3d
000003a0: 453d d937 d81b 893d 8dfc 943d 3f01 0000
000003b0: bd5a 8a3d a817 dcab a407 e10d cade 03b8
000003c0: 7d00 0080 1900 0080 9b08 0000 4e01 0000
000003d0: 7f00 0080 6800 0000 1c00 0000 2901 0000
000003e0: 5c01 0000 1000 0080 8f01 0000 1700 0000
000003f0: 9300 0080 0600 0000 1b00 0000 a400 0080

fc2.bias f4 [20]
0.02222321 5.89761e-12 0.02819881 -1.5e-44 -1.557063e-06 0.03673499 -5.93e-43 0.020502424
-3.3659653e-12 0.021557553 0.02082941 0.019894887 0.019594545 0.038551208 9.2907765e-23 -1.131e-42
-2.59e-42 -1.163e-42 -2.4e-44 0.02888137
00000000: 730d b63c f380 cf2c 3101 e73c 0b00 0080
00000010: 47fc d0b5 6e77 163d a701 0080 b3f4 a73c
00000020: d7db 6cac 7799 b03c 70a2 aa3c 9afa a23c
00000030: bd84 a03c dfe7 1d3d 1fa3 e01a 2703 0080
00000040: 3807 0080 3e03 0080 1100 0080 9f98 ec3c

fc3.weight f4 [1, 20]
0.26313102 2.2064184e-11 0.33531916 1.351e-42 5.0415397e-06 0.43930742 -5.2e-44 0.2424261
2.3999353e-11 0.25511146 0.24635755 0.23512316 0.23149754 0.46152696 1.1005937e-22 -6e-44
4.533e-42 7.95e-42 6.36e-43 0.34362754
00000000: 1cb9 863e 2014 c22d f4ae ab3e c403 0000
00000010: 7f2a a936 e7ec e03e 2500 0080 8c3e 783e
00000020: bd19 d32d f89d 823e 2745 7c3e 20c4 703e
00000030: b10d 6d3e 434d ec3e ba0d 051b 2b00 0080
00000040: a30c 0000 2916 0000 c601 0000 f3ef af3e
