Projects/GDM/code/learning_code/learning_models/latent_representation_model.pt (torch, 35643 bytes, 4 tensors)

linears.0.weight f4 [60, 120]
0	0xbef7ef04	-0.48424542
1	0x3eb1feee	0.34764808
2	0x3dc30169	0.09521753
3	0xbeda5bcd	-0.42648163
4	0xbce4df3a	-0.027938474
5	0xbe8bef9d	-0.27331248
6	0xbec6304d	-0.38708726
7	0x3e211d2b	0.15733783
8	0x3d0cccdb	0.034375053
9	0x3dabc958	0.08388013
10	0xbcf8b7d0	-0.030361086
11	0xbdeeea43	-0.116657756
12	0x3b100072	0.0021972922
13	0x3d82e1be	0.06390713
14	0xbed52fcd	-0.41638032
15	0x3ee4f044	0.44714558
16	0x3d06a120	0.032868505
17	0x3e2d82e2	0.16944459
18	0x3d9545b1	0.07288683
19	0xbc860d80	-0.01636386
20	0xbe48bf85	-0.19604309
21	0xbe7baa9a	-0.24576798
22	0xbd2017b7	-0.039085116
23	0x3e2d45ce	0.1692116
24	0x3e5d3693	0.2160285
25	0x3dfe4a2b	0.1241649
26	0x3d80b2c1	0.062840946
27	0x3f0ce2a2	0.55033314
28	0xbd1015f0	-0.03517717
29	0xbe25a857	-0.16177498
30	0x3e6b4fad	0.22979613
31	0xbe0451e0	-0.12921858
32	0xbdc03270	-0.0938462
33	0x3e0f67bc	0.14004415
34	0xbe793ea7	-0.24340306
35	0x3ec0f469	0.3768647
36	0x3aa5b692	0.0012642911
37	0xbd200e00	-0.03907585
38	0xbd83c7cc	-0.064345926
39	0xbecf7fce	-0.40527195
40	0xbd6ef8f3	-0.058342885
41	0xbe77c5a6	-0.2419649
42	0x3c35d427	0.011097944
43	0xbe4ad0a1	-0.19806148
44	0xbe5b8d87	-0.21440707
45	0xbe9f3894	-0.31097853
46	0xbd36ee08	-0.044660598
47	0xbe53fd6d	-0.20702143
48	0x3c44dba5	0.012015258
49	0x3e164809	0.14675917
50	0xbe619d03	-0.22032551
51	0xbdcbf56c	-0.0995892
52	0x3e5d6c86	0.2162343
53	0xbd4f6e7b	-0.05064247
54	0xbdf627a2	-0.12019278
55	0xbedfda3a	-0.4372118
56	0xbd9ef3e4	-0.07761362
57	0x3d27b19a	0.04094086
58	0x3e46480f	0.19363426
59	0xbe304c6c	-0.17216653
60	0xbdd82dab	-0.105555855
61	0xbe0fb67e	-0.14034459
62	0xbe20e792	-0.15713337
63	0x3eabcfef	0.33557078
64	0x3d22340e	0.039600424
65	0x3e7bc383	0.245863
66	0xbea81215	-0.32826295
67	0xbe28958e	-0.164633
68	0x3e05fae8	0.13083994
69	0xbca6ec0c	-0.020376228
70	0xbea0e113	-0.31421718
71	0x3cb6d324	0.022317477
72	0x3e891efa	0.26781446
73	0xbd8edd3f	-0.06975793
74	0xbd0edfb8	-0.034881324
75	0x3d9aaff5	0.075530924
76	0x3c9f9e92	0.019484792
77	0x3e13c0e5	0.14429052
78	0xbddfcf21	-0.109281786
79	0xbd504320	-0.050845265
80	0x3e2937f3	0.16525249
81	0xbe442f3b	-0.19158642
82	0x3dd744f4	0.10511199
83	0x3e10a3ed	0.14125033
84	0x3cc0eaa2	0.023549382
85	0x3ee6b6ee	0.4506144
86	0xbe7018df	-0.23446988
87	0xbda277a6	-0.079329774
88	0xbe12257b	-0.1427211
89	0x3defcf34	0.11709443
90	0x3db2951e	0.08719848
91	0x3db6e31e	0.08930038
92	0xbb315040	-0.002705589
93	0xbdf2dc49	-0.11858422
94	0xbc8671f0	-0.016411752
95	0x3bafe339	0.005367663
96	0x3dbea7e8	0.09309369
97	0xbe8f12cd	-0.2794403
98	0xbe97a913	-0.2962118
99	0xbcb4e132	-0.022080038
100	0x3dbfb801	0.09361268
101	0x3eb0ded8	0.34545016
102	0x3e41b69e	0.18917319
103	0x3d645a76	0.055750333
104	0xbe658d37	-0.2241715
105	0xbe5929a4	-0.21207291
106	0xbd2736d4	-0.040823773
107	0x3e49e327	0.19715558
108	0xbed6a021	-0.41919044
109	0xbb9f3c27	-0.0048594656
110	0xbe800b46	-0.250086
111	0x3dd8c024	0.10583523
112	0xbe175201	-0.14777376
113	0x3dff8b84	0.12477782
114	0x3e3192bb	0.1734113
115	0xbe2ae80a	-0.16690078
116	0xbe52e6be	-0.20595834
117	0x3e149038	0.1450814
118	0x3d7807c8	0.060554296
119	0x3e07f7bb	0.13278095
120	0xbef73f3e	-0.48290437
121	0x3ef849fb	0.48493943
122	0xbe24687f	-0.16055487
123	0xbe82da5a	-0.25557214
124	0xbccd07a5	-0.02502806
125	0xbeabf61a	-0.33586198
126	0xbeca5729	-0.39519623
127	0x3d794a0c	0.060861632
128	0x3cf8989b	0.030346205
129	0xbb02239e	-0.0019857655
130	0x3d94a678	0.07258314
131	0xbde8aca0	-0.113610506
132	0xbdf9a9bb	-0.12190577
133	0x3e8e5922	0.27802378
134	0xbf08b368	-0.5339875
135	0x3ee91651	0.4552484
136	0xbd441446	-0.047870897
137	0x3e1458fd	0.14487071
138	0x3d3aa464	0.04556693
139	0x3d11806f	0.035522874
140	0xbe8e170a	-0.27751952
141	0xbdaeb347	-0.08530288
142	0xbd08b40a	-0.033374824
143	0x3e0e6e51	0.1390927
144	0xbc4c8f94	-0.012485404
145	0x3d63cc77	0.055614915
146	0xbd10c8aa	-0.03534762
147	0x3f5fea7e	0.8746718
148	0xbe2f63f6	-0.17127976
149	0xbe5fab54	-0.218427
150	0x3ef9d38e	0.48794216
151	0xbda5f3a2	-0.0810311
152	0xbe3536e9	-0.17696728
153	0x3db87dc8	0.09008366
154	0x3c889f88	0.016677633
155	0x3ebcbed6	0.36864346
156	0xbe6546be	-0.22390267
157	0xbd41724e	-0.04722815
158	0x3f1174fc	0.5681913
159	0xbe7d3ed2	-0.24730995
160	0xbddd27bf	-0.107985966
161	0xbdc015b9	-0.09379143
162	0x3d35d6b0	0.044394195
163	0xbea4b07b	-0.32165894
164	0xbe72f02c	-0.23724431
165	0xbe4fe352	-0.2030156
166	0xbe24e0d4	-0.1610139
167	0xbeaaead5	-0.33382288
168	0x3db9c0bd	0.09069965
169	0x3e9c2c48	0.30502534
170	0xbe4e1de4	-0.2012859
171	0xbe9039d4	-0.2816912
172	0x3e5c4b64	0.21513134
173	0xbc161924	-0.009161267
174	0xbd63ff51	-0.05566341
175	0xbf1db529	-0.61604553
176	0x3d9a518b	0.07535084
177	0x3e3cc832	0.18435743
178	0x3e3da79b	0.18520968
179	0xbe8f94d6	-0.2804324
180	0xbe82540b	-0.25454745
181	0xbe5613c0	-0.20905972
182	0xbe8a1f92	-0.2697721
183	0x3e9c6acd	0.30550233
184	0xbd743329	-0.059619103
185	0x3ede84ee	0.43460792
186	0xbeabe6a5	-0.33574405
187	0xbe94c0b3	-0.29053268
188	0xbe91b88e	-0.28461117
189	0x3d4b3cd4	0.049618557
190	0xbeb22412	-0.34793144
191	0x3c8bf13c	0.017082803
192	0x3eef2c46	0.46713465
193	0xbe08a638	-0.13344657
194	0xbdd7f7ed	-0.10545335
195	0xbc90e8b8	-0.017689094
196	0x3e2d931b	0.16950648
197	0x3f0a7b5c	0.5409448
198	0xbe35c5b0	-0.17751193
199	0x3e22577a	0.15853682
200	0x3eaec969	0.3413804
201	0xbefac2d1	-0.48976758
202	0x3ce145d3	0.027499115
203	0x3e17cc8b	0.1482412
204	0x3ea19bde	0.3156423
205	0x3df086eb	0.117444836
206	0xbe4097b0	-0.18807864
207	0xbf004db2	-0.50118554
208	0xbed3779c	-0.41302192
209	0x3dbd34ba	0.092385724
210	0x3e321103	0.17389302
211	0x3dbc6220	0.09198403
212	0xbe87ece6	-0.26547927
213	0xbe07431a	-0.13209191
214	0xbe39340d	-0.18086262
215	0xbd89df63	-0.06732061
216	0x3e972a79	0.29524592
217	0xbe08e138	-0.13367164
218	0xbdbbb9a9	-0.09166271
219	0x3d3532aa	0.04423777
220	0x3e294fb1	0.16534306
221	0x3ea26d4a	0.31724006
222	0x3e89a7bb	0.2688578
223	0x3db7a548	0.08967072
224	0xbe8313ea	-0.2560113
225	0xbe94de3f	-0.2907581
226	0x3ba07530	0.0048967823
227	0x3dc26977	0.09492772
228	0xbecd2dbe	-0.4007396
229	0x3e551b30	0.20811152
230	0xbf164d15	-0.5871137
231	0x3c854051	0.01626602
232	0x3e2fd16f	0.17169736
233	0x3e46fd5d	0.19432588
234	0x3e8de612	0.27714592
235	0xbe514d8d	-0.2043974
236	0xbbfb1468	-0.0076623447
237	0x3d4544b7	0.048161235
238	0x3e73488e	0.23758146
239	0x3df84c6b	0.121239506
240	0x3d79623d	0.060884703
241	0xbec16721	-0.37773994
242	0x3e8e2118	0.27759624
243	0xbe929403	-0.2862855
244	0x3e369aff	0.17832564
245	0x3e03f892	0.12887791
246	0x3e2ec5a8	0.17067587
247	0xbd198975	-0.037484605
248	0xbdadeaf2	-0.08492078
249	0x3e6e97d1	0.23300101
250	0xbe28bf39	-0.16479196
251	0x3e227af4	0.15867215
252	0xbe4dd653	-0.2010129
253	0xbd8e4f0c	-0.06948671
254	0x3db8589c	0.09001276
255	0x3dbb1e22	0.09136607

linears.0.bias f4 [60]
0	0xbd99c0a5	-0.07507447
1	0xbdb1cbe8	-0.0868147
2	0x3e2b6ee1	0.16741516
3	0x3e1eb7d9	0.1549982
4	0x3d8eed24	0.06978825
5	0xbdfcaff8	-0.12338251
6	0xbe71b707	-0.23604976
7	0xbccb27f2	-0.02479932
8	0xbbc20ae0	-0.0059217066
9	0x3c4ad6f2	0.0123803485
10	0xbe29f460	-0.16597128
11	0x3e34e57b	0.17665665
12	0xbe002f6f	-0.12518094
13	0xbe04ede5	-0.12981375
14	0xbe40a29d	-0.18812032
15	0x3b631c36	0.0034654266
16	0xbdd921fb	-0.106021844
17	0xbca7d77f	-0.020488499
18	0x3db7afe2	0.08969094
19	0x3d1e7c45	0.03869273
20	0x3d469a29	0.048486862
21	0x3de0528a	0.10953243
22	0xbdb287e8	-0.08717328
23	0x3b6654be	0.0035145725
24	0xbca2c4c6	-0.01986922
25	0x3deac32f	0.114630096
26	0x3e26d818	0.1629337
27	0x3e13b072	0.14422777
28	0x3e495e2e	0.19664833
29	0x39275857	0.0001595927
30	0x3ec4393f	0.38324925
31	0xbd82d736	-0.063887045
32	0x3dab6b08	0.08370024
33	0xbdafbd85	-0.0858107
34	0xbdbb25b6	-0.09138052
35	0x3e2f5d1a	0.17125359
36	0xbe1988d2	-0.14993599
37	0x3e1ce982	0.15323451
38	0xbd262fef	-0.040573057
39	0xbd4615b6	-0.04836055
40	0x3c075a81	0.008261324
41	0x3d8768db	0.066117965
42	0xbd1c4d4b	-0.03815965
43	0x3d642a4f	0.05570441
44	0x3c890185	0.016724357
45	0x3c62be24	0.013839278
46	0x3e414b39	0.18876351
47	0xbe635b6c	-0.22202843
48	0x3bb82f11	0.005620845
49	0xbd3d774c	-0.04625635
50	0xbc274db4	-0.010211397
51	0x3c140e74	0.009036649
52	0xbdfd33c2	-0.12363388
53	0xbddd6717	-0.108106785
54	0xbde87003	-0.113494895
55	0x3d14876b	0.036261957
56	0xbe1285e7	-0.14308892
57	0x3dc1bcec	0.09459862
58	0x3d5bf1c8	0.053697377
59	0xbe048bc8	-0.12943947

out.weight f4 [2, 60]
0	0xbd4d96cb	-0.050192636
1	0xbe4e2474	-0.20131093
2	0xbcd52668	-0.02601929
3	0xbe69cdd0	-0.22832417
4	0x3dbc16df	0.0918405
5	0x3d18895f	0.037240382
6	0xbd26d5a2	-0.04073108
7	0xbd3bd7b1	-0.045859996
8	0x3d163081	0.03666735
9	0x3ba6bfa2	0.0050887624
10	0xbd53b139	-0.051682685
11	0x3d496256	0.049166046
12	0x3afbef41	0.0019221083
13	0x3cb4657b	0.022021046
14	0x3cf71bf7	0.030164702
15	0x3dc90522	0.09815432
16	0x3ddcef3a	0.10787816
17	0xbd873f40	-0.06603861
18	0x3dc40a83	0.095723175
19	0x3d853f23	0.06506183
20	0x3c9cbe7d	0.0191338
21	0x3cc07bd7	0.023496551
22	0x3dcbcc0a	0.09951027
23	0x3e1d1a9f	0.15342186
24	0xbcddf84c	-0.027095936
25	0xbd7faea8	-0.062422425
26	0x3d79f403	0.061023723
27	0xbeef9500	-0.46793365
28	0x3e155870	0.14584517
29	0x3cb38ea9	0.021918612
30	0x3e9cd8ac	0.30634058
31	0xbd339e0f	-0.04385191
32	0xbe01d660	-0.12679434
33	0xbc0a5355	-0.0084427195
34	0xbcfcbbcf	-0.030851273
35	0x3e185218	0.14875066
36	0x3ea6223a	0.32447988
37	0x3d84b86f	0.064804904
38	0xbda1f357	-0.079077415
39	0x3caa3eaa	0.020781834
40	0x3e21bd1a	0.15794793
41	0xba2fbfbe	-0.0006704292
42	0x3d432ce7	0.047650244
43	0x3dd585b2	0.10425891
44	0xbc9c89a6	-0.019108605
45	0x3c08edc2	0.008357467
46	0x3dde56c8	0.10856396
47	0xbb90aa83	-0.004414858
48	0xbb88a9ca	-0.004170631
49	0xbc153f88	-0.009109385
50	0xbcfbd7bf	-0.030742524
51	0x3db80e40	0.08987093
52	0xbbe235dc	-0.006903393
53	0xbd52ef76	-0.0514979
54	0x3c2f035f	0.010681956
55	0x3c98a63a	0.01863395
56	0xbddea796	-0.10871808
57	0xbe97caba	-0.29646856
58	0x3c44d2bf	0.012013136
59	0xbd5bfdb6	-0.053708754
60	0x3dbff3ef	0.093726985
61	0x3c200c50	0.0097685605
62	0xbcde0386	-0.02710129
63	0x3e572586	0.21010408
64	0xbd82ddc5	-0.063899554
65	0x3d43160a	0.04762844
66	0xbd9b0b41	-0.07570506
67	0xbb9b5118	-0.0047398917
68	0x3ddcb715	0.107771076
69	0xbd4447ca	-0.047920026
70	0x3de070b0	0.109589934
71	0x39caacb0	0.00038657105
72	0x3d1edb5d	0.03878342
73	0x3d51dc8a	0.051235713
74	0x3dd5654b	0.10419711
75	0xbd2ec6b5	-0.04266997
76	0xbd8152ab	-0.06314596
77	0xbe0d2674	-0.137842
78	0xbd71e438	-0.059055537
79	0xbd81eaf9	-0.063436456
80	0x3d79dafa	0.060999848
81	0xbd08d15c	-0.033402786
82	0x3b638098	0.00347141
83	0xbe3d4987	-0.1848508
84	0xbe0253ea	-0.12727323
85	0x3d21bea9	0.03948847
86	0x3d00da8b	0.03145842
87	0x3f0d66ad	0.55234796
88	0xbdf358a3	-0.118821405
89	0x3dfd0deb	0.1235617
90	0xbf07acc5	-0.52998
91	0xbd526adc	-0.05137144
92	0xbd1484f3	-0.036259603
93	0xbdfa182d	-0.122116424
94	0xbd00c418	-0.03143701
95	0xbdecfdd0	-0.115718484
96	0xbdbcf325	-0.09226064
97	0xbdd9dede	-0.10638212
98	0x3ddf4ab0	0.109029174
99	0x3d4ad9c6	0.04952409
100	0x3bed02cd	0.007233
101	0xbdb61e42	-0.0889249
102	0x3d5244fb	0.051335316
103	0x3d08418a	0.033265628
104	0x3cfee8bc	0.031116836
105	0x3e168fc6	0.14703283
106	0x3d8020b7	0.0625624
107	0x3e1da80d	0.15396138
108	0xbc16b012	-0.009197252
109	0x3c979611	0.018504174
110	0x3dc0aa81	0.09407521
111	0x3ce9e39b	0.028550914
112	0x3d6edc5e	0.058315627
113	0x3d9e33dc	0.07724735
114	0xbc0ef829	-0.008726158
115	0xb967fb24	-0.00022123434
116	0x3d1c2888	0.03812459
117	0x3e6f2cfb	0.23357002
118	0x3d056f9c	0.032577142
119	0x3d9c7935	0.07640306

out.bias f4 [2]
0	0x3e32a65e	0.17446277
1	0xbe497df5	-0.19676955
