Projects/GDM/code/learning_code/learning_models/Saliva_model.pt (torch, 71995 bytes, 4 tensors)

linears.0.weight f4 [91, 183]
0	0xbc9c511d	-0.019081647
1	0xbe093271	-0.13398148
2	0xbddabf99	-0.106810756
3	0xbe964f9e	-0.29357618
4	0xbe219c73	-0.15782337
5	0xbdf4079f	-0.11915516
6	0xbe495c82	-0.19664195
7	0x3de2aad9	0.11067743
8	0xbd3dba26	-0.046320103
9	0xbc3d0ed8	-0.011539184
10	0x3d9a0de6	0.07522182
11	0xbd60dde0	-0.054899096
12	0xbe3bb5ed	-0.18331118
13	0x3d01ae88	0.031660587
14	0x3bc52164	0.0060159434
15	0xbd44fe5e	-0.048094146
16	0xbddb394d	-0.10704289
17	0x3c28500e	0.010272993
18	0x3d8b3988	0.067980826
19	0x3bdb2892	0.006688186
20	0x3e2aa0d6	0.16662917
21	0xbdbd630a	-0.09247406
22	0x3e0746c0	0.13210583
23	0x3ccd3b3e	0.025052663
24	0xbe302f7b	-0.17205612
25	0xbe11d77f	-0.14242361
26	0xbe0c93d1	-0.13728262
27	0xbd621052	-0.055191346
28	0x3dab3728	0.083601296
29	0xbd8573e1	-0.06516243
30	0x3e0b5a22	0.13608602
31	0xbda3d8dd	-0.08000348
32	0x3e5048f6	0.20340332
33	0xbdaf458a	-0.085581854
34	0x3d0cfb8b	0.034419578
35	0x3cac263d	0.021014327
36	0x3df44b9f	0.11928486
37	0x3db9f592	0.09080042
38	0xbe180a66	-0.14847717
39	0xbd172d3a	-0.036908366
40	0xbc4ace80	-0.012378335
41	0xbe51e9e0	-0.20499372
42	0x3b73114d	0.003708917
43	0xbe59037b	-0.21192734
44	0xbe1de210	-0.15418267
45	0x3c9ffc85	0.01952959
46	0xbbadd668	-0.0053051
47	0x3eaab3d2	0.33340317
48	0xbd432bf7	-0.04764935
49	0xbebe3c73	-0.37155494
50	0x3e9ccd6c	0.30625474
51	0xbd75f6d2	-0.06004984
52	0x3e16d319	0.14728965
53	0xbc627a1c	-0.013823058
54	0xbe368ff2	-0.17828348
55	0x3e0962f4	0.13416654
56	0x3e06669b	0.13125078
57	0x3e072886	0.13199052
58	0xbd2d5d73	-0.04232545
59	0x3bf9f827	0.007628459
60	0xbc267632	-0.010160016
61	0x3e919d9e	0.28440565
62	0xbcd219a8	-0.025647
63	0x3d09c943	0.033639204
64	0x3ea5e2e9	0.3239968
65	0xbe1595c8	-0.14607918
66	0xbdee7312	-0.11643042
67	0x3e3ddd21	0.18541385
68	0xbd970520	-0.073740244
69	0x3e6c6424	0.23085076
70	0xbcf5c8ea	-0.03000303
71	0xbe54ed50	-0.20793653
72	0x3e9211c6	0.28529185
73	0xbd365ba8	-0.044521004
74	0x3e2d6282	0.16932109
75	0x3da69ad3	0.08134999
76	0xbcc7435c	-0.024324112
77	0xbe89740d	-0.26846352
78	0xbd9ddb71	-0.07707871
79	0xbaf94dac	-0.001902034
80	0xbd245c92	-0.040127344
81	0x3da708e7	0.08155995
82	0xbddc7966	-0.107653424
83	0x3d476769	0.048682604
84	0x3df0546d	0.11734853
85	0xbe0b1c8e	-0.13585111
86	0xbcaa3740	-0.020778298
87	0xbca799f5	-0.020459155
88	0x3db2d3b4	0.087317854
89	0xbae0aed0	-0.0017141942
90	0xbe3c79fd	-0.1840591
91	0xbe26aa7d	-0.16275974
92	0x3dafade3	0.08578088
93	0xbd111d7d	-0.035428513
94	0xbe3de8da	-0.18545857
95	0xbe1a66e7	-0.15078317
96	0x3e1156ff	0.14193343
97	0x3e557cce	0.2084839
98	0x3d39d43b	0.045368414
99	0xbdc01a5a	-0.09380026
100	0xbcd11bf5	-0.025526026
101	0x3ddc725a	0.10763998
102	0xbd0120c8	-0.031525403
103	0xbe187703	-0.1488915
104	0xbd1768f3	-0.03696532
105	0x3e1b7342	0.15180686
106	0xbd4b44a8	-0.049626023
107	0xbe56d097	-0.20978008
108	0x3d800671	0.062512286
109	0x3df80248	0.1210981
110	0xbd0d2584	-0.034459606
111	0xbdc69608	-0.09696585
112	0x3dcb6bf5	0.099327005
113	0x3dc6b273	0.09702005
114	0x3dbe900a	0.09304817
115	0x3d6a78e6	0.057244204
116	0xbe26fece	-0.16308138
117	0xbe425235	-0.18976672
118	0xbe0ead06	-0.1393319
119	0xbe8773d1	-0.26455548
120	0x3e58d79e	0.21176001
121	0x3e0ca28b	0.1373388
122	0x3e2c4153	0.16821794
123	0xbe644c3a	-0.22294703
124	0xbdd44d37	-0.1036629
125	0x3dfa30af	0.12216317
126	0xbdf9835f	-0.1218326
127	0x3e398cd1	0.18120123
128	0xbdb73a99	-0.089467235
129	0xbd83cf59	-0.06436033
130	0xbcb28b6e	-0.021795
131	0xbdf166ed	-0.1178721
132	0x3bd9ce2f	0.0066468935
133	0xbc53fca5	-0.012938653
134	0xbe658f57	-0.22417961
135	0x3de89084	0.11355689
136	0x3db302c5	0.087407626
137	0xbd3155ae	-0.0432946
138	0x3e1d4025	0.153565
139	0xbea299df	-0.3175802
140	0x3d1cfc99	0.038326833
141	0xbda9a28f	-0.08282959
142	0xbc950fd3	-0.018196022
143	0x3e33a4ae	0.17543289
144	0x3d42d33c	0.04756473
145	0xbdf893b4	-0.12137547
146	0xbc8c553c	-0.017130487
147	0xbcb9efac	-0.022697292
148	0xbd6713e0	-0.05641544
149	0x3de7fa06	0.11326985
150	0x3dd475aa	0.10374005
151	0xbde494af	-0.11161172
152	0xbe942185	-0.28931823
153	0xbe38a3fa	-0.18031302
154	0x3c9ecd62	0.019385044
155	0xbd2b1949	-0.04177216
156	0x3e2c6810	0.16836572
157	0xbdc1cc1b	-0.09462758
158	0xbd86d58c	-0.065836996
159	0xbd3be026	-0.04586806
160	0x3b45b4d1	0.003016759
161	0x3e680102	0.22656634
162	0xbdd634c6	-0.104592845
163	0x3c8f0a88	0.017461076
164	0x3ce0f436	0.027460199
165	0xbe182018	-0.14855993
166	0xbe03297c	-0.12808794
167	0x3dec187d	0.11528108
168	0xbdd4ca4d	-0.10390148
169	0x3e3905ef	0.1806867
170	0xbead52b8	-0.33852172
171	0xbcf7b3ea	-0.030237157
172	0x3d8b3eb1	0.06799067
173	0xbbc2b64b	-0.005942141
174	0x3db5a9c7	0.08870273
175	0xbe17fe38	-0.1484307
176	0x3ea0cb99	0.31405333
177	0x3da3a3e3	0.07990243
178	0x3c71c71f	0.014756947
179	0x3de2de64	0.11077574
180	0x3e969a3f	0.29414555
181	0xbd88905e	-0.06668161
182	0x3dc65307	0.09683805
183	0xbdafb405	-0.08579258
184	0xbdf6ab53	-0.12044396
185	0xbd6e2c0b	-0.05814747
186	0xba23f1a2	-0.00062539626
187	0x3d5338c5	0.05156781
188	0x3d63fa7b	0.0556588
189	0x3d22b678	0.039724797
190	0x3d3549e4	0.04425992
191	0xba489e55	-0.0007652988
192	0xbdc35ca8	-0.09539157
193	0x3ce5dd5f	0.02805966
194	0x3cee02c9	0.029054062
195	0x3b8d731d	0.004316701
196	0x3d29350a	0.041310348
197	0xbc8d6b14	-0.017262973
198	0xbe1ce4a1	-0.1532159
199	0x3dafb8fa	0.08580203
200	0x3d7b8ca0	0.061413407
201	0x3d8dcbc0	0.06923628
202	0xbe0e21a4	-0.1388002
203	0x3ced6dd1	0.028983029
204	0x3d63ba17	0.05559739
205	0x3b5ad208	0.0033389349
206	0x3de80dea	0.11330779
207	0xbdfeab18	-0.12434977
208	0xbe715e2e	-0.23571083
209	0xbda15b05	-0.07878689
210	0xbc88c915	-0.016697446
211	0x3db28935	0.087175764
212	0x3de96bf2	0.11397542
213	0xbba3bf20	-0.004997149
214	0x3e2a9a8b	0.16660516
215	0x3ca54bc0	0.020177722
216	0xbdefaf95	-0.117034115
217	0xbda1a1dc	-0.078922
218	0x3dafd335	0.085852064
219	0x3bf6c517	0.007530819
220	0x3d8170d6	0.0632035
221	0xbd76d481	-0.060261253
222	0x3b12597d	0.0022331171
223	0x3da2605c	0.07928535
224	0xbba019eb	-0.004885902
225	0x3d58e7d4	0.052955464
226	0x3d22a593	0.039708685
227	0x3c1b89f3	0.009493339
228	0x3cd8344c	0.026392125
229	0xbb2d6319	-0.0026456772
230	0x3c2b5c5d	0.010459033
231	0x3da25dcc	0.079280466
232	0x3ccca740	0.024982095
233	0x3df9660b	0.12177666
234	0x3d98fd5f	0.07470202
235	0x3da5b4dc	0.08091137
236	0x3db669ff	0.08906936
237	0xbc4b47b6	-0.012407234
238	0xbdb457bc	-0.088057965
239	0x3e11a292	0.14222172
240	0xbe325b3a	-0.17417613
241	0x3d5ca38f	0.05386692
242	0x3d39afa9	0.04533354
243	0x3db76562	0.08954884
244	0xbc272915	-0.010202666
245	0x3cbae886	0.022815954
246	0xbd8fa7ee	-0.07014452
247	0xbd4b6b70	-0.049663007
248	0x3aacdd88	0.001318858
249	0xbe5d7eae	-0.21630356
250	0x3d7464b2	0.059666343
251	0xbdd810f9	-0.10550112
252	0xbd951b93	-0.0728065
253	0xbe074ab8	-0.13212097
254	0xbdabf557	-0.08396404
255	0x3ddc1446	0.10746054

linears.0.bias f4 [91]
0	0x3e8f2989	0.27961376
1	0x3d54487b	0.051826935
2	0xbb772b3d	-0.003771498
3	0x3dc90a67	0.09816437
4	0x3c2911e4	0.010319207
5	0x3e5a5459	0.21321239
6	0xbb79623c	-0.0038052937
7	0xbd9115b5	-0.070842184
8	0xbcdd597e	-0.027020212
9	0x3d7fab83	0.062419426
10	0x3d033542	0.032033212
11	0x3bab08fc	0.005219577
12	0x3d07e69e	0.033178918
13	0xbdf9a047	-0.121887736
14	0x3ca79d11	0.020460637
15	0xbdb4041b	-0.087898456
16	0x3d636926	0.0555202
17	0x3e0b5970	0.13608336
18	0x3cb43240	0.021996617
19	0x3d69c579	0.05707309
20	0x3e2c7b6c	0.16843957
21	0xbde28b16	-0.11061685
22	0x3b860c98	0.0040908568
23	0x3e94aec1	0.29039577
24	0x3c097cfc	0.008391615
25	0xbe35515f	-0.17706822
26	0xbe3b5a4e	-0.18296167
27	0x3de0c18c	0.10974416
28	0x3d2066c7	0.039160516
29	0x3dfd66c5	0.12373117
30	0xbbea4e9f	-0.0071504856
31	0xbdb23a1c	-0.0870249
32	0x3d5d2ae9	0.053996
33	0x3e836f3b	0.256708
34	0x3dd5a2a5	0.104314126
35	0x3e5e60a5	0.21716554
36	0xbd35d2c3	-0.04439045
37	0xbc117ec8	-0.008880325
38	0x3be8cd87	0.007104579
39	0x3e827faf	0.2548804
40	0x3d557cd0	0.052120984
41	0xbdb9ef18	-0.09078807
42	0x3dc308c3	0.095231555
43	0x3d340fa3	0.043960225
44	0x3e0b129d	0.13581319
45	0xbd803460	-0.0625999
46	0x3c4ebd0b	0.012618314
47	0x3cbd9738	0.023143396
48	0xbcb8d4dd	-0.022562439
49	0x3e3cba08	0.1843034
50	0xbd820f95	-0.06350628
51	0xbde66217	-0.11249178
52	0xbda9c753	-0.08289971
53	0x3db775b2	0.089579955
54	0xbc8e24f4	-0.017351605
55	0x3d471caa	0.04861132
56	0x3e1865a5	0.14882524
57	0x3c238e02	0.009982588
58	0xbcb6155e	-0.022226986
59	0x3e149843	0.14511208
60	0xbde2c1f3	-0.11072149
61	0x3d784f3d	0.060622443
62	0x3de1e267	0.11029511
63	0x3e5ebc60	0.21751547
64	0xbe74816d	-0.23877497
65	0xbe1f7b1b	-0.15574305
66	0xbdd87e92	-0.10571016
67	0x3d0a3730	0.033744037
68	0xbe013674	-0.12618428
69	0xbd4215c4	-0.04738404
70	0xbd057c63	-0.032589328
71	0x3cbbde1a	0.022933055
72	0x3d98c6ea	0.07459815
73	0xbda4da77	-0.08049481
74	0x3b02ca2c	0.001995693
75	0x3d7ab14c	0.06120424
76	0xbc9c3026	-0.019065928
77	0x3e11a47d	0.14222904
78	0xbe14cf6d	-0.14532252
79	0xbb06fc42	-0.0020597135
80	0xbca1bc6e	-0.01974317
81	0xbcfc7f37	-0.03082238
82	0x3bc631bf	0.0060484107
83	0x3d38e070	0.045135915
84	0x3ced52bb	0.028970113
85	0xbe58247b	-0.21107666
86	0x3e2396c0	0.15975475
87	0x3e213aa6	0.15745029
88	0x3db31763	0.08744695
89	0xbe196638	-0.149804
90	0x3c82502e	0.015907373

out.weight f4 [2, 91]
0	0x3daeda1f	0.08537697
1	0x3b5ab0ba	0.0033369497
2	0x3c03be97	0.008041046
3	0xbc80d878	-0.01572822
4	0x3d965ffd	0.07342527
5	0x3d2abbcc	0.041683003
6	0xbd78e001	-0.0607605
7	0xbcb69b4a	-0.022290844
8	0xbc6c7a76	-0.014433494
9	0xbd6762c0	-0.05649066
10	0x3bac6fa5	0.0052623325
11	0xbdf86282	-0.12128164
12	0x3af38dd0	0.0018581692
13	0x3dc221d8	0.094791114
14	0x3cd4bd19	0.025969075
15	0xbccebbc5	-0.02523602
16	0x3bf4896a	0.00746267
17	0xbd356d48	-0.04429367
18	0x3d3a34b5	0.04546042
19	0x3b63e82c	0.0034775836
20	0x3d515367	0.05110493
21	0x3c9dc6cf	0.019259838
22	0xbd4a4c69	-0.049389277
23	0x3cc1c1d2	0.023651991
24	0xbd37a141	-0.044831518
25	0xbdaa2ba6	-0.083091065
26	0x3cfb2655	0.030657927
27	0x3e3ef20b	0.1864702
28	0xbd0ba2b2	-0.034090705
29	0xbc89e751	-0.016833933
30	0x3c0f7ab6	0.008757284
31	0xbc5f3001	-0.013622285
32	0x3d325b06	0.043543838
33	0x3d5b84f4	0.05359359
34	0xbc823d7a	-0.015898455
35	0x3dca13f4	0.09867087
36	0xbc4c9b71	-0.012488232
37	0xbe16ed2a	-0.14738908
38	0x3dc73887	0.097275786
39	0x3daa76a6	0.08323412
40	0x3c6ef514	0.014584798
41	0xbdeccae7	-0.11562138
42	0xbbaf39df	-0.005347475
43	0x3d015315	0.031573374
44	0x3dd630c7	0.10458522
45	0xbbe75270	-0.007059388
46	0xbd88ecb2	-0.06685771
47	0x3dd25fa1	0.10272146
48	0x3d6b7802	0.057487495
49	0x3ccfbd7a	0.025358904
50	0xbd65a5d6	-0.056066357
51	0xbbb0ecae	-0.005399308
52	0x3de8cd6e	0.113673076
53	0x3e16697d	0.14688678
54	0x3dce3487	0.100686125
55	0x3d8d8a85	0.06911186
56	0xbd158467	-0.03650322
57	0xbc7048b0	-0.014665768
58	0xbc9a2df5	-0.018820742
59	0xbcd462a1	-0.025925936
60	0xbd01c536	-0.031682216
61	0xbd8c9db2	-0.068660155
62	0x3dc5357f	0.09629344
63	0x3ce6d33f	0.028176902
64	0xbe03aaec	-0.1285817
65	0xbd7ad26c	-0.06123583
66	0xbd618a7c	-0.05506371
67	0x3bf1220e	0.007358796
68	0x3c8d375d	0.017238313
69	0x3dc21a73	0.09477701
70	0xbdbdf4f3	-0.09275236
71	0x3d934e89	0.07192714
72	0x3ca28267	0.019837571
73	0xbb7b5df3	-0.0038355559
74	0x3dc95182	0.098299995
75	0xbdbeac11	-0.09310163
76	0xbdca86f6	-0.09889023
77	0xbcdacdd6	-0.026709478
78	0x3e151a8a	0.14560905
79	0xbe038692	-0.12844303
80	0xbcb528d0	-0.022114187
81	0x3e1ee84e	0.15518305
82	0x3db2c088	0.08728129
83	0x3b4d2e3c	0.0031308075
84	0x3d422741	0.047400717
85	0xbd005276	-0.03132864
86	0x3dc53d8d	0.096308805
87	0x3d9f0ab1	0.07765711
88	0x3de25762	0.11051823
89	0xbdd10c57	-0.10207432
90	0xbc82ca34	-0.015965559
91	0xbd067097	-0.032822218
92	0xbb5faab2	-0.0034128842
93	0xbaa31d76	-0.0012444693
94	0xbd64a4ec	-0.055821344
95	0x3d5d37aa	0.054008164
96	0xbd6b64ca	-0.057469167
97	0x3d865f70	0.06561172
98	0xbd50c88b	-0.050972503
99	0xbda5dc70	-0.08098686
100	0xbdc5675f	-0.09638857
101	0xbe0782b3	-0.13233452
102	0x3d3936c9	0.045218263
103	0xbd3818f1	-0.04494566
104	0xbe447404	-0.19184881
105	0xbda95567	-0.08268242
106	0x3dc3bbcd	0.095573045
107	0xbc88cf78	-0.016700491
108	0xbca56fc6	-0.0201949
109	0xbe0074d3	-0.12544565
110	0xbb96aa5a	-0.004597944
111	0xbd33a320	-0.04385674
112	0x3d5f9277	0.05458304
113	0xbcefb262	-0.029259864
114	0xbdef627f	-0.116887085
115	0x3d8f85a9	0.070079155
116	0xbd0ba949	-0.03409699
117	0x3d4b6bd7	0.04966339
118	0x3b933513	0.004492411
119	0xbd27262d	-0.04080789
120	0xbdf6b6c8	-0.120465815
121	0x3c2b24b0	0.010445759
122	0xbcc9a6a8	-0.0246156
123	0x3d838175	0.06421176
124	0xbd4e84d1	-0.050419632
125	0x3cd5ab84	0.026082762
126	0xbdca0306	-0.09863858
127	0xbd5bed00	-0.053692818
128	0x3db870c0	0.0900588
129	0x3d596e10	0.05308348
130	0xbd91b861	-0.071152456
131	0x3db738ae	0.08946358
132	0x3d0671b4	0.03282328
133	0xbdb6606e	-0.08905111
134	0x3bbbb149	0.005727921
135	0x3c9e686b	0.0193369
136	0x3d1bee1a	0.03806887
137	0xbdb3a9d8	-0.087726295
138	0xbd93aca2	-0.072106615
139	0x3dc653ef	0.09683978
140	0xbd5174ad	-0.05113666
141	0xbcc92ba3	-0.02455694
142	0x3cfdd290	0.030984193
143	0xbdf9d317	-0.12198465
144	0x3ca1cecb	0.019751927
145	0xbdad3400	-0.08457184
146	0xbdc27762	-0.09495427
147	0x3d9360ed	0.071962215
148	0xbc6e3ac8	-0.014540382
149	0xbc2cbf62	-0.010543676
150	0x3e167bd8	0.1469568
151	0xbbf994a4	-0.0076165963
152	0x3e1197d8	0.1421808
153	0xbae7220b	-0.0017634047
154	0xbdb49c5e	-0.08818887
155	0x3ca3bc5d	0.01998728
156	0xbcd831ec	-0.026390992
157	0x3c79c48c	0.015244614
158	0xbdbc0018	-0.091797054
159	0x3d9993c1	0.07498885
160	0x3cc03fa0	0.023467839
161	0x3dbfae08	0.09359366
162	0x3c33e86d	0.010980708
163	0xbd7fab48	-0.062419206
164	0x3d8fa184	0.070132285
165	0x3d971ca1	0.073785074
166	0x3ce5e2b5	0.028062204
167	0x3dce2787	0.10066133
168	0xbda5ba44	-0.08092168
169	0x3cebcc81	0.028784038
170	0xbca3281f	-0.019916592
171	0x3e5089d5	0.20365079
172	0xbda2bed6	-0.07946555
173	0xbccc52d1	-0.024941834
174	0xbb805e8c	-0.003917521
175	0xbcef909a	-0.029243756
176	0x3d1c0212	0.038087912
177	0x3d2798af	0.040917095
178	0xbc225766	-0.009908533
179	0x3b545acd	0.0032402754
180	0xbc80ed84	-0.015738256
181	0xbcde9e53	-0.027175104

out.bias f4 [2]
0	0x3d86be90	0.06579316
1	0xbd9cf8cb	-0.07664641
