Projects/GDM/code/learning_code/learning_models/Stool_model.pt (torch, 72507 bytes, 4 tensors)

linears.0.weight f4 [91, 183]
0	0xbdc29527	-0.09501105
1	0x3d285455	0.04109605
2	0xbbec6263	-0.007213877
3	0xbdf8f7cb	-0.12156638
4	0xbdfec1f4	-0.124393374
5	0x3e1b1165	0.15143354
6	0x3de6eb43	0.11275341
7	0xbc9e5404	-0.019327171
8	0x3c5e74bb	0.013577635
9	0xbd90f132	-0.07077254
10	0xbdabfa58	-0.08397359
11	0xbbba49b3	-0.005685055
12	0xbdd7af34	-0.10531464
13	0x3b639c56	0.0034730635
14	0x3da1946f	0.078896396
15	0xbe513c7d	-0.2043323
16	0xbd2d8958	-0.04236731
17	0x3c83035b	0.015992811
18	0xbd4ba863	-0.049721133
19	0x3e8b1769	0.27166298
20	0x3dc7ac91	0.09749711
21	0x3d6ee916	0.058327757
22	0xbc8482d0	-0.016175658
23	0x3b4848e6	0.003056103
24	0x3d5d6a72	0.054056592
25	0xbd13e382	-0.03610564
26	0x3d057e53	0.032591175
27	0xbe254288	-0.16138661
28	0xbd27eb3e	-0.04099583
29	0xbdba8a56	-0.09108417
30	0xbd8aeb75	-0.06783191
31	0x3e196e22	0.14983419
32	0x3d6c16af	0.05763882
33	0xbd7fee39	-0.062483046
34	0x3d555842	0.052086122
35	0xbce3df1c	-0.027816348
36	0xbea6fae4	-0.3261329
37	0x3dc69627	0.09696608
38	0x3ad5270a	0.0016262245
39	0xbdb47c95	-0.08812825
40	0x3ca1fc90	0.019773751
41	0x3cbe46e5	0.023227165
42	0x3df26dd3	0.118373536
43	0x3c5843bd	0.013199744
44	0xbde1f390	-0.11032784
45	0x3c7dfa67	0.015501595
46	0x3db342d4	0.08752981
47	0x3cad669f	0.021167098
48	0xbbd9f72c	-0.0066517796
49	0xbcef847c	-0.029237978
50	0xbdaa4a71	-0.0831498
51	0xbd56886f	-0.052376207
52	0x3d2a2ff9	0.041549657
53	0x3c0e7a0a	0.008696089
54	0x3b4fc4ec	0.0031703068
55	0x3c9175b2	0.017756317
56	0xbdea5ae4	-0.11443117
57	0x3ced9b2a	0.029004652
58	0xbdd0dcef	-0.1019839
59	0xbdedb9f2	-0.11607732
60	0x3d2a4b1a	0.04157553
61	0x3db41aa7	0.08794146
62	0x3e7c1ccc	0.2462036
63	0xb97e37b0	-0.00024244073
64	0x3daf9fc4	0.08575395
65	0xbdcb8383	-0.09937193
66	0x3d9de0c8	0.07708889
67	0x3d410280	0.047121525
68	0x3d0813c4	0.033221975
69	0xbbd88802	-0.0066080103
70	0x3ca79f5c	0.02046173
71	0xbe0afc03	-0.13572697
72	0xbe138830	-0.1440742
73	0xbc8ea92c	-0.017414652
74	0xbe239fff	-0.15979002
75	0xbdc7b3ca	-0.09751089
76	0x3e1bee65	0.15227659
77	0x3d63d5ea	0.055623926
78	0xbdc19967	-0.09453087
79	0x3dbc8ea9	0.09206898
80	0xbd56bcef	-0.052426275
81	0x3e386991	0.1800902
82	0xbd24e495	-0.040257055
83	0x3d5d732d	0.05406492
84	0xbd00cdc3	-0.03144623
85	0xbe08ba5f	-0.13352345
86	0xbd51ad04	-0.05119039
87	0x3e3f149a	0.18660203
88	0xbdb86b64	-0.09004858
89	0x3af84ef5	0.001894443
90	0x3d1819a6	0.037133835
91	0xbdcd1aec	-0.100149006
92	0xbcdbb9c9	-0.026821988
93	0xbc7ec592	-0.015550034
94	0x3dffa3ac	0.1248239
95	0xbdd0ce0b	-0.101955496
96	0xbd413cab	-0.047176998
97	0xbcd23287	-0.025658859
98	0x3e0030bd	0.12518592
99	0x3b9d1038	0.004793193
100	0xbe8dfd05	-0.277321
101	0xbc74d836	-0.014944127
102	0x3dad6bff	0.08467864
103	0xbe094429	-0.13404907
104	0xbd927753	-0.071516655
105	0x3e168597	0.14699398
106	0x3d4af9fa	0.049554802
107	0x3abc62d2	0.0014372712
108	0x3d1eef3c	0.03880237
109	0xbe503e1c	-0.20336193
110	0x3e2c3994	0.1681884
111	0xbe7f4fd2	-0.24932793
112	0xbdc137d4	-0.094344765
113	0xbc538e61	-0.012912364
114	0xbddde506	-0.108346984
115	0x3d65e806	0.056129478
116	0x3dc6b1d8	0.0970189
117	0xbdcee8e8	-0.10103017
118	0x3d9122fb	0.0708675
119	0x3d83a142	0.06427242
120	0x3d97a27e	0.0740404
121	0x3cf2f9c4	0.029660113
122	0x3dd3f25e	0.10348962
123	0x3cd9ad9e	0.026572045
124	0xbcba370f	-0.022731332
125	0xbc41f15c	-0.01183733
126	0xbdf924e8	-0.121652424
127	0x3cc8605b	0.024460008
128	0x3d200a55	0.039072353
129	0x3d6c24ed	0.057652403
130	0xbdaee3a3	-0.08539512
131	0xbc73b760	-0.014875263
132	0x3e0e2aff	0.13883589
133	0xbe89782f	-0.26849505
134	0xbbfa0ea3	-0.0076311394
135	0xbdfd1cd4	-0.12359014
136	0xbc86a429	-0.0164357
137	0xbc8d544b	-0.017252108
138	0xbdaa6699	-0.0832035
139	0xbd08914f	-0.033341702
140	0xbcd05373	-0.025430417
141	0x3c428820	0.011873275
142	0x3d49172f	0.049094375
143	0xbd1b9e13	-0.03799255
144	0xbbb3a9b3	-0.005482876
145	0x3dab49c8	0.08363682
146	0xbd03521c	-0.032060727
147	0x3cb1f446	0.021722924
148	0xbc3540a8	-0.0110627785
149	0xbdffcd30	-0.12490308
150	0xbb644474	-0.003483084
151	0xbd13d8c5	-0.0360954
152	0xbe612d6d	-0.21989985
153	0x3ddea141	0.108706005
154	0x3cd673fe	0.026178356
155	0x3c4c567f	0.012471794
156	0x3d20ffa1	0.039306287
157	0x3d4e58f0	0.050377786
158	0xbddb142c	-0.10697207
159	0xbd06f7d9	-0.03295121
160	0xbd9e9665	-0.07743529
161	0x3d151ee6	0.03640642
162	0xbe0d8dbb	-0.13823597
163	0x3deb6485	0.11493782
164	0xbda55dba	-0.080745175
165	0xbcfa643c	-0.030565374
166	0xbdecba19	-0.11558933
167	0x3c927a26	0.01788051
168	0xbd0426f2	-0.032263704
169	0x39b6419a	0.00034762622
170	0x3d9d5494	0.076821476
171	0x3dd43556	0.103617355
172	0xbd458a83	-0.0482278
173	0x3dc03238	0.093845785
174	0xbd0c6ae5	-0.03428163
175	0x3d966a20	0.073444605
176	0xbb4b6998	-0.003103828
177	0xbd6c4118	-0.057679266
178	0x3e118b41	0.14213277
179	0x3d7769ac	0.06040351
180	0x3c8975b7	0.016779764
181	0xbd7b0422	-0.06128324
182	0x3d283ceb	0.04107372
183	0x3e157f92	0.14599445
184	0xbe022f41	-0.12713338
185	0xbb76b428	-0.0037644003
186	0xbe188b21	-0.14896823
187	0x3c9c7194	0.019097127
188	0xba8892aa	-0.0010419686
189	0x3ca23536	0.019800764
190	0xbd8c444b	-0.06848963
191	0x3e461813	0.19345121
192	0xbd16f517	-0.03685483
193	0x3c09c131	0.008407877
194	0x3e052fee	0.13006565
195	0xbd5f6278	-0.054537266
196	0x3a0b7833	0.000532034
197	0x3ddee244	0.108830005
198	0x3da30f2a	0.07961877
199	0xbc841d26	-0.01612718
200	0x3de8e92d	0.113726
201	0x3cf4d70a	0.029887695
202	0xbd074e57	-0.033033695
203	0x3d43a6b6	0.04776641
204	0x3ddc5492	0.10758318
205	0xbd3b8126	-0.045777462
206	0x3d9dcd32	0.077051535
207	0xbdac88cb	-0.08424529
208	0x3d93f20c	0.07223901
209	0x3d40b896	0.047051035
210	0xbd8e8670	-0.06959236
211	0x3afa9188	0.0019116858
212	0xbc0a0f00	-0.008426428
213	0xbd828d5f	-0.06374621
214	0x3e335c88	0.17515767
215	0x3e2ff345	0.17182644
216	0xbde7f38e	-0.11325751
217	0x3c858a2e	0.01630124
218	0x3df11076	0.11770718
219	0xbe35cc56	-0.17753729
220	0x3df1797b	0.11790749
221	0xbd74b667	-0.059744265
222	0xbdbd70ce	-0.092500314
223	0x3e42c7e6	0.19021568
224	0xbe0cfea8	-0.13769019
225	0x3e7449a7	0.23856221
226	0x3d8df9ef	0.06932437
227	0xbd63f46f	-0.055653032
228	0x3dab5751	0.08366264
229	0x3d82ed0c	0.06392869
230	0x3d5e6f8f	0.05430561
231	0x3e36064d	0.17775841
232	0x3e7cd40f	0.24690269
233	0x3df487c1	0.119399555
234	0xbcacfd27	-0.021116806
235	0xbd499b80	-0.049220562
236	0x3e232a98	0.15934217
237	0x3cd2bffb	0.025726309
238	0xbc853781	-0.016261818
239	0x3e33b612	0.17549923
240	0xbc985cae	-0.01859888
241	0x3e0cd265	0.13752134
242	0x3d2e572c	0.042563602
243	0x3dcc6bef	0.09981524
244	0x3d6bd06c	0.057571813
245	0x3e2a18b1	0.16610982
246	0x3d599eb2	0.05312986
247	0x3c70b056	0.014690479
248	0xbd11d196	-0.035600267
249	0xbb30ab7a	-0.0026957677
250	0xbdccc3f7	-0.09998315
251	0xbd1fbbe3	-0.038997542
252	0x3e5474a9	0.20747627
253	0x3d51a9fa	0.051187493
254	0xbd8c0938	-0.06837696
255	0x3dd8d218	0.10586947

linears.0.bias f4 [91]
0	0x3d56d620	0.0524503
1	0xbc87a5c2	-0.016558532
2	0x3da37bb0	0.07982576
3	0x3e14120c	0.1446001
4	0x3abf5fa2	0.0014600644
5	0xbbffc6dc	-0.0078056883
6	0xbe43ff47	-0.1914035
7	0xbd8ea72b	-0.069654785
8	0x3d8b5242	0.06802799
9	0x3cbaf2da	0.022820879
10	0x3dc5a003	0.096496604
11	0x3d7a0551	0.061040226
12	0x3d62ab44	0.055339113
13	0xbdff7283	-0.12473013
14	0xbbf732c4	-0.0075438935
15	0x3dca2cf3	0.09871855
16	0x3dc0f5d6	0.094218895
17	0x3d900ec4	0.07034066
18	0x3d663e36	0.056211673
19	0xbc607a09	-0.01370097
20	0xbdab5a1b	-0.08366796
21	0xbd4015ed	-0.04689591
22	0x3d4e59ce	0.050378613
23	0x3cb9538d	0.022622848
24	0xbc955e7e	-0.018233534
25	0x3d02ce51	0.03193504
26	0x3dbc3ff3	0.09191885
27	0x3dcaf05a	0.09909125
28	0x3e0ae513	0.13563947
29	0xbcfaca5e	-0.030614074
30	0xbd15417c	-0.036439404
31	0x3dcb7cf9	0.09935946
32	0x3cfffe5d	0.03124922
33	0x3e1b04c0	0.1513853
34	0x3db58e39	0.088650174
35	0xbd415e5e	-0.047209136
36	0xbd882975	-0.06648532
37	0xbcda20da	-0.026626993
38	0x3d2536be	0.04033541
39	0x3de02cc8	0.10946041
40	0xbccda235	-0.02510176
41	0x3ddfa518	0.10920161
42	0x3c431dfb	0.011909003
43	0x3da7d197	0.08194273
44	0xbc731ffe	-0.0148391705
45	0x3c30575b	0.010763015
46	0xba6c6142	-0.0009017178
47	0xbd25e598	-0.04050216
48	0xbcf3f568	-0.029780105
49	0xbe1649ab	-0.1467654
50	0xbcac2151	-0.02101198
51	0xbb9fd6f0	-0.0048779175
52	0x3c81cb01	0.01584387
53	0xbdae0279	-0.08496565
54	0xbc685c7f	-0.014182209
55	0xbe0ad580	-0.13558006
56	0x3c02b822	0.007978471
57	0x3ddc92cb	0.10770186
58	0xbd9a5ac6	-0.07536845
59	0x3d19d10e	0.037552886
60	0xbbecd1e2	-0.0072271684
61	0x3cb0fe22	0.021605555
62	0xbda028a7	-0.07820254
63	0xbe0122aa	-0.1261088
64	0xbd8e34a3	-0.069436334
65	0xbab2a924	-0.001363073
66	0xbda17e7c	-0.07885453
67	0xbd87b786	-0.06626801
68	0xbd5c57f8	-0.05379483
69	0xbaec3ee0	-0.0018024109
70	0xbcecce8d	-0.028907085
71	0xbd8c5937	-0.06852954
72	0xbd1f0b9e	-0.03882944
73	0xbe5d650a	-0.21620575
74	0xbda54a59	-0.08070821
75	0xbe425541	-0.18977834
76	0x3d96a6ef	0.07356059
77	0x3d2c04a1	0.041996602
78	0xbd229236	-0.03969022
79	0x3ded15d2	0.115764275
80	0xbda65762	-0.08122136
81	0xbdf283ea	-0.11841567
82	0xbcf8db8e	-0.03037813
83	0xbdb4cca6	-0.08828096
84	0xbd769b71	-0.060206834
85	0x3c46351f	0.012097626
86	0x3d1d9002	0.038467415
87	0xbb3550a5	-0.0027666476
88	0x3e029ec8	0.12755883
89	0xbe0f08ef	-0.13968252
90	0xbde2f811	-0.11082471

out.weight f4 [2, 91]
0	0x3c9d9518	0.019236133
1	0xbcafec36	-0.021474939
2	0x3d632fc9	0.055465493
3	0x3e0a35e1	0.13497116
4	0xbdb0f93a	-0.08641286
5	0x3d7fcfe5	0.062454123
6	0xbdcfc978	-0.10145849
7	0x3ca752b9	0.020425187
8	0xbdcfb81e	-0.101425394
9	0x3c10a0cc	0.008827399
10	0x3b8191f1	0.003954165
11	0x3bf4d492	0.0074716294
12	0xbd306cce	-0.043072514
13	0x3c5e11b9	0.01355403
14	0x3ccbea8a	0.02489211
15	0xbb8c33e0	-0.004278645
16	0xbcb26030	-0.021774381
17	0x3da62044	0.08111623
18	0x3d22e053	0.039764713
19	0xbcc8d6ad	-0.024516428
20	0xbd339384	-0.043841854
21	0xbcd1e172	-0.025620196
22	0xbd0e5bd5	-0.034755547
23	0x3c8ba1ad	0.017044866
24	0x3d19c7f5	0.03754421
25	0xbdec85fb	-0.11548992
26	0x3d91313b	0.07089468
27	0xbd2d619f	-0.042329427
28	0xbbd85f12	-0.00660313
29	0x3d2eec1d	0.042705644
30	0xbbc6186e	-0.0060453927
31	0x3d91dcb8	0.07122177
32	0xbd79aea4	-0.060957566
33	0xbc9a2d39	-0.018820392
34	0xbb71f8ac	-0.0036921902
35	0xbc99a7b6	-0.018756729
36	0xbcae27e4	-0.021259256
37	0xbd4debb0	-0.050273597
38	0x3c80fc67	0.015745355
39	0x3d0ce777	0.03440043
40	0x3cb1bfe6	0.02169795
41	0x3db2ae60	0.08724666
42	0xbc6c975a	-0.014440382
43	0x3c7ce02b	0.015434305
44	0x3d184936	0.037179194
45	0xbcbfc3fd	-0.023408884
46	0x3ceab0e9	0.02864881
47	0xbd98ada9	-0.07454998
48	0xbd480828	-0.048835903
49	0xbce6cb90	-0.028173238
50	0x3cfb515c	0.030678444
51	0x3d04031a	0.03222952
52	0x3e00f27a	0.12592497
53	0xbc4088f5	-0.011751403
54	0x3d9fd9dd	0.07805226
55	0xbdd9694f	-0.10615789
56	0x3d33b855	0.043876965
57	0x3cd028ee	0.025410142
58	0x3dc47808	0.09593207
59	0xbd872898	-0.065995395
60	0xbcb349e8	-0.021885827
61	0x3d9b1303	0.075719856
62	0x3d9db2d3	0.07700124
63	0xbd8d301e	-0.06893943
64	0x3c25fa35	0.010130455
65	0xbe261c79	-0.16221799
66	0x3d946b0c	0.0724698
67	0x3c2496d0	0.010045722
68	0xbd892d55	-0.066980995
69	0x3a5df4c8	0.0008466956
70	0xbac667ea	-0.001513717
71	0xbc3e8091	-0.011627332
72	0xbda3e009	-0.08001716
73	0xbcf41d36	-0.029799085
74	0x3c944a8b	0.018101951
75	0x3cd1ced8	0.025611326
76	0xbc8dc865	-0.01730747
77	0xbc194a4e	-0.0093560945
78	0xbd83fa2a	-0.064441994
79	0x3d1ec8e4	0.038765803
80	0x3d1f9eb5	0.038969714
81	0x3de33fc6	0.11096148
82	0x3e2bd348	0.16779816
83	0xbd2708f1	-0.04078001
84	0xbd8c5082	-0.06851293
85	0xbdd38bed	-0.10329423
86	0xbd02b062	-0.031906493
87	0xbde5b45e	-0.11216043
88	0x3c5331d6	0.0128903
89	0x3cb5749e	0.022150334
90	0xbdc81a19	-0.09770603
91	0x3dae6836	0.085159704
92	0xbd90fe4a	-0.07079752
93	0x3b79e22c	0.0038129194
94	0x3d15c07a	0.036560513
95	0xbdb3f1af	-0.08786332
96	0xbcc17128	-0.023613527
97	0xbc9b35c1	-0.01894653
98	0x3cb31687	0.021861328
99	0x3c8ca0f4	0.017166592
100	0xbd5163d9	-0.051120613
101	0xbdbd756b	-0.09250911
102	0xbd556aec	-0.05210392
103	0x3ad3f560	0.001617115
104	0x3cd1bf1e	0.025603827
105	0x3d513194	0.051072672
106	0xbd60848c	-0.054813907
107	0x3d4a0666	0.04932251
108	0x3ce9bb78	0.028531775
109	0x3d74d389	0.05977205
110	0xbd8872c1	-0.066625126
111	0x3d1b5dfa	0.03793142
112	0xbdbc2097	-0.091859035
113	0xbbc71338	-0.006075289
114	0xbd71ec82	-0.059063442
115	0xbd9f7672	-0.077862635
116	0x3e24f871	0.16110398
117	0x3cfff703	0.031245714
118	0xbd77d85b	-0.060509067
119	0x3c182fe5	0.009288763
120	0x3e1869a1	0.14884044
121	0x3ca81fc7	0.020522965
122	0xbc8c61d3	-0.01713649
123	0x3a9ad81a	0.0011813671
124	0xbd66c0f8	-0.056336373
125	0x3cdcd81a	0.026958514
126	0xbc5f82b8	-0.013642006
127	0x3d3bcd7d	0.045850266
128	0x3dd46b93	0.10372081
129	0xbd817d31	-0.063227065
130	0xbd97e1a1	-0.07416082
131	0xbd3bdb09	-0.045863185
132	0xbdcce40a	-0.100044325
133	0x3d41944a	0.04726056
134	0x3dde74d1	0.10862125
135	0x3dbb3594	0.091410786
136	0xba85ed5a	-0.0010217831
137	0x3d947ee3	0.07250764
138	0x3d4ab55d	0.049489368
139	0x3c83355c	0.016016655
140	0x3dafbb4c	0.08580646
141	0xbd9eff94	-0.077635914
142	0xbd96ec4e	-0.0736929
143	0xbe2cab81	-0.16862299
144	0x3d367813	0.044548105
145	0x3bd7b225	0.006582516
146	0xbc59b0f0	-0.013286814
147	0x3d84acc6	0.064782664
148	0x3d8eb395	0.06967846
149	0x3c6b9020	0.014377624
150	0xbb9b91b9	-0.004747596
151	0xbd870a9b	-0.0659382
152	0x3d543c57	0.051815357
153	0x3d055ab2	0.032557197
154	0xbc2f0302	-0.010681869
155	0x3b6fa0c7	0.0036564337
156	0x3db9758f	0.09055626
157	0x3d111b20	0.03542626
158	0x3d549291	0.05189759
159	0xbdbe8f04	-0.09304622
160	0xbe13128c	-0.14362544
161	0xbdf77747	-0.12083297
162	0x3d8a3418	0.06748217
163	0x3d6b1a7d	0.057398308
164	0x3d828de3	0.06374719
165	0xbd2af879	-0.04174087
166	0x3daa3443	0.083107494
167	0xbce6316e	-0.028099742
168	0xbd8ba6b0	-0.068189025
169	0x3c0b0f1d	0.00848749
170	0xbd7f762e	-0.062368564
171	0x3db63d04	0.088983566
172	0x3d39960c	0.04530911
173	0xbe1107e2	-0.14163163
174	0xbd8616e9	-0.065473385
175	0xbd63f992	-0.05565793
176	0x3d357eb5	0.04431029
177	0xbe0a2f81	-0.13494684
178	0x3cde404f	0.027130274
179	0x3c81a0f0	0.015823811
180	0x3d88d1b9	0.066806264
181	0xbd054e10	-0.03254515

out.bias f4 [2]
0	0x3cf65869	0.030071454
1	0x3d877061	0.066132315
