Projects/BGU_fatty_liver/data/exported_data/latent_representation_data/best_model.pt (torch, 379057 bytes, 22 tensors)

weight f4 [135, 271]
000000 07 f6 3b 3c 5a f3 40 3d 5f 5b 95 bd 3b d2 28 3c
       0.011472232 0.047107078 -0.07292818 0.010304029
000010 4e a4 29 bd 93 fe 43 bc ff 90 94 bb ee b4 8a 3c
       -0.04141646 -0.011962551 -0.0045338864 0.016931977
000020 48 73 5a bd 70 09 6d 3c f1 6b 1a 3d ea 70 34 3d
       -0.053332597 0.014467582 0.037700597 0.044052996
000030 71 90 8d 3d 9b 80 ac 3c 07 fb 8c bb 0c d8 2b bc
       0.06912316 0.021057418 -0.0043023857 -0.010488521
000040 a8 2b f8 3b 31 bc 9d bd 79 ac 8f 3d fb aa 52 3d
       0.0075735636 -0.0770191 0.070153184 0.05143259
000050 00 be 6a bd 6b 04 67 3d ee 18 29 bd 80 8e f0 bb
       -0.057310104 0.056400698 -0.04128354 -0.007341206
000060 cd 5e 9a 3c 22 4c 66 bd 60 bf c7 3c cc 12 75 3d
       0.018844033 -0.05622495 0.024383247 0.05983238
000070 e9 d3 f7 3c da f0 06 3c b4 3e 44 3c ad 0d 3d bc
       0.030252414 0.008236134 0.01197784 -0.011538905
000080 87 c8 1a 3d b8 88 d7 3c 38 1a 92 3c 1d 5a 9d 3c
       0.037788894 0.02631031 0.017834768 0.019208008
000090 29 ac 7e bd 8a e1 28 bc e3 9d f9 bc 0f 99 87 bc
       -0.062175903 -0.010307679 -0.030470794 -0.016552476
0000a0 4a 68 0e 3d 91 b0 31 bc 99 46 9e bc 75 98 79 bd
       0.034767427 -0.010845319 -0.019320773 -0.06093641
0000b0 98 36 b6 b9 a0 f2 3c b8 bb e9 8d bd 3e cb f5 3a
       -0.0003475442 -4.5048655e-05 -0.06929346 0.0018752587
0000c0 9c ce 17 bd dd 68 5d bd aa 25 70 bd 35 07 7d bd
       -0.037062272 -0.054055084 -0.05862967 -0.06177445
0000d0 ad d5 31 3c fd 4e a2 bc 26 a5 18 bd a9 56 2d 3d
       0.010854167 -0.019813055 -0.037266873 0.042318974
0000e0 4f 20 dc 3c 55 e4 d8 3c cc b3 37 3d 06 f7 92 3c
       0.026870875 0.026476065 0.044849202 0.017940056
0000f0 d6 24 f9 3c d7 3b ec 3b 16 b4 2f 3d ac 2f 2c 3d
       0.030413073 0.007209282 0.042896353 0.04203765
000100 7b b7 f5 bc 20 7f b6 bb e1 0c a5 bc 09 a3 8f 3c
       -0.029994717 -0.0055693537 -0.020147743 0.017533796
000110 7a 62 49 bd bb 99 3b 3b c4 ab f5 3c 84 6f 7b bd
       -0.04916618 0.0028625566 0.02998913 -0.061385646
000120 49 11 6b bd 72 f1 45 bd f7 8a 2d bd 99 17 51 bd
       -0.05738953 -0.048325963 -0.042368855 -0.051047895
000130 0b fc 71 bd 3e db 4f bd be f1 b8 3b 97 17 50 bd
       -0.059078258 -0.050746195 0.0056440523 -0.050803747
000140 84 42 0d 3d 01 9c 14 3d 55 d3 6b bd b0 eb eb bc
       0.034487262 0.03628159 -0.05757459 -0.028798908
000150 76 bc fc 3c 6f 40 10 3d 68 35 2d bd 08 1c 7d bd
       0.030851584 0.0352177 -0.04228726 -0.06179431
000160 ae ea ba 3c 0b c1 44 3d 55 40 6e bd 05 f7 85 3c
       0.022816982 0.048035663 -0.05816682 0.01635314
000170 a8 d8 0a bd 32 38 4e bd 39 84 0c 3c 1c c3 6e 3d
       -0.033898026 -0.05034656 0.008576446 0.05829154
000180 82 88 c6 bc 4f 92 12 bc 21 a7 88 3c dc b1 be 3b
       -0.024235014 -0.0089460155 0.016681256 0.0058195423
000190 6d 97 35 bd 5e 82 24 bd 3f 2c 17 3c 02 87 a1 3c
       -0.044333864 -0.04016339 0.009226858 0.019717697
0001a0 82 3a 46 3d c0 b8 03 3c a4 42 72 3a ad da a6 3c
       0.04839564 0.008039653 0.00092414976 0.020367945
0001b0 8b 40 53 3b 6e d5 9b bb 8e 97 8c 3c 1d 47 e6 bb
       0.0032234516 -0.0047556674 0.01716211 -0.0070275203
0001c0 8f 5c 2a bd 91 23 5b 3c 7f e4 d3 3c 66 7a 3b bd
       -0.041592177 0.013375179 0.025865791 -0.045771025
0001d0 1a 12 90 bb cd 61 1d bd 54 56 06 bb df 36 b9 bc
       -0.004396689 -0.03842335 -0.0020498233 -0.022609172
0001e0 11 d6 5a 3d 9c c2 cb ba 98 01 65 3b 68 42 c1 bc
       0.053426806 -0.0015545669 0.0034943577 -0.023591235
0001f0 8b ba 20 bc 4d 3d 54 3d 32 d1 ef bc 08 e5 3d bd
       -0.0098101 0.051816273 -0.029274557 -0.046361
000200 cb ec c1 bb 56 b2 d3 bc 40 56 91 bd c4 9c 1b bd
       -0.0059181205 -0.025841873 -0.07096529 -0.0379913
000210 b3 71 98 bd 61 9e 8c bd e5 ba 08 3b 9f 2b 4c bd
       -0.074435614 -0.06866146 0.002086335 -0.049846288
000220 cd ed d3 bc 03 21 ab 3c 8b f2 01 3d d9 0b 87 ba
       -0.025870228 0.020889765 0.031725448 -0.0010303213
000230 9c 0b c1 bc 89 44 19 3d 45 e4 3d 3c ef d0 57 bd
       -0.023565106 0.037418876 0.011590068 -0.05268949
000240 a8 03 bc 3c 1c 37 17 3c ef 4e 8a 3c f4 5c 9a 3c
       0.022950962 0.009229448 0.016883342 0.018843152
000250 35 54 9b bc b5 b1 03 3d 3c 72 c3 3c 59 16 45 3d
       -0.018961051 0.032151897 0.023858182 0.048117016
000260 07 98 05 bd 5f 8b 5e bd ba 4b bf 3c 8d a6 a3 bc
       -0.032615688 -0.054332133 0.023351539 -0.019976879
000270 3e 70 04 3b e3 be 99 3b f4 dd 3b 3d 81 8a 39 3b
       0.0020208503 0.004691945 0.045865968 0.0028311315
000280 75 bd 54 ba af f0 30 3d 07 04 31 bc bf d8 80 3b
       -0.00081153895 0.043198284 -0.010804183 0.003932088
000290 15 58 86 bd 72 a3 2d bc ab 40 ff 3c 7e e2 19 bd
       -0.06559769 -0.01059805 0.031158766 -0.037569515
0002a0 1f 42 1f 3c b5 60 1b bd 40 f1 68 bd d9 62 4a bb
       0.009720354 -0.037934024 -0.0568707 -0.0030881672
0002b0 00 c3 81 bc c8 99 55 3c 7d 81 cb bc 8d 84 51 3d
       -0.015840054 0.013037153 -0.024842018 0.0511518
0002c0 55 63 d2 3c 57 c6 32 3d d5 9f 7a 3d 3f dc e4 bc
       0.02568213 0.043646183 0.061187584 -0.027937053
0002d0 77 73 b9 bc 8b 62 29 3c 2e a1 c7 3c a7 b5 d7 bc
       -0.022638066 0.010338436 0.024368849 -0.026331736
0002e0 d8 a6 4d 3c 0c 43 b4 3c c4 f9 f1 3b 23 42 c2 b9
       0.012551986 0.022004627 0.0073845107 -0.0003705184
0002f0 da de f0 bc 53 ac a3 bc 49 5f e0 bc e7 a3 8a bd
       -0.029403139 -0.019979632 -0.027389186 -0.06769543
000300 2b 23 03 3c 12 48 a4 3d 42 07 b7 bc aa 1b b1 bb
       0.00800399 0.08021559 -0.022342328 -0.005404909
000310 cb 09 2e 3d 6f e3 ed 3c 1c 10 2a bd 78 5d 89 3d
       0.042489808 0.029039113 -0.04151927 0.06707281
000320 84 73 e2 bc ea cc 95 bd d9 8f 41 3d 71 d6 9d 3c
       -0.027642973 -0.07314475 0.047256324 0.019267293
000330 a0 ef 92 bb c4 93 ac 3b d1 27 33 3d bc 4c 9a 3c
       -0.004484132 0.0052666385 0.043739144 0.018835418
000340 16 d5 6b bb b8 b0 69 3c 79 19 4c bc b9 a1 9a 3d
       -0.0035985163 0.014263324 -0.012457245 0.075503774
000350 87 63 8b bc 32 ac 63 3d ac e6 1d bd da 73 30 3c
       -0.017015232 0.05558414 -0.038550064 0.010769809
000360 83 40 d6 bc 5b a7 3b bd 3f e9 be 3c 0c 5c bd bc
       -0.026153808 -0.0458139 0.02330458 -0.02311518
000370 ba 39 45 bb 09 c4 77 3d 7e 86 e3 bc 9e 2e 21 3c
       -0.0030094222 0.060489688 -0.027774092 0.009837775
000380 30 8b c0 bc c6 44 8e bc df 66 e1 3c 8e 48 9d 3b
       -0.02350387 -0.017366778 0.027514873 0.004799909
000390 ac b0 8f bd 92 0e e1 3b 4f 9d ae 3b f1 31 f4 bc
       -0.07016119 0.006868192 0.0053288112 -0.02980897
0003a0 76 0d 1c bd 79 92 3a bd f4 4f 79 3d d6 af a4 bc
       -0.038098775 -0.045549843 0.060867265 -0.020103376
0003b0 f6 e6 47 3d 54 5a e3 bb 5c 73 bd 37 40 e4 17 3d
       0.048804246 -0.006938258 2.2584274e-05 0.03708291
0003c0 4a ac 25 3d 6a 85 bd 3c 9d 84 cc 3c 7c bb dd bc
       0.04044751 0.023134906 0.024965579 -0.027066939
0003d0 4a d8 86 bb 64 53 20 bd fe 66 e9 bc c1 75 06 3b
       -0.004115139 -0.039142027 -0.028491493 0.0020516964
0003e0 04 c6 6c 3d 01 dc ab bc 7d bf 09 bd 3b 1c 5a 3c
       0.05780603 -0.02097893 -0.033629883 0.013312395
0003f0 6e 8b bd bb 28 a1 18 3c 2d d7 a4 3c 94 5f 0d b9
       -0.0057844436 0.009315766 0.020122135 -0.00013482413

bias f4 [135]
000000 91 ed 08 be 06 f9 17 be 2b 3c 3c be 77 8b f7 bd
       -0.13371874 -0.14841089 -0.18382327 -0.12087148
000010 44 ab 4f be 51 d5 f4 bd c9 2a 0c be 7e bf 09 be
       -0.20280176 -0.119547494 -0.13688196 -0.13451955
000020 2c 85 3b be 02 e5 2c be f5 90 44 be e6 33 15 be
       -0.1831252 -0.16884235 -0.19195922 -0.14570579
000030 49 fd 22 be b3 64 49 be 99 31 11 be 2d 37 10 be
       -0.15916933 -0.1966732 -0.14179076 -0.14083548
000040 d0 18 40 be aa e4 db bd 50 a2 8c bd 4b cb 0b be
       -0.18759465 -0.107369736 -0.06866896 -0.13651769
000050 17 f4 03 be 37 ef 63 be 2f 9a 31 be 00 27 2b be
       -0.12886082 -0.22259222 -0.17343973 -0.16714096
000060 1b ce 29 be 9a 1f 4b be 61 69 41 be 89 d0 f1 bd
       -0.16582529 -0.19836274 -0.18887855 -0.11807353
000070 ef 33 d6 bd bc 83 90 bd 6d b0 43 be 72 25 df bd
       -0.10459124 -0.07056376 -0.1911027 -0.10895814
000080 f3 f7 9b bd 3b f1 c8 bd 57 78 0b be c4 62 48 be
       -0.07615652 -0.09811636 -0.13620125 -0.19568926
000090 1e 5e b6 bd 73 16 fb bd 64 a5 41 be bc e8 e1 bd
       -0.0890467 -0.12260141 -0.18910748 -0.11030719
0000a0 80 f7 0e be a2 93 d4 bd e1 56 06 be 83 46 8d bd
       -0.13961601 -0.10379721 -0.13119079 -0.06898215
0000b0 b7 8d 5e be 08 2f 2b be ec 87 14 be bd 78 10 be
       -0.21733747 -0.1671716 -0.14504975 -0.14108558
0000c0 4e a8 34 be 8b f4 63 be 46 df 5e be d0 76 15 be
       -0.17642328 -0.22261254 -0.2176486 -0.14596105
0000d0 70 15 f1 bd 9e 37 30 be 5d 01 5a be 41 0f 3e be
       -0.11771667 -0.17208716 -0.21289583 -0.18560506
0000e0 43 f6 17 be d8 33 10 be fe b4 e8 bd 2b fe 15 be
       -0.14840035 -0.14082277 -0.113626465 -0.14647739
0000f0 13 fd cf bd 8f 71 f1 bd ee 6b ac bd 70 ed d0 bd
       -0.10155692 -0.11789238 -0.084190235 -0.102015376
000100 02 be fb bd 4e df 2c be 4e 80 16 be 57 7e f2 bd
       -0.122921005 -0.16882059 -0.14697382 -0.11840504
000110 c6 46 2a be 60 d3 78 be 09 15 38 be 5a dc 12 be
       -0.1662856 -0.24299383 -0.17976774 -0.1434187
000120 6f 30 02 be bb 37 33 be 1a 2b 34 be 2c 68 14 be
       -0.12713788 -0.17501728 -0.17594567 -0.14492863
000130 07 7e ac bd a3 4f ab bd 4a 33 43 be 3d c9 f4 bd
       -0.08422475 -0.08364799 -0.19062534 -0.11952446
000140 48 0e 34 be d2 a6 a0 bd cf 18 c9 bd 0f 97 1e be
       -0.17583573 -0.078443184 -0.09819185 -0.15487312
000150 2c ad 02 be 6f c8 5f be a4 97 5c be 9d 40 1c be
       -0.12761372 -0.21853803 -0.21542221 -0.15259023
000160 0a 10 ec bd 9e e4 22 be 11 5c 03 be 5b 82 32 be
       -0.11526497 -0.15907523 -0.1282809 -0.17432539
000170 2c 4f 55 be 69 3f 10 be c6 6c 1d be e6 7c 63 be
       -0.20830983 -0.14086689 -0.15373525 -0.22215614
000180 2b 10 2e be d3 d0 e6 bd 7a 43 84 bd 63 01 49 be
       -0.16998355 -0.11270299 -0.06458183 -0.19629435
000190 3b 12 38 be a6 4d 2a be d8 e3 39 be 27 6d 01 be
       -0.17975704 -0.16631183 -0.18153322 -0.12639295
0001a0 bd f3 fd bd 07 dc ba bd 55 49 35 be e2 56 2c be
       -0.12400005 -0.09123998 -0.17703755 -0.16830018
0001b0 b1 4b 3d be b7 97 04 be 63 d8 5c bd 5b c2 29 be
       -0.18485905 -0.129485 -0.0539173 -0.16578047
0001c0 d0 72 e9 bd e7 1d 2f be 9f de 58 bd a5 3e 3f be
       -0.11398852 -0.1710125 -0.052946683 -0.1867624
0001d0 e3 fe 7d bd 9a 27 19 be 3d 78 53 be 2b 2a 94 bd
       -0.062010657 -0.14956513 -0.20651336 -0.072346054
0001e0 a0 85 d5 bd dc 2a 58 be 93 7c 04 be 0f e1 25 be
       -0.104258776 -0.211101 -0.12938146 -0.16199134
0001f0 14 77 4e be 9b 32 26 be c3 3d 11 be 47 97 00 be
       -0.20162612 -0.16230242 -0.14183716 -0.12557708
000200 2e e4 7b be d3 33 25 be 17 4d 52 be 7d 03 1b be
       -0.24598762 -0.1613305 -0.2053722 -0.1513805
000210 db fc 1e be 62 9a 39 be 55 7c 31 be
       -0.15526144 -0.18125299 -0.17332585

weight f4 [15, 135]
000000 c9 25 2a 3c 9e df 31 bc 0c 9f 45 3b 27 94 95 bc
       0.010384985 -0.010856537 0.0030154614 -0.018259121
000010 b4 32 1f bb dd 9b 8d bc 9d c0 31 3c bb b6 fd bb
       -0.0024291696 -0.017286235 0.010849145 -0.0077427304
000020 e5 2a 8b bb bf d8 f9 3b 54 fd c7 b8 21 80 9d 3a
       -0.004247057 0.007624715 -9.5362455e-05 0.0012016335
000030 32 99 32 bb 96 fa 20 ba 41 b6 b5 3a be ce 36 bb
       -0.0027251956 -0.0006140856 0.001386352 -0.0027894224
000040 41 66 38 bc 52 f9 a6 bc cc 97 0b bb 79 f4 76 bc
       -0.011254848 -0.020382557 -0.0021300195 -0.015072935
000050 a9 99 3e bb 2a ba 7c 3c 73 85 ae bc 43 c2 a5 bb
       -0.0029083288 0.015425244 -0.021303868 -0.005058558
000060 c4 c9 9a 3c 15 ee 7f 3b 51 6d a5 bc 9e 69 10 3c
       0.018895037 0.003905182 -0.020193728 0.008814244
000070 14 c9 49 bc 61 d0 ee bb 49 3f be 3b 32 c7 e3 3b
       -0.012316007 -0.0072880243 0.005805884 0.006951236
000080 41 2d 5b bc 59 50 89 bc 23 8e b0 bb e1 ed 50 3c
       -0.013377489 -0.016761946 -0.005388038 0.012752027
000090 de 25 3e 3c 08 a7 b0 3c c5 86 49 bc 75 33 ee bb
       0.011605708 0.021564022 -0.012300198 -0.0072693177
0000a0 01 1a 7e 3c ef 5f 33 bc 9a 01 02 bc 85 40 45 bc
       0.0155091295 -0.010948165 -0.007934952 -0.012039308
0000b0 82 bb f8 bb 2e f1 a2 3a 3f 09 03 bc 56 7f 90 3a
       -0.007590712 0.0012431496 -0.00799781 0.0011024277
0000c0 bc 28 f4 ba 2a 83 91 bc 0d e3 b4 bc f8 d1 06 bc
       -0.0018627862 -0.01776274 -0.022080922 -0.008228771
0000d0 e7 e0 26 3a 24 aa 6e bc 2b 7c bc b9 a7 b4 8d 3b
       0.00063659105 -0.014566932 -0.00035950667 0.004324514
0000e0 8c de eb bb 4a bb 44 3c ac 0e a2 3b f3 11 fe bb
       -0.0071981605 0.012007544 0.0049455967 -0.0077536046
0000f0 bb a6 99 3b 83 b2 be 3b 5b 3a a1 bb 79 3d 10 3c
       0.0046890653 0.00581962 -0.0049202866 0.008803719
000100 ee 37 bb bb b3 9b 06 3b b6 a1 53 39 4e 9c cc bb
       -0.0057134544 0.0020539581 0.0002018277 -0.006244219
000110 60 b6 1b 3b dd cb b6 3a b0 34 7e bb 9d af 0e 3c
       0.0023759827 0.0013946254 -0.0038788728 0.008708862
000120 b2 e5 88 bb 6a d1 ac 3c ee d0 80 bc 28 64 cb bb
       -0.0041777724 0.02109595 -0.015724625 -0.006207008
000130 00 7d 89 bb ed b3 0f 3c 34 8a 3c bb 15 9e ae ba
       -0.0041958094 0.008770925 -0.00287689 -0.0013322259
000140 55 41 10 3b c1 cd f9 b9 41 ab 25 bb 25 29 c2 3b
       0.0022011597 -0.0004764628 -0.0025279077 0.005925315
000150 d3 66 76 3c 62 fb 4c bb c0 d2 11 3c 48 37 3a 3b
       0.015039164 -0.0031277766 0.008900344 0.0028414298
000160 63 71 0a 3c 78 72 94 bb 40 ca e1 39 60 30 1e 3c
       0.008449885 -0.0045302473 0.00043066032 0.009655088
000170 12 04 ea 3a 78 20 51 3a 11 5b 87 bb 5d 42 8a 3b
       0.0017853996 0.00079775555 -0.004130729 0.004219337
000180 e2 2c 15 bc e2 3f d3 ba 7f 14 1e bc b2 52 23 bc
       -0.009104939 -0.0016117061 -0.009648441 -0.009968447
000190 a9 ce b6 3b a5 7e 91 bc f7 b7 c1 bb 3c 9f 76 3b
       0.005578835 -0.017760584 -0.005911823 0.0037631532
0001a0 d0 d2 d2 ba df ce 86 bc 30 c1 2a 3c 0b b2 86 bc
       -0.0016084556 -0.016456066 0.010422036 -0.01644232
0001b0 8a 4b 25 3c 99 06 15 3a 54 ce 1d bc 1a 15 69 3c
       0.010088811 0.0005684882 -0.009631712 0.014226222
0001c0 5f 64 be 3a f0 d1 36 3c 7c 3d 57 bc ec c7 37 39
       0.0014525763 0.011158451 -0.013137218 0.00017526717
0001d0 70 eb 9f ba d0 63 80 bc 9c b5 57 ba 1e f4 43 bc
       -0.0012200903 -0.015672594 -0.0008228661 -0.011960058
0001e0 be 8f 57 3c c7 98 8a 3c b5 3d 15 3c 07 73 9f bb
       0.013156829 0.016918553 0.00910895 -0.0048660072
0001f0 50 5d cd ba 0b bb 91 3b e6 f0 4a 3c ef 00 78 3c
       -0.0015668068 0.004447346 0.012386536 0.015136941
000200 8d 86 31 3c 86 56 de 3b ae 02 b3 bb d7 d8 2f bc
       0.010835302 0.0067852167 -0.005462966 -0.010732851
000210 d9 65 e5 bc 97 7e 9b 3b 6a 12 56 bc 37 1e cc 3a
       -0.028002666 0.0047453153 -0.013065914 0.001557297
000220 1e de b4 bc 1d 9a b6 3b f9 3c 1d 3c 7a 57 72 b9
       -0.02207857 0.005572571 0.009597057 -0.00023111506
000230 73 fe f5 3b 20 75 07 ba 7b b6 a3 3b 4f 49 73 bc
       0.0075071394 -0.00051672943 0.0049961186 -0.014849021
000240 2f ed 36 bb a6 85 ef bb 8a 7c a2 b9 f3 fb ba bb
       -0.0027912369 -0.0073096333 -0.00030991837 -0.005706304
000250 65 8a ba 3b b5 47 1d bc f7 4d e1 bb f6 50 04 bc
       0.0056927674 -0.009599616 -0.006875749 -0.008075943
000260 2f 2c 83 bc 53 cb 95 bb 74 2f 88 bc 10 c3 9e bb
       -0.01601228 -0.0045713573 -0.01662419 -0.0048450306
000270 7a e2 44 3a c2 9a ca bb 02 16 91 39 0d dc 9a 3b
       0.0007510554 -0.0061829994 0.00027672952 0.004725939
000280 58 00 2f bb df 42 cb 3b 4b 1f 9c bb 75 b1 4a bc
       -0.0026703086 0.00620304 -0.0047644726 -0.012371411
000290 a2 2b 0b bc 2b 34 2f bc 98 e1 14 3b 82 c2 2b bc
       -0.00849429 -0.01069359 0.0022717472 -0.010483386
0002a0 4f d8 3e bc 5d 1f 3f bc 83 34 dc bb 42 82 6c bc
       -0.011648252 -0.011665192 -0.006720127 -0.014435353
0002b0 df 99 42 3c 50 4e 50 bb 9a 2d 86 3c 2c ef 77 bc
       0.011877506 -0.003178496 0.016379166 -0.015132707
0002c0 a9 9c 6c bc 9c 0a c0 bb c0 f6 b8 bb 20 32 d9 3b
       -0.014441648 -0.0058606397 -0.0056446493 0.00662829
0002d0 a5 03 8d bc 28 08 9c 3b b1 e4 01 bc 16 16 8e 3c
       -0.017213652 0.0047617145 -0.007928059 0.017344516
0002e0 6b 81 0c 3c 78 91 31 bc 66 32 df bb 66 1f a8 bb
       0.0085757775 -0.010837905 -0.006811428 -0.005130696
0002f0 e8 e2 19 ba b9 21 c3 bc 21 c9 da 3b b8 19 a2 bb
       -0.00058702985 -0.023819791 0.0066768085 -0.0049469136
000300 d5 a3 af 3c ef 0d d8 3a d7 f5 31 3c 2e be 53 3b
       0.021440426 0.0016483645 0.010861835 0.00323094
000310 8a 68 4e bc b2 5e 90 b9 4e e6 1d 3b 8b 5f 2c bb
       -0.012598166 -0.00027536374 0.002409357 -0.0026302065
000320 66 ca e3 3b 99 bd 16 bb 20 69 50 bb 09 96 7d bb
       0.006951618 -0.0023001193 -0.003180094 -0.0038694164
000330 25 29 af bb b8 cd be bb 17 5a 80 3b 86 b0 02 3a
       -0.005345481 -0.0058228634 0.0039169895 0.00049854105
000340 fe 2e 58 bc 14 de 3e 3b 5c 1b 20 bc 17 7d 70 bc
       -0.013194798 0.0029124068 -0.009772148 -0.014678261
000350 06 8d 5d 3b 5a a7 6e 3b fa 0f 5d bb 56 30 8d bb
       0.003380598 0.0036415667 -0.0033731447 -0.0043087406
000360 6d 61 15 3b bd 61 aa 3c 5c b7 c6 bc 85 fc 90 bb
       0.0022793666 0.020798558 -0.024257354 -0.004424634
000370 cc cc bb bb f6 65 20 bc e1 9e 2b bc 4e 46 64 3b
       -0.005731201 -0.009789934 -0.010474891 0.0034831944
000380 02 1e df 3c b7 ce 9b 3a 37 71 85 3a 21 ce 14 3c
       0.027235989 0.0011887167 0.0010180835 0.009082348
000390 a1 d7 df 3b 63 ad 56 bb 86 f3 9f 3b 8e c0 ea bb
       0.006831125 -0.0032757155 0.004881325 -0.0071640676
0003a0 49 57 f3 3b 0d be 2a bc 57 72 e1 3b 88 f6 91 bc
       0.0074261767 -0.010421288 0.0068800854 -0.01781775
0003b0 58 2b 08 ba af 34 8a 3b 0f 57 b1 3b e2 4c 35 3b
       -0.0005194447 0.004217706 0.0054119895 0.0027664234
0003c0 1b 38 83 3b b2 0f cc bb b5 11 86 3c 92 d1 1e 3b
       0.004004491 -0.006227457 0.016365865 0.00242338
0003d0 64 7a 63 3c eb ba 61 bc 34 19 36 3c 01 32 41 3c
       0.013884161 -0.013777475 0.011114407 0.011791707
0003e0 34 83 ff ba 82 7b 20 3c 74 f3 df 3c c8 b5 64 bc
       -0.0019494058 0.009795072 0.027337767 -0.013959356
0003f0 bc f7 2a bb bf 59 59 3a e9 7e 9e 3c 0d 72 90 bb
       -0.0026087603 0.0008291266 0.019347625 -0.004408127

bias f4 [15]
000000 27 51 4b 3d 90 c1 24 ba 07 46 07 bd f4 06 2e bc
       0.04963794 -0.00062849466 -0.033025768 -0.010621775
000010 d7 b6 9f 39 c0 44 08 bb c3 b9 8d 3c ef 6f 01 bc
       0.0003046307 -0.0020792931 0.017300492 -0.007900222
000020 cc 3e c3 3b 4b b9 34 bc ab ab 00 3d 32 f7 70 bd
       0.0059584137 -0.011030505 0.031413715 -0.058829494
000030 93 59 aa 3c 35 d2 87 bb b9 35 4d bd
       0.020794665 -0.0041449317 -0.050100062

weight f4 [15, 135]
000000 b1 0e 8d 3a ba de a6 bb b8 ab 0b bc e2 d6 d0 bc
       0.0010761825 -0.005092469 -0.008524828 -0.02549309
000010 05 e1 01 bd 10 a3 69 39 0f e3 d0 bc 55 65 95 bc
       -0.031708736 0.00022281357 -0.025498895 -0.018236795
000020 76 08 b6 bb 2d f0 50 3b de b5 a8 bc 55 7d 5c 3c
       -0.005555208 0.0031881437 -0.020594534 0.013457616
000030 24 93 68 bc 0b 06 36 bb f6 e7 2c bd 38 41 6c bb
       -0.014195237 -0.0027774598 -0.042213403 -0.0036049616
000040 91 28 f1 bc 78 ae df ba e3 5e 1e bd b3 e7 8c bc
       -0.029438289 -0.0017065546 -0.03866471 -0.017200327
000050 a3 71 27 bc ba af a3 ba d5 b6 a8 bc 26 40 c0 3a
       -0.010219964 -0.0012488284 -0.020594994 0.0014667555
000060 7b 05 cc 3a 62 90 5b bc 78 47 46 bc 3b d7 bf 3c
       0.0015565598 -0.013401123 -0.012102 0.02341806
000070 89 d2 25 bd ec dd c6 3b e9 7c 6a bc 45 0c 26 bd
       -0.040483985 0.0060689356 -0.014312007 -0.040539045
000080 66 21 bb bc 82 ad e0 bb 1f ee 58 bd fe 2f 55 3a
       -0.022843074 -0.0068566212 -0.052961465 0.00081324566
000090 cd 0e 1f bd 1c 9f c6 bc a3 ae 0f 3b f6 a7 c8 bb
       -0.038832474 -0.024245791 0.002192416 -0.006123538
0000a0 64 28 19 3a c2 5c dd bc e3 56 f2 3a db 68 ec bb
       0.00058425055 -0.02702177 0.0018489029 -0.007214648
0000b0 3d 35 1c bc b1 de c2 bc 49 44 a0 bc 3a 66 d4 b8
       -0.009534177 -0.023787828 -0.01956381 -0.00010127989
0000c0 ee 77 b0 3c d6 57 99 bc 1f 25 0c bd 0a ee 83 bc
       0.021541562 -0.018718641 -0.03421509 -0.016104717
0000d0 23 6c 8b bc e7 62 35 bc 26 3a 30 ba 22 d6 c0 bc
       -0.017019337 -0.011070943 -0.0006722532 -0.023539606
0000e0 d9 60 88 3c 2f 87 34 bc f4 8e af bc 63 d1 3e 39
       0.016647743 -0.011018558 -0.02143047 0.00018197815
0000f0 a7 44 fa bb 62 f8 9f bb 8b e4 9b bc 39 0b 1a bc
       -0.0076375785 -0.0048819045 -0.019029876 -0.00940209
000100 0b d9 61 bc c9 6e 2e 3b a1 80 02 bc 94 28 90 bc
       -0.013784657 0.0026616326 -0.007965238 -0.017597474
000110 04 ed 9b bc e2 8f ea 3c c7 8f 24 bd 1d c5 bd 3b
       -0.019033916 0.028633062 -0.04017618 0.00579132
000120 6e e2 36 bc 5a fe a9 bc f7 31 cd bc 8e 48 b1 3b
       -0.0111623835 -0.020751167 -0.02504824 0.0054102605
000130 c0 43 23 bd c7 d5 8b bc c1 f6 a7 bb a5 47 13 bc
       -0.039859533 -0.01706971 -0.005125851 -0.008989249
000140 7c 7e a9 bb 89 1a 3f bd 53 b0 8d bb a8 05 10 bd
       -0.005172549 -0.046656165 -0.004323998 -0.035161644
000150 5f 7e 39 bb ff 43 45 bc a6 0a 1c b8 ca 49 1e bd
       -0.0028304083 -0.012040137 -3.7203215e-05 -0.03864459
000160 cb 3e 15 3c c1 a4 c5 bb e2 46 b8 3b dd 0f 60 bb
       0.009109209 -0.006031603 0.0056236843 -0.0034189143
000170 e0 a3 0e 3b 9a 02 07 39 e6 95 a2 ba 3d 8b 10 3c
       0.0021765158 0.00012875572 -0.0012404292 0.0088222595
000180 53 a2 1e bd bb 02 a9 bc 24 a0 6a bc 9f 26 49 bc
       -0.038729023 -0.020631185 -0.014320407 -0.012277274
000190 f3 91 53 bc c8 31 8b bc 0d 2e fb bc fb ba 01 bd
       -0.012913215 -0.016991511 -0.030661607 -0.03167246
0001a0 f3 b6 81 bc a0 30 0b bd 86 0d ff bc db 1f 63 bd
       -0.015834307 -0.03398192 -0.031134378 -0.0554503
0001b0 91 d1 5e bd 3c 1e 52 ba e9 95 0c bd 18 44 2f bc
       -0.054399077 -0.00080153695 -0.034322653 -0.010697387
0001c0 f9 ee 84 39 e8 29 02 bd ea 8c a2 bc 14 fd a7 bc
       0.0002535505 -0.031778246 -0.019842584 -0.02050642
0001d0 c1 e6 98 ba 25 c7 d9 bb 43 54 f5 ba c2 f2 fd bb
       -0.001166545 -0.0066460543 -0.0018717129 -0.0077498863
0001e0 67 1e 17 bc 00 7d aa bc 97 e7 47 bc 3d 87 20 bc
       -0.009223557 -0.020811558 -0.012201211 -0.009797868
0001f0 32 1f 93 bc 8b 68 f7 37 b4 55 ff bc 3d 15 e5 3a
       -0.017959211 2.9493376e-05 -0.031168796 0.0017477643
000200 2a 5d bd bc dc d6 38 bc 1b 68 2c bb 3f 58 31 bd
       -0.023115713 -0.011281695 -0.002630717 -0.04329705
000210 1f 19 d6 3b f0 4d 3a bc 6d dd e2 bc c6 44 af bb
       0.0065337564 -0.011371121 -0.027693475 -0.0053487746
000220 64 9e 3b bc 1f 1b 0d bb 07 45 80 ba e7 c9 58 bb
       -0.0114513375 -0.0021531058 -0.0009786197 -0.0033079328
000230 4f 58 8c ba 34 2b a3 bc f5 c1 13 3b ce c5 58 bc
       -0.001070747 -0.019918062 0.0022546027 -0.013230754
000240 a8 f5 08 3c c6 78 84 bb 5f a7 d0 bb 89 47 e5 bc
       0.00835935 -0.0040427176 -0.0063676084 -0.027988212
000250 bf 5f f9 bc df 8f c7 bc 1f f1 97 3b 41 e6 09 3a
       -0.030441163 -0.024360595 0.004636898 0.0005260446
000260 57 df 35 bc 52 90 29 bc 40 ad 94 3b 79 1b 13 39
       -0.011100612 -0.01034935 0.0045372546 0.00014029247
000270 06 d5 a8 3c ba 57 2b 3a f2 a7 06 3c 92 ae 41 bc
       0.02060939 0.00065362046 0.008218752 -0.011821406
000280 c2 35 10 bd 62 a2 17 bd 74 cb a5 bc fe 92 72 bc
       -0.035207517 -0.037020095 -0.020238616 -0.0148055535
000290 93 d3 0f bb b8 39 11 bc 5e 70 b6 bc 09 02 d5 bc
       -0.0021946176 -0.008863859 -0.022270378 -0.026001947
0002a0 dc 53 d5 bc 81 a0 f8 bc ae 9b 5f ba 6e 0c f3 bc
       -0.026040964 -0.030349972 -0.0008529973 -0.029669013
0002b0 d3 96 1f bc 21 d6 32 bb df 8e 81 bc ab bd 84 bc
       -0.009740549 -0.0027288275 -0.015815197 -0.016203722
0002c0 98 90 b1 ba 47 d7 2c bd 1e 5a db bc e5 8c 8b 3b
       -0.0013547121 -0.042197492 -0.02677637 0.0042587393
0002d0 3c 72 c0 bc 8c 3b 01 bd ab 17 d0 bc 1a 69 4f bc
       -0.023491971 -0.03155093 -0.02540191 -0.0126593355
0002e0 db 76 36 bb 81 f3 b4 bc 43 30 17 bd 4b d7 9b 3b
       -0.002784184 -0.022088768 -0.03691126 0.0047558895
0002f0 81 42 c3 bc 7c d9 09 bd 91 60 3a bb f7 6c e5 bc
       -0.023835422 -0.033654675 -0.0028438906 -0.02800606
000300 58 59 80 bc 4c bd ed bc 78 68 0d bc 84 aa 40 3b
       -0.015667602 -0.029020928 -0.008630864 0.002939851
000310 76 ac 65 bc 94 97 5e 3c 41 1b 12 3c 46 8a e4 bc
       -0.014018169 0.013585944 0.008917631 -0.027897965
000320 66 8d 48 3b 5c e6 1f bc de b9 e0 bb d1 5d 83 bc
       0.0030601858 -0.009759512 -0.0068580946 -0.016035946
000330 67 18 0d bc dc 46 18 3c 73 a7 7b bc 46 b6 8d bc
       -0.008611775 0.009294238 -0.015359747 -0.017298829
000340 f7 3e fa bc f5 0a 63 bc a7 47 c5 bc e0 2b 02 bd
       -0.030547602 -0.013857593 -0.024082018 -0.031780124
000350 a0 98 c9 bc c8 03 93 3c 81 ea 45 bc d0 4d 3c bb
       -0.02460891 0.017946139 -0.012079836 -0.0028732903
000360 4f 01 20 bd 6c 17 f2 3b 7e bb 8f bc 3e 4b c0 bb
       -0.039063748 0.007388046 -0.017545458 -0.0058683446
000370 6a 66 c0 bc 4d 3b c2 3c 71 5d c4 bc 14 81 24 bd
       -0.023486335 0.023709917 -0.023970338 -0.04016216
000380 ce ef 35 bd c0 d2 83 bc 56 9b 81 bb 5e d7 01 bb
       -0.04441815 -0.016091704 -0.003955285 -0.0019812207
000390 6a ea d2 bc 77 83 a4 3c f2 54 ca 3b d2 4e ae bc
       -0.025746543 0.020082219 0.006174677 -0.021277819
0003a0 e8 e9 95 bc 88 61 1d bd 1d 9f 8a bc b1 9d 95 3b
       -0.018300012 -0.03842309 -0.016921574 0.0045659174
0003b0 6a c4 88 3a 16 e7 b1 3a e6 95 4d bc 08 6c 85 bb
       0.0010434513 0.0013572897 -0.012547946 -0.004071716
0003c0 0e 13 20 bc d0 77 85 3b 4d 07 7f 3c ae 83 8b bb
       -0.009770168 0.0040731207 0.0155657055 -0.004257641
0003d0 f3 05 0b bc 9d ce 8b bc 42 96 6c bc b2 cf 2e bd
       -0.008485305 -0.017066294 -0.014440121 -0.042678542
0003e0 1d 04 4f bc ca fd c3 bc 16 26 5d 3b ad 03 c1 bc
       -0.012635258 -0.023924727 0.0033744625 -0.023561323
0003f0 29 fd c8 bb 84 ba 57 bc 08 6e 66 39 ed d3 82 bc
       -0.0061336947 -0.013167027 0.00021975499 -0.015970195

bias f4 [15]
000000 b7 77 b9 bc f6 66 8c bd fa 37 7f bd d9 07 20 bd
       -0.022640092 -0.06855576 -0.062309243 -0.039069984
000010 75 bf 81 bd a4 39 f0 bc 5c 77 ca bc 9b ed d1 bd
       -0.06335346 -0.02932436 -0.024715118 -0.10250398
000020 86 95 10 be 26 42 88 bd 71 96 ec bd 8f 91 f7 bc
       -0.14119539 -0.06653242 -0.11552132 -0.030220775
000030 e0 93 d7 bd cd 36 64 bd 2b e3 05 bd
       -0.10526252 -0.055716325 -0.032687347

weight f4 [135, 15]
000000 72 10 df bc 8d 39 d6 bd b0 0e 3e 3d 4c 3f 16 bc
       -0.027229521 -0.10460196 0.046400726 -0.009170365
000010 bf 3d 2d bc 6e c1 7a bd 4e ea 07 3d 77 95 08 3d
       -0.010573803 -0.061219625 0.033182435 0.033345666
000020 b5 93 e6 bd 8b b3 0e bd 86 10 c1 bd 12 fb a5 3d
       -0.11258642 -0.034839194 -0.0942698 0.081045285
000030 43 cd 25 bd 1d c8 b9 3c b3 bf 96 3d 8b 36 43 3d
       -0.040478956 0.02267843 0.073607825 0.047659438
000040 47 ba 75 3c 65 5e 8e 3c 26 ee a3 bd 15 22 84 3d
       0.014998025 0.017378995 -0.080044076 0.06451813
000050 43 7c 5e bd c4 7d 00 3c 71 da 62 3d 74 64 a8 bd
       -0.054317724 0.007842485 0.055384103 -0.08222285
000060 ca cb 96 bd 6e ca ed 3c c8 81 47 bd 75 6f 1a 3d
       -0.073630884 0.02902719 -0.048707753 0.03770395
000070 71 b6 b4 3d 7a 4e b6 3c 22 4d c7 bd 4f 1e 9f bc
       0.088238604 0.022254217 -0.09731509 -0.019423632
000080 ed da eb 3c d4 3c 49 bd 77 fd 58 3c f1 72 cb 3b
       0.028790915 -0.049130276 0.0132440245 0.0062087704
000090 30 e1 d5 bc e2 4f f0 bc ca 38 98 3d 28 be 3f 3d
       -0.026108354 -0.029334966 0.07432707 0.046812207
0000a0 37 21 24 3d 8e 1f de bd 67 40 8c bd ba 55 1d bb
       0.04007074 -0.10845862 -0.06848221 -0.0024007396
0000b0 6e 59 6a 3d 35 24 b6 3d 1b ab f8 bd 34 a9 03 be
       0.057214193 0.08893625 -0.12142011 -0.12857515
0000c0 a1 fd 1e 3c e5 77 99 3d df 1e d4 bd 75 f5 dd 3d
       0.0097040245 0.07493571 -0.10357451 0.10837833
0000d0 90 53 eb bd 9d f0 0b 3d ed 64 c1 3c c6 44 33 3d
       -0.11490548 0.034165014 0.023607695 0.04376676
0000e0 9a 90 6a bc 91 ef a6 bd 82 2e 14 3e eb 00 0b be
       -0.014316702 -0.081511624 0.14470866 -0.13574569
0000f0 99 e3 91 bd 6e 3f a4 bc 91 4d 05 bc f8 75 01 be
       -0.07123489 -0.020049777 -0.008136169 -0.12642658
000100 16 31 95 3c 6c 47 77 3d d4 21 97 3d d7 ec 9d bc
       0.018211883 0.060370848 0.07379499 -0.019277973
000110 6c 67 6e bd 59 0d fc 3c e6 ad 14 3d 9d 44 9a bd
       -0.0582041 0.030768083 0.036298655 -0.07532618
000120 ad bc 81 3c 88 a8 e8 bd 64 16 d0 3d a9 1a 41 3c
       0.015837038 -0.1136027 0.10160521 0.011786141
000130 13 2c 95 bd 42 86 1d 3e 0b 2b 8a bd 7b 89 c3 bc
       -0.07283797 0.15383247 -0.06746491 -0.023869267
000140 92 01 78 bc 82 ad e8 bb 50 41 7a bc ca 39 00 3d
       -0.015137093 -0.007100762 -0.015274361 0.031305112
000150 41 4b c2 bd 20 68 e5 3c 38 b7 d5 3d 65 6a cd 3d
       -0.0948701 0.028003752 0.10435337 0.10030059
000160 cd e3 11 3e d1 ab 0b bd 18 a3 99 3d 37 44 25 be
       0.14247055 -0.034099404 0.07501811 -0.16139303
000170 02 8c 9e 3d 2f 30 83 3d 23 06 b8 3c 46 4f 62 3d
       0.07741548 0.06405675 0.022463864 0.055251382
000180 4e ed 57 3d 7e 1e 62 bd 26 ca ee 3d e8 9d 72 bc
       0.052716546 -0.05520486 0.116596505 -0.014808156
000190 02 66 fa 3d 66 98 30 3d 6a 8d 16 3e ed bc d7 3c
       0.12226488 0.04311409 0.14702383 0.026335204
0001a0 5e e1 a9 bd bd 53 87 bd 75 35 3d bd 32 6c b4 3c
       -0.082949385 -0.06607769 -0.04619356 0.022024248
0001b0 36 6f ad bd 0f 50 b5 3c 3f 3f e8 bd 8f 1f 57 bd
       -0.084684774 0.022132901 -0.11340188 -0.05252033
0001c0 1d a2 c3 bd 53 b3 85 bd c3 a7 5c 3d b4 79 49 bd
       -0.09552405 -0.06528344 0.053870928 -0.04918833
0001d0 36 4b 31 3d ae 44 0f 3d 6d 97 1a be 54 06 4d 3d
       0.043284617 0.034977607 -0.15096827 0.050054863
0001e0 0b 75 3c bd 9c 94 8b bc b3 c3 c0 bd 7b 02 01 be
       -0.04601006 -0.017038636 -0.09412327 -0.12598602
0001f0 13 d9 0b 3d 16 38 b6 3d f1 72 52 be 44 80 5c bd
       0.034142565 0.08897416 -0.20551659 -0.05383326
000200 ba 35 11 3e 70 ea d9 3d 3f 48 cd bc 80 57 f7 3c
       0.14180651 0.106404185 -0.025058864 0.03019309
000210 2d 8f aa bd e2 f2 ce 3d 5d 17 e7 3d 02 76 32 3d
       -0.0832809 0.1010492 0.11283753 0.043569572
000220 f3 34 16 3d 2b e3 87 bd e3 c8 ae bd b8 d1 d9 3d
       0.03667159 -0.06635126 -0.0853441 0.10635704
000230 0d dc 9c 3d 34 43 a8 bd 38 a2 78 bd da 4d d6 3d
       0.07659159 -0.08215943 -0.06070158 0.10464068
000240 b3 ee ff 3b 79 44 58 bd 7e 46 d2 bd cd 2e ac 3d
       0.0078104376 -0.052799676 -0.102673516 0.08407364
000250 1e fe 36 3e e3 07 20 bd 2c a9 97 3b 19 d0 de 3d
       0.17870376 -0.03907002 0.004628321 0.10879535
000260 25 d6 9e bc 45 68 4b 3d 17 c1 b2 3c 89 92 54 3d
       -0.019389221 0.049659986 0.021820588 0.05189756
000270 ff 74 1a 3e 9d d0 a8 bd 50 41 f0 bd 37 54 77 3d
       0.15083693 -0.08242915 -0.11731207 0.060383048
000280 cb 99 2d 3e d2 c9 9e 3d 95 7c 21 3c 0f 79 c6 3d
       0.16953199 0.07753338 0.009856363 0.09691059
000290 b8 5d 6e 3d 18 aa ad bc b3 60 57 3d 47 db 7d 3d
       0.058194846 -0.021199271 0.052582454 0.061976697
0002a0 e8 69 d8 bd c1 58 4c 3c 92 5e 9a bc e2 b6 6f bd
       -0.10567075 0.012472332 -0.018843923 -0.05852402
0002b0 40 dc 17 3c 7d c0 29 bd ea 5c b6 3d a2 21 c9 3c
       0.00926882 -0.041443337 0.08904441 0.02455217
0002c0 68 59 02 bd c5 e0 0a bd a9 23 15 bd 8c 8c 9e 3d
       -0.031823546 -0.033905763 -0.03641096 0.07741651
0002d0 b6 0a 1a 3c d9 e1 0c 3d 0e 5c f2 3c fe 12 82 bd
       0.009401968 0.034395073 0.02958491 -0.06351279
0002e0 a4 14 9b bc c1 0f c7 3b ee 2d d1 3c bd e2 ad 3c
       -0.01893074 0.006074876 0.025534596 0.021226281
0002f0 26 fd ae bc 7b 76 15 3d 21 93 17 bb 26 90 ef 3c
       -0.021360945 0.036489945 -0.0023128467 0.02924354
000300 d2 8e 6b 3c 8b 17 de bd 92 3f a0 3d fa 65 c3 bd
       0.014377313 -0.10844334 0.07824625 -0.09540935
000310 85 3e 87 3d 1e 60 00 be 5b 2c b2 bd 8d dc 81 3d
       0.066037215 -0.12536666 -0.086998664 0.06340895
000320 ef 76 e1 3c fe cd a0 bd 22 e8 f5 3c ed 6d 66 3d
       0.027522532 -0.0785179 0.030017916 0.056257177
000330 42 a6 1c bd d1 e1 73 3c a6 55 fb bb 16 58 73 bd
       -0.038244493 0.014885382 -0.007670122 -0.059410177
000340 9a b4 9a 3d 3d 68 14 bd 97 b1 b1 bd f4 1f 73 bd
       0.07553978 -0.036232222 -0.08676451 -0.059356645
000350 ec d9 fa bd b7 d0 60 b8 22 2b 87 3c f6 e3 81 bd
       -0.122485965 -5.3600143e-05 0.01650006 -0.06342308
000360 6e f3 14 bb 68 31 5e bc bb 73 92 3d 96 58 fc bd
       -0.0022728103 -0.013561584 0.0715098 -0.12321584
000370 0f 9b 27 3a e1 32 d7 3d 93 20 0d bd 7a fa 0a 3e
       0.000639365 0.10507751 -0.034454893 0.13572112
000380 1c 36 f8 bd 5a bc d9 bd f4 92 c5 3d dc 65 d7 3d
       -0.121196955 -0.10631628 0.0964717 0.10517475
000390 99 42 f9 3d 03 9c b1 bd ae 67 30 bd 26 30 53 bd
       0.121709056 -0.08672335 -0.043067627 -0.05155959
0003a0 5a 9c 13 bd b3 24 65 3d 7f ad 67 bd 12 5e dc 3c
       -0.03603778 0.055943202 -0.056561943 0.026900325
0003b0 16 63 e9 3d 4b 44 ca bd 89 5c b5 3d e9 fb a2 3d
       0.11395852 -0.09876307 0.0885554 0.07958204
0003c0 cf b0 8e bd 25 fe 08 3e 84 ef 25 bd a4 97 45 3c
       -0.06967317 0.13378198 -0.040511623 0.01206008
0003d0 e0 87 f9 bd a2 4a 11 be 74 62 0f 3d 28 6a 61 bd
       -0.12184119 -0.14188626 0.035006 -0.05503288
0003e0 f0 67 35 bd c8 d5 ff bd 5e 6c 03 3c bf bb a2 3c
       -0.044288576 -0.124919474 0.008021442 0.019864915
0003f0 64 4c c3 3d 6c 24 0c be bc 2f de bc 41 24 5b bd
       0.09536055 -0.13685769 -0.02712237 -0.05350137

bias f4 [135]
000000 a2 b1 88 bd 7b ba 27 3d c2 37 86 bd 3a 3c 0c be
       -0.06674506 0.040949326 -0.06553604 -0.1369485
000010 9a 34 a5 be b9 10 b2 be 51 7e a0 be 7d c4 cc bd
       -0.32266694 -0.34778383 -0.31346372 -0.09998415
000020 b0 bf bc be 19 73 ba be 43 09 27 be 3b 65 16 3d
       -0.36864996 -0.36415938 -0.16312127 0.036717635
000030 99 57 64 bb 65 8b 09 be 4c f0 d3 be c6 14 85 3d
       -0.0034842251 -0.13432081 -0.4139427 0.06498103
000040 31 61 a7 be a9 33 58 be 3f 4b b3 be 92 c8 6f be
       -0.3269134 -0.21113457 -0.35018346 -0.23416355
000050 05 00 ef bd 0d f7 b3 bd e4 43 86 bd 61 fe a8 bc
       -0.116699256 -0.087873556 -0.06555918 -0.02062911
000060 b1 58 7f be d1 ac b7 be 6e d9 00 bd 1d b3 20 3c
       -0.24936177 -0.35874036 -0.031457357 0.009808329
000070 57 04 94 be 39 90 1b be 29 c5 90 be 5d 52 b3 bd
       -0.2890956 -0.15191735 -0.2827542 -0.08755944
000080 2d ab 1c be 80 cc 3c be b6 13 8a be 0c 14 93 be
       -0.15299673 -0.18437386 -0.26968163 -0.28726232
000090 43 02 21 be 37 e5 5d bc 94 fb 38 be 53 86 2b be
       -0.15723519 -0.013543419 -0.1806472 -0.1675046
0000a0 96 43 88 3c 9f 96 72 be c0 cb 9c be 49 95 a7 be
       0.01663379 -0.2369027 -0.306242 -0.32731083
0000b0 ba 75 74 3d 92 20 91 bd a9 12 0a be 99 b0 d7 be
       0.059682585 -0.070862904 -0.13483681 -0.4212692
0000c0 1b 44 83 be 0d c6 d5 be 35 ba 30 be 8f df 8e be
       -0.25637898 -0.41752663 -0.17258532 -0.27904937
0000d0 92 8a b9 ba b8 34 b4 be b9 ad 80 be 35 ee c0 3d
       -0.0014155677 -0.3519647 -0.2513254 0.094204344
0000e0 bb 7b 2a be ef 82 d0 3d 36 61 00 3c 31 7b 7d be
       -0.16648762 0.101812236 0.007835677 -0.24754025
0000f0 20 0e b4 be cc c2 bd be e3 41 71 be de c4 a7 be
       -0.35167027 -0.3706268 -0.2356029 -0.32767385
000100 e7 7b ac bd ef 02 87 be fd f8 41 be 0e 5f 80 3d
       -0.0842207 -0.26369426 -0.18942638 0.0626813
000110 3b 7d b9 3c 46 43 03 be a6 b1 99 3a 3b 99 75 be
       0.022642722 -0.12818632 0.0011725917 -0.23984234
000120 18 04 97 be 52 07 0d be 24 53 5b be 19 17 75 bd
       -0.2949531 -0.13772324 -0.21418434 -0.05983648
000130 31 83 b6 be 44 9b 50 3d 80 79 25 3d 89 01 b5 be
       -0.35646966 0.050929323 0.040399075 -0.35352734
000140 58 07 3e be ef df 87 be 2a 86 a0 be b7 7e af be
       -0.18557489 -0.26538035 -0.3135236 -0.34276363
000150 55 a9 5f be 74 d0 7c 3d 16 ba ab be 91 c5 90 bc
       -0.21841939 0.061722234 -0.3354041 -0.017672332
000160 8a 4e bb be 4a bc 75 be ab ea 88 be e7 d9 80 be
       -0.36583358 -0.23997608 -0.26741537 -0.25166246
000170 11 93 d7 bd 50 84 8c be be 08 ba be 06 34 b9 be
       -0.105260976 -0.27444696 -0.36334795 -0.36172503
000180 4e cb 95 be 57 0a c9 bc 9e 69 c7 bd 7a 1c e4 bd
       -0.29256672 -0.024541063 -0.09736942 -0.11138244
000190 f3 a6 be be 43 6c d1 be f1 49 4f 3d 2e 62 54 be
       -0.37236747 -0.4090291 0.050607625 -0.20740578
0001a0 35 47 1e be d2 42 d3 be 73 e9 e3 be cd a3 b4 be
       -0.15456851 -0.41261917 -0.44514045 -0.3528122
0001b0 54 28 99 3d dd bd 62 be 68 8f 9a be 90 8b bc bc
       0.07478395 -0.2214274 -0.30187535 -0.023015767
0001c0 23 cf aa bd 61 c1 c3 be a2 05 94 bd c6 74 23 be
       -0.083402894 -0.38233474 -0.07227637 -0.15962514
0001d0 2d 6b ae be a0 e7 4c be 78 68 61 be 91 44 a8 bd
       -0.34066144 -0.20010233 -0.22012508 -0.08216203
0001e0 c6 ab ae be 4e a2 5d be 3c 5f 82 be 4f 22 8b 3d
       -0.34115428 -0.21643946 -0.25463283 0.06793653
0001f0 ba 35 c3 be b2 45 ae be c5 75 b8 be 03 93 59 be
       -0.38126928 -0.34037548 -0.3602735 -0.21247487
000200 86 4d 6b be 3b 40 65 bc fa 5c 64 be 93 bd 67 be
       -0.22978792 -0.0139923645 -0.22301093 -0.2263091
000210 7b 7c 4e be db 18 6d be 2e 0c b8 be
       -0.20164673 -0.23154013 -0.35946792

weight f4 [271, 135]
000000 ac bb 46 bd ee d1 e5 39 83 51 7d bc 7b 6f 43 bd
       -0.04851882 0.00043834693 -0.015461328 -0.047713738
000010 c8 20 94 bc 70 2e c8 3c 29 83 5f bd 2f 42 28 3d
       -0.018082038 0.024436206 -0.054568443 0.041078743
000020 cc 9e 39 bd af 07 53 3d 66 79 28 3d 28 11 3c bc
       -0.045317456 0.051521 0.0411314 -0.0114787
000030 74 d6 ad 3c ff e1 72 3d 4f 87 47 bc df 10 4f bc
       0.021220423 0.059297558 -0.012178256 -0.0126383
000040 98 82 2c bd 18 25 73 3d 15 3c 55 bd 36 68 f6 3c
       -0.04211673 0.059361547 -0.05205925 0.030078989
000050 58 f4 3c 3d 8a af 4e bd 93 23 e0 bb 3e 98 cf 3c
       0.04613146 -0.050460376 -0.0068401783 0.02534115
000060 f5 12 23 3d 83 3a 8c bc 0e 8f 8d 3c 18 8d 5b bd
       0.039813 -0.017117744 0.017280128 -0.053601354
000070 1b 7e 7c 3d 17 0b 56 bd 60 66 0c 3d 64 53 35 bd
       0.0616437 -0.05225667 0.03427732 -0.04426898
000080 cf 89 80 3d 8a c0 8b bc 6d 32 da 3c 05 43 6f bc
       0.06276285 -0.017059583 0.026635373 -0.014603381
000090 74 23 6c 3b 90 f1 82 bd 7d b3 95 bd 96 1b 39 3c
       0.0036031874 -0.06393731 -0.07309625 0.011298081
0000a0 76 76 7d 3d ba c8 75 3d 26 c7 13 3c 39 b3 f5 bc
       0.06188055 0.06000588 0.009019649 -0.029992687
0000b0 7e e6 94 3d 04 0f 21 bb b9 fb 65 39 6c 48 f5 bc
       0.072705254 -0.00245756 0.00021932916 -0.02994176
0000c0 a8 bc 55 3c a3 74 a1 3c c2 9d 96 bd 2b 78 44 3d
       0.013045467 0.019708937 -0.07354309 0.047966164
0000d0 91 a6 b0 3d 47 33 14 3c 81 71 87 bd 5c 66 1e bc
       0.0862552 0.009045429 -0.06613446 -0.009667959
0000e0 5c 22 8a 3c 94 84 5a bd cb d2 3a bc bb 2f ce bc
       0.016862087 -0.053349093 -0.011402796 -0.025169244
0000f0 bd bb dd bc 78 65 95 bc 63 0e 9a 3d 29 03 e1 3b
       -0.02706706 -0.01823686 0.07522275 0.006866832
000100 8e cc cb bb 20 92 71 bb 66 4c 45 3d 84 8f 67 bb
       -0.006219453 -0.003686078 0.048168562 -0.0035333345
000110 44 1c 62 3d 22 a6 f9 bc fe 43 69 bd fb c6 18 3d
       0.055202737 -0.030474726 -0.056949608 0.037299138
000120 36 df 0e bc 4c 3e 96 3c f4 66 59 3c 60 1a 33 bd
       -0.00872021 0.018340252 0.013269175 -0.043726325
000130 03 ca 28 3b e8 80 26 bd 87 c6 de bc 9d 7c 8f 3d
       0.0025755174 -0.04065028 -0.027194275 0.0700619
000140 08 7e 1d bd 19 67 31 3d 06 ba b5 3b 55 c0 46 bd
       -0.03845027 0.043311212 0.0055458574 -0.048523266
000150 98 da 83 3d 3f 54 7c 3c d0 83 ef bc d0 63 ef bc
       0.06438178 0.015400945 -0.029237658 -0.029222399
000160 a8 b9 91 bd d1 64 14 bd f1 3a 30 3b a3 c7 a8 bb
       -0.07115489 -0.03622896 0.00268906 -0.0051507517
000170 cb 3a 58 bd e4 64 8f bd d5 7d e3 bc de cc 08 3d
       -0.052790444 -0.07001665 -0.027769962 0.0333985
000180 fb 92 bd 3c 1a af a8 3c 8a 9b 5e 3d 09 82 cd 3c
       0.023141375 0.020591307 0.054347552 0.02508642
000190 f1 e6 ad 3b 93 52 7e 3d cd cf 0b bd d4 5b ba 3b
       0.0053070714 0.062090468 -0.03413372 0.0056872163
0001a0 83 44 94 bc 5a 64 66 bc cf aa 67 3c f4 f7 c9 3c
       -0.018099075 -0.014062012 0.014139845 0.024654366
0001b0 78 ba 6f b9 ad 76 a0 bc 94 45 7b 3d 20 80 24 bd
       -0.00022862281 -0.019587839 0.06134565 -0.040161252
0001c0 78 c7 ee 3b ab 18 8f 3d 15 b1 a7 3d 0a aa 8b 3b
       0.007286962 0.06987127 0.081880726 0.0042622136
0001d0 ed 32 20 bc 6d 29 00 3c ca 89 f9 bc a5 f5 aa ba
       -0.009777767 0.007822377 -0.03046121 -0.0013043178
0001e0 9a 49 2d bc ca d2 ff 3b 4d 35 98 3d 1e 04 c4 3c
       -0.01057663 0.0078071104 0.07432041 0.023927744
0001f0 c0 c5 96 3c 35 81 ae bc 04 64 77 3d 53 88 3d bc
       0.018404841 -0.021301845 0.060398117 -0.011568147
000200 1d 92 0f bd 41 b2 c8 bc a4 01 06 3d da 20 6b bd
       -0.035051454 -0.02449906 0.03271641 -0.057404377
000210 0b 74 a7 3d d6 45 da bc 79 5c 06 3d 0e 2f 8d 3d
       0.0817643 -0.026644628 0.032803033 0.068937406
000220 02 ff 1d bd be 30 92 bd 13 4c b6 bd f1 e7 9b bc
       -0.038573273 -0.07138203 -0.08901229 -0.019031497
000230 df 5f 51 3b bc 1c fd bc 0d 0f 11 3d 34 33 27 3d
       0.0031948013 -0.03089749 0.035414744 0.040820315
000240 74 20 c7 bc 19 69 8b 3c ab 88 8f ba e3 c9 1b 3b
       -0.024307467 0.017017888 -0.0010950764 0.0023771457
000250 0d e8 fa 3c e1 30 c2 bc 3c e9 88 3d cd 62 72 3d
       0.030628229 -0.023704948 0.06685111 0.059176255
000260 d0 77 af 3c 4d f3 95 3b 00 6e 77 3b 9c d7 66 3c
       0.021419436 0.004576123 0.0037754774 0.014089491
000270 fe a7 d7 3c 85 84 60 39 d3 f7 74 bc db 73 4a bc
       0.026325222 0.00021411672 -0.014951664 -0.012356724
000280 a4 20 09 3d 52 14 76 bc 70 64 5d 3d 34 3e f0 bb
       0.033478394 -0.015019493 0.054050863 -0.007331634
000290 ec de ad 3b c3 ad 47 bd 8c bc 53 3c a9 9a b2 bc
       0.0053061154 -0.048749696 0.012923371 -0.021802263
0002a0 ea 5e b6 bd 77 8e 2b 3d c8 28 1c 3c 3a 66 34 bc
       -0.08904822 0.041883912 0.009531207 -0.011010701
0002b0 b3 64 2f ba ba 94 4d 3d bc e2 6a bc 94 26 3e bd
       -0.00066907256 0.050190665 -0.014336284 -0.04642351
0002c0 12 90 43 3d 63 b7 48 bc e6 fe 8a 3c 3c 1b 49 3d
       0.047744818 -0.012250754 0.016967248 0.04909824
0002d0 8f 6a 87 3c 91 fc b5 3d 14 88 7d 3c 87 4e b4 3c
       0.016530303 0.08886064 0.015474338 0.022010101
0002e0 db ac 5f 3c 2e b2 be bc f1 23 74 3c 66 a4 e6 bc
       0.013652052 -0.023278322 0.014901147 -0.028154563
0002f0 8f e8 44 bc e2 12 5f 3c 37 e0 16 3d 8b 6f ad bb
       -0.012018337 0.013615342 0.03683492 -0.005292838
000300 70 a0 21 bd 98 43 21 bc d3 d5 00 3b 39 5b 36 3d
       -0.039459646 -0.009842776 0.00196587 0.04452059
000310 46 1c 10 3d 64 a2 62 bc fc 39 4f bd 06 ec 54 3d
       0.035183214 -0.013832662 -0.050592408 0.051982902
000320 58 0a a7 3c c1 53 8c bc 00 ac bd bb e5 18 c2 3b
       0.020390674 -0.01712978 -0.0057883263 0.005923378
000330 5e 32 10 bd 4b 67 44 3d 39 b8 c3 bc 3b fb 9d 3d
       -0.035204284 0.04795007 -0.023891555 0.07713934
000340 59 8b 2a 3d 8c 0a 6b bc b0 6d 65 bd 3b 13 2e 3d
       0.0416368 -0.014345776 -0.05601281 0.04249881
000350 17 3d 22 3d aa d6 50 3d d8 91 52 bd 5e 43 eb 3c
       0.03960904 0.05098597 -0.05140862 0.028718647
000360 ca 13 0c 3d f6 b4 fb bc 7d eb 16 3d 60 58 91 3d
       0.03419856 -0.030725937 0.036845673 0.07096934
000370 de b7 67 3d 2f 13 03 bc e6 38 d9 bc fa 4b 15 bd
       0.056571834 -0.008000179 -0.02651639 -0.03644941
000380 2b e7 49 bd 7b e5 06 3d 3e db 39 bd 8f 1e 55 bd
       -0.049292725 0.032933693 -0.0453751 -0.052031096
000390 4a bc f9 bc 70 96 73 3d 42 59 f9 bc f2 29 e3 3d
       -0.030485291 0.05946964 -0.03043807 0.11091985
0003a0 86 26 c1 3c a9 00 81 bd 1c c9 0f bd fb 55 97 bd
       0.02357794 -0.06298954 -0.035103902 -0.07389446
0003b0 1f de 42 3c 47 6b 1f 3c a8 de 53 3c 9c 24 90 3b
       0.011893778 0.009730167 0.012931503 0.0043988954
0003c0 d4 93 47 3d cd 0a 28 bd 98 be 7b bc 40 e1 8d 3c
       0.048724964 -0.041025925 -0.015365265 0.017319322
0003d0 e1 e4 95 bc 6c 42 00 3c 16 a3 ab bc 13 fc 1f bd
       -0.018297615 0.007828336 -0.020951789 -0.039058756
0003e0 aa a6 4f 3d 76 47 23 3b ec 44 48 bb 7f 80 19 bd
       0.050696053 0.002491442 -0.0030558659 -0.03747606
0003f0 16 4b f1 bc c9 5b 0a 3d fd ef ad bb af f5 61 3a
       -0.02945475 0.03377894 -0.00530815 0.00086196786
