Mice_Tumors/tumor_load/d -weight decay 10 bad/in_dim:62_mid_dim_1:70_mid_dim_2:35_out_dim:1_lr:0.001_test_size:0.2_batch_size:4_shuffle:True_epochs:200_.pt (torch_old, 28750 bytes, 5 tensors)

fc1.weight f4 [70, 62]
00000000: 1d00 0080 0000 0000 0200 0000 4900 0080
00000010: 0c00 0080 ce01 0000 2500 0000 a11e 0080
00000020: 0a00 0080 1c00 0000 2000 0000 1b00 0000
00000030: 1f00 0080 1300 0080 3300 0080 1900 0000
00000040: 1f00 0080 2a00 0000 0b00 0000 2700 0080
00000050: 2201 0000 b600 0080 0a00 0080 2400 0080
00000060: 0100 0080 8e03 0000 0e00 0000 8400 0000
00000070: 0400 0080 4b02 0000 0500 0000 6300 0080
00000080: 2200 0080 2000 0000 6226 0000 0600 0000
00000090: 1600 0000 0e00 0000 1500 0000 0300 0080
000000a0: 1800 0080 2500 0000 2200 0080 2200 0080
000000b0: 0e00 0000 d000 0080 1700 0000 2303 0080
000000c0: 2b00 0000 2100 0000 2800 0080 0d00 0000
000000d0: 0a00 0000 0b00 0080 4a00 0000 0c00 0080
000000e0: 2200 0080 0d00 0000 1900 0000 3200 0080
000000f0: 0300 0000 2100 0080 6a64 2982 82f4 8281
00000100: 7f99 e500 53aa c300 a12f 1282 e24c 3600
00000110: fafb e901 7cb4 0382 655d 5602 3845 de02
00000120: 7167 1f82 fe6a d301 c5ff 4e82 140f 5d82
00000130: d0c8 fd81 36f0 d301 c2cb 1c81 4656 e800
00000140: d5ef 4402 f789 2e01 0eb5 5982 da12 9f01
00000150: 39e9 9501 746d 1182 3e41 0882 d83e 3781
00000160: 2bf9 e280 2e90 2a82 e01d 1e01 e6af 0a01
00000170: e711 1c00 eb14 fd00 e806 0901 6818 9280
00000180: a4fe ed81 1a0d 0901 b4e1 2d80 d187 cb80
00000190: 00a9 db80 1024 b700 6fb8 f600 0eec 4081
000001a0: 50d7 bd01 19f9 1502 b949 b181 ca48 af00
000001b0: f94c bf01 b8e3 9781 e0c9 b826 2856 8702
000001c0: dadf 2582 c2e3 1801 c297 a001 a1a2 4300
000001d0: b373 c380 d0de 4d82 0d7b 2982 1bf3 1802
000001e0: b05f 37a4 8fd3 7200 d46b c300 11d6 a102
000001f0: 1400 0080 4000 0000 1900 0080 1700 0080
00000200: 3e00 0080 2100 0000 2900 0000 0500 0080
00000210: 1600 0000 1300 0000 1600 0080 1100 0080
00000220: 4600 0000 1200 0000 0b00 0000 1200 0080
00000230: 3600 0000 1700 0000 0800 0000 2800 0000
00000240: 4201 0000 5902 0080 3500 0000 0a00 0080
00000250: 0b00 0000 0e00 0000 9004 0080 1600 0000
00000260: 2200 0080 2600 0080 c401 0080 0e00 0000
00000270: 0200 0080 2500 0000 2a00 0080 2300 0000
00000280: 1b00 0080 0000 0000 3400 0000 1000 0080
00000290: 0900 0080 1f00 0080 d500 0080 0900 0080
000002a0: 6e01 0080 7309 0000 1300 0000 2900 0000
000002b0: 0700 0080 1000 0000 0600 0080 1e00 0000
000002c0: 3b01 0080 0800 0080 3102 0000 3a00 0000
000002d0: 1c00 0000 3200 0000 1700 0000 1400 0000
000002e0: 0300 0080 1800 0080 2b00 0080 1c00 0000
000002f0: 0800 0000 6800 0000 1e00 0080 1000 0000
00000300: 0400 0080 0f00 0080 0200 0000 1600 0080
00000310: 2100 0080 3500 0080 1606 0000 0800 0080
00000320: 2600 0080 3d00 0080 1000 0000 0b00 0080
00000330: 1600 0080 2f00 0080 0b00 0080 0a00 0000
00000340: 1500 0080 1700 0000 2d00 0080 3300 0000
00000350: 3100 0080 2400 0000 2c00 0080 0100 0000
00000360: 0600 0080 0700 0080 eb00 0000 1600 0000
00000370: 1600 0080 2700 0000 2900 0000 1200 0080
00000380: 1000 0000 1300 0000 3400 0000 0d00 0080
00000390: 2300 0080 0d00 0000 0800 0000 1200 0080
000003a0: 1900 0000 2400 0000 2700 0080 0100 0000
000003b0: 0d00 0080 2400 0080 2800 0000 1900 0080
000003c0: 1c00 0000 f501 0000 3200 0080 2c00 0080
000003d0: 5e00 0000 0e00 0080 2700 0000 0200 0080
000003e0: 9df4 580f 264a 900f da3b 190f 8a33 510f
000003f0: 94ad 3911 d7b5 5c8e 770f ba8e 0e0f 02a1
-4e-44 0.0 3e-45 -1.02e-43 -1.7e-44 6.47e-43 5.2e-44 -1.0988e-41
-1.4e-44 3.9e-44 4.5e-44 3.8e-44 -4.3e-44 -2.7e-44 -7.1e-44 3.5e-44
-4.3e-44 5.9e-44 1.5e-44 -5.5e-44 4.06e-43 -2.55e-43 -1.4e-44 -5e-44
-1e-45 1.275e-42 2e-44 1.85e-43 -6e-45 8.23e-43 7e-45 -1.39e-43
-4.8e-44 4.5e-44 1.3769e-41 8e-45 3.1e-44 2e-44 3e-44 -4e-45
-3.4e-44 5.2e-44 -4.8e-44 -4.8e-44 2e-44 -2.91e-43 3.2e-44 -1.125e-42
6e-44 4.6e-44 -5.6e-44 1.8e-44 1.4e-44 -1.5e-44 1.04e-43 -1.7e-44
-4.8e-44 1.8e-44 3.5e-44 -7e-44 4e-45 -4.6e-44 -1.2444977e-37 -4.810531e-38
2.1085393e-38 1.7969023e-38 -1.0740055e-37 4.986697e-39 8.595225e-38 -9.676156e-38 1.574904e-37 3.2659698e-37
-1.1711161e-37 7.7662685e-38 -1.5207892e-37 -1.6240843e-37 -9.3225674e-38 7.7853845e-38 -2.8798864e-38 2.1336784e-38
1.4468634e-37 3.2057738e-38 -1.5994602e-37 5.8434426e-38 5.5068614e-38 -1.0684329e-37 -1.0010426e-37 -3.365688e-38
-2.0844207e-38 -1.2531005e-37 2.904145e-38 2.5472798e-38 2.577816e-39 2.3241884e-38 2.516788e-38 -1.3416738e-38
-8.742544e-38 2.5172326e-38 -4.213564e-39 -1.8691327e-38 -2.01726e-38 1.6818833e-38 2.2657694e-38 -3.5434191e-38
6.9736593e-38 1.1018279e-37 -6.512532e-38 1.6097324e-38 7.027277e-38 -5.57954e-38 1.2822283e-15 1.9885918e-37
-1.2186528e-37 2.80814e-38 5.899248e-38 6.211319e-39 -1.7949427e-38 -1.5124965e-37 -1.2451473e-37 1.1236964e-37
-3.976285e-17 1.054514e-38 1.7946603e-38 2.3779692e-37 -2.8e-44 9e-44 -3.5e-44 -3.2e-44
-8.7e-44 4.6e-44 5.7e-44 -7e-45 3.1e-44 2.7e-44 -3.1e-44 -2.4e-44
9.8e-44 2.5e-44 1.5e-44 -2.5e-44 7.6e-44 3.2e-44 1.1e-44 5.6e-44
4.51e-43 -8.42e-43 7.4e-44 -1.4e-44 1.5e-44 2e-44 -1.637e-42 3.1e-44
-4.8e-44 -5.3e-44 -6.33e-43 2e-44 -3e-45 5.2e-44 -5.9e-44 4.9e-44
-3.8e-44 0.0 7.3e-44 -2.2e-44 -1.3e-44 -4.3e-44 -2.98e-43 -1.3e-44
-5.13e-43 3.39e-42 2.7e-44 5.7e-44 -1e-44 2.2e-44 -8e-45 4.2e-44
-4.41e-43 -1.1e-44 7.86e-43 8.1e-44 3.9e-44 7e-44 3.2e-44 2.8e-44
-4e-45 -3.4e-44 -6e-44 3.9e-44 1.1e-44 1.46e-43 -4.2e-44 2.2e-44
-6e-45 -2.1e-44 3e-45 -3.1e-44 -4.6e-44 -7.4e-44 2.183e-42 -1.1e-44
-5.3e-44 -8.5e-44 2.2e-44 -1.5e-44 -3.1e-44 -6.6e-44 -1.5e-44 1.4e-44
-3e-44 3.2e-44 -6.3e-44 7.1e-44 -6.9e-44 5e-44 -6.2e-44 1e-45
-8e-45 -1e-44 3.3e-43 3.1e-44 -3.1e-44 5.5e-44 5.7e-44 -2.5e-44
2.2e-44 2.7e-44 7.3e-44 -1.8e-44 -4.9e-44 1.8e-44 1.1e-44 -2.5e-44
3.5e-44 5e-44 -5.5e-44 1e-45 -1.8e-44 -5e-44 5.6e-44 -3.5e-44
3.9e-44 7.02e-43 -7e-44 -6.2e-44 1.32e-43 -2e-44 5.5e-44 -3e-45
1.0696733e-29 1.4228057e-29 7.5550094e-30 1.0314422e-29 1.4647415e-28 -2.7204646e-30 -4.5867432e-30 -4.406564e-19

fc1.bias f4 [70]
00000000: 0200 0080 2811 0f81 2900 0080 2c00 0080
00000010: 85c2 b50e 3300 0080 1b00 0000 2204 0000
00000020: 0600 0080 c700 0000 3200 0080 0800 0000
00000030: 1600 0000 0400 0000 3000 0080 2400 0000
00000040: 8f01 0000 0800 0080 a1db 0010 0c00 0000
00000050: 0400 0080 a004 0000 0a00 0000 1700 0080
00000060: 1400 0080 2701 0000 b938 0400 0700 0000
00000070: 8800 0080 7100 0080 1c00 0000 3000 0000
00000080: ed20 0080 0c00 0000 5f05 0000 4d00 0080
00000090: 4500 0000 3400 0000 2c01 0080 1600 0000
000000a0: 1400 0080 1600 0080 2000 0000 31f4 de0e
000000b0: 0200 0080 2500 0080 4500 0080 2700 0000
000000c0: 7300 0000 2100 0000 1600 0080 1f00 0000
000000d0: 5301 0000 2300 0000 1f00 0000 2300 0000
000000e0: 7400 0000 e8f7 fb9e 3300 0080 0a00 0000
000000f0: 9f14 0080 a803 0000 0800 0000 0a00 0080
00000100: 3300 0000 0000 0000 b000 0000 e300 0080
00000110: 0a00 0000 ca00 0000
-3e-45 -2.627726e-38 -5.7e-44 -6.2e-44 4.480726e-30 -7.1e-44 3.8e-44 1.483e-42
-8e-45 2.79e-43 -7e-44 1.1e-44 3.1e-44 6e-45 -6.7e-44 5e-44
5.59e-43 -1.1e-44 2.5412745e-29 1.7e-44 -6e-45 1.659e-42 1.4e-44 -3.2e-44
-2.8e-44 4.13e-43 3.8769e-40 1e-44 -1.9e-43 -1.58e-43 3.9e-44 6.7e-44
-1.1812e-41 1.7e-44 1.927e-42 -1.08e-43 9.7e-44 7.3e-44 -4.2e-43 3.1e-44
-2.8e-44 -3.1e-44 4.5e-44 5.4962373e-30 -3e-45 -5.2e-44 -9.7e-44 5.5e-44
1.61e-43 4.6e-44 -3.1e-44 4.3e-44 4.75e-43 4.9e-44 4.3e-44 4.9e-44
1.63e-43 -2.667819e-20 -7.1e-44 1.4e-44 -7.397e-42 1.312e-42 1.1e-44 -1.4e-44
7.1e-44 0.0 2.47e-43 -3.18e-43 1.4e-44 2.83e-43

fc2.weight f4 [35, 70]
00000000: 3400 0080 2101 0080 0100 0080 0200 0000
00000010: 3000 0080 1e00 0000 3200 0000 a700 0000
00000020: 0f00 0080 1300 0000 5800 0080 1d01 0080
00000030: 2300 0000 3100 0080 1400 0080 0c00 0080
00000040: 2100 0000 1b00 0080 2800 0000 2e00 0080
00000050: de00 0000 0300 0080 6b01 0000 2900 0080
00000060: 4600 0000 2d00 0080 0f00 0000 0a00 0000
00000070: 0f00 0000 0200 0080 0700 0000 1b00 0000
00000080: 4700 0000 2b00 0000 2700 0000 2800 0000
00000090: 0900 0080 1f00 0000 1e00 0080 1800 0000
000000a0: 0100 0080 1900 0000 0b00 0080 f400 0080
000000b0: 4e00 0000 8500 0000 1b00 0000 1800 0080
000000c0: 2200 0080 1900 0000 5000 0000 0a00 0080
000000d0: 0800 0080 2a00 0080 3e02 0080 6d00 0000
000000e0: 9000 0000 4a00 0000 0f00 0000 2300 0080
000000f0: 2600 0080 1d00 0000 5700 0080 9400 0000
00000100: 0900 0080 2400 0080 0d00 0080 c200 0000
00000110: 1c00 0000 2d00 0080 2b00 0000 0900 0080
00000120: 0700 0000 0a00 0080 7501 0000 0e00 0080
00000130: 2600 0000 db00 0000 0200 0000 1400 0080
00000140: 2b00 0000 1d00 0080 2700 0000 8403 0080
00000150: 4c00 0000 1f00 0000 1f00 0080 1d04 0080
00000160: 4800 0000 fc00 0000 0c00 0080 0500 0000
00000170: 1600 0080 0900 0080 2800 0000 2500 0080
00000180: 3900 0080 1000 0080 f700 0080 1600 0000
00000190: 4d00 0080 0400 0080 ef00 0080 4304 0080
000001a0: ba00 0000 0900 0000 2700 0000 2d00 0000
000001b0: 0200 0000 0800 0000 3500 0000 0400 0000
000001c0: 1400 0080 1f00 0080 2200 0080 2c00 0080
000001d0: c500 0080 2200 0080 3500 0080 2600 0080
000001e0: b800 0080 0700 0080 0b00 0080 0c00 0080
000001f0: 0600 0000 1b00 0000 2800 0000 1100 0080
00000200: 3b00 0080 3000 0000 2500 0000 2700 0000
00000210: d700 0080 1600 0000 2900 0000 3400 0000
00000220: 0d00 0080 1000 0000 0400 0080 f901 0080
00000230: 2b00 0000 2300 0000 1a00 0080 2a00 0080
00000240: 1b00 0000 2000 0000 1600 0000 0e00 0080
00000250: 1900 0000 3400 0000 2000 0080 1300 0000
00000260: b000 0080 0c00 0000 1a00 0080 7201 0080
00000270: 0a00 0080 2d00 0000 dc00 0080 1200 0080
00000280: 1300 0000 0600 0000 3c00 0000 0200 0080
00000290: 0900 0080 1b01 0000 1f00 0000 1100 0080
000002a0: 0a00 0000 0500 0080 3600 0000 c400 0080
000002b0: 2200 0080 0000 0000 2800 0000 2500 0080
000002c0: 3500 0080 7d00 0000 1e00 0000 3200 0000
000002d0: 1800 0000 2900 0000 3100 0000 3600 0000
000002e0: 2900 0080 2700 0080 3400 0080 f900 0000
000002f0: 3b00 0000 2700 0080 3b00 0000 1500 0000
00000300: 0100 0080 6702 0000 2300 0000 3318 0080
00000310: 9200 0000 0400 0080 2800 0080 2700 0080
00000320: ca00 0080 2500 0000 8901 0080 6200 0000
00000330: 0600 0080 1500 0080 2400 0080 0d00 0000
00000340: 2900 0080 2400 0080 1600 0000 3400 0000
00000350: 2400 0000 f206 0080 3100 0000 2c00 0080
00000360: 3d00 0000 4600 0000 0d00 0080 2500 0000
00000370: 1e00 0080 4500 0080 2700 0000 1600 0000
00000380: 0b00 0080 0a00 0000 1000 0080 0300 0080
00000390: 6901 0000 1e00 0000 0c02 0080 1200 0000
000003a0: 9b01 0080 2300 0000 1a00 0000 1f00 0080
000003b0: 0e00 0080 2200 0080 0300 0000 0c00 0000
000003c0: 1d00 0000 0700 0000 1800 0000 2000 0080
000003d0: e200 0000 0d00 0080 1d00 0000 0200 0000
000003e0: 0600 0000 0e01 0000 3200 0080 0c00 0080
000003f0: 2900 0080 c301 0080 0d00 0080 2100 0000
-7.3e-44 -4.05e-43 -1e-45 3e-45 -6.7e-44 4.2e-44 7e-44 2.34e-43
-2.1e-44 2.7e-44 -1.23e-43 -4e-43 4.9e-44 -6.9e-44 -2.8e-44 -1.7e-44
4.6e-44 -3.8e-44 5.6e-44 -6.4e-44 3.11e-43 -4e-45 5.09e-43 -5.7e-44
9.8e-44 -6.3e-44 2.1e-44 1.4e-44 2.1e-44 -3e-45 1e-44 3.8e-44
1e-43 6e-44 5.5e-44 5.6e-44 -1.3e-44 4.3e-44 -4.2e-44 3.4e-44
-1e-45 3.5e-44 -1.5e-44 -3.42e-43 1.1e-43 1.86e-43 3.8e-44 -3.4e-44
-4.8e-44 3.5e-44 1.12e-43 -1.4e-44 -1.1e-44 -5.9e-44 -8.04e-43 1.53e-43
2.02e-43 1.04e-43 2.1e-44 -4.9e-44 -5.3e-44 4e-44 -1.22e-43 2.07e-43
-1.3e-44 -5e-44 -1.8e-44 2.72e-43 3.9e-44 -6.3e-44 6e-44 -1.3e-44
1e-44 -1.4e-44 5.23e-43 -2e-44 5.3e-44 3.07e-43 3e-45 -2.8e-44
6e-44 -4e-44 5.5e-44 -1.261e-42 1.06e-43 4.3e-44 -4.3e-44 -1.476e-42
1.01e-43 3.53e-43 -1.7e-44 7e-45 -3.1e-44 -1.3e-44 5.6e-44 -5.2e-44
-8e-44 -2.2e-44 -3.46e-43 3.1e-44 -1.08e-43 -6e-45 -3.35e-43 -1.529e-42
2.6e-43 1.3e-44 5.5e-44 6.3e-44 3e-45 1.1e-44 7.4e-44 6e-45
-2.8e-44 -4.3e-44 -4.8e-44 -6.2e-44 -2.76e-43 -4.8e-44 -7.4e-44 -5.3e-44
-2.58e-43 -1e-44 -1.5e-44 -1.7e-44 8e-45 3.8e-44 5.6e-44 -2.4e-44
-8.3e-44 6.7e-44 5.2e-44 5.5e-44 -3.01e-43 3.1e-44 5.7e-44 7.3e-44
-1.8e-44 2.2e-44 -6e-45 -7.08e-43 6e-44 4.9e-44 -3.6e-44 -5.9e-44
3.8e-44 4.5e-44 3.1e-44 -2e-44 3.5e-44 7.3e-44 -4.5e-44 2.7e-44
-2.47e-43 1.7e-44 -3.6e-44 -5.18e-43 -1.4e-44 6.3e-44 -3.08e-43 -2.5e-44
2.7e-44 8e-45 8.4e-44 -3e-45 -1.3e-44 3.97e-43 4.3e-44 -2.4e-44
1.4e-44 -7e-45 7.6e-44 -2.75e-43 -4.8e-44 0.0 5.6e-44 -5.2e-44
-7.4e-44 1.75e-43 4.2e-44 7e-44 3.4e-44 5.7e-44 6.9e-44 7.6e-44
-5.7e-44 -5.5e-44 -7.3e-44 3.49e-43 8.3e-44 -5.5e-44 8.3e-44 3e-44
-1e-45 8.62e-43 4.9e-44 -8.681e-42 2.05e-43 -6e-45 -5.6e-44 -5.5e-44
-2.83e-43 5.2e-44 -5.51e-43 1.37e-43 -8e-45 -3e-44 -5e-44 1.8e-44
-5.7e-44 -5e-44 3.1e-44 7.3e-44 5e-44 -2.492e-42 6.9e-44 -6.2e-44
8.5e-44 9.8e-44 -1.8e-44 5.2e-44 -4.2e-44 -9.7e-44 5.5e-44 3.1e-44
-1.5e-44 1.4e-44 -2.2e-44 -4e-45 5.06e-43 4.2e-44 -7.34e-43 2.5e-44
-5.76e-43 4.9e-44 3.6e-44 -4.3e-44 -2e-44 -4.8e-44 4e-45 1.7e-44
4e-44 1e-44 3.4e-44 -4.5e-44 3.17e-43 -1.8e-44 4e-44 3e-45
8e-45 3.78e-43 -7e-44 -1.7e-44 -5.7e-44 -6.32e-43 -1.8e-44 4.6e-44

fc2.bias f4 [35]
00000000: 1100 0000 671a 0080 8e00 0000 b5c2 0280
00000010: 0900 0000 1a00 0080 3100 0000 2302 0000
00000020: c55f 0200 7918 0080 3500 0080 4d40 0000
00000030: 1900 0000 1000 0080 a065 f6a9 5c03 0080
00000040: 1b00 0000 b715 0000 0500 0000 1a00 0080
00000050: 003f 3601 aa01 0000 1100 0000 4103 0080
00000060: 440b 8017 8500 0000 9203 0080 5700 0080
00000070: 1600 0080 1400 0080 9955 b300 2040 c282
00000080: 2c00 0080 3200 0080 8616 0000
2.4e-44 -9.471e-42 1.99e-43 -2.53519e-40 1.3e-44 -3.6e-44 6.9e-44 7.67e-43
2.18027e-40 -8.779e-42 -7.4e-44 2.3067e-41 3.5e-44 -2.2e-44 -1.0942224e-13 -1.205e-42
3.8e-44 7.79e-42 7e-45 -3.6e-44 3.347332e-38 5.97e-43 2.4e-44 -1.167e-42
8.27465e-25 1.86e-43 -1.281e-42 -1.22e-43 -3.1e-44 -2.8e-44 1.646926e-38 -2.8542544e-37
-6.2e-44 -7e-44 8.08e-42

fc3.weight f4 [1, 35]
00000000: 3200 0000 1e1f 0000 1800 0000 8b1c 0680
00000010: 1200 0080 1a00 0000 3100 0000 9500 0000
00000020: f361 0300 aba7 0100 1a00 0000 071b 0000
00000030: 0600 0080 1f00 0080 d51f f8ab 4a15 0080
00000040: 3100 0000 4b17 0000 1700 0080 1900 0080
00000050: 12a5 b481 2b02 0000 1a00 0000 3b00 0080
00000060: 74b0 4816 1c00 0000 d601 0000 9f00 0000
00000070: 0700 0080 6500 0080 ab60 6780 7442 f884
00000080: 0100 0080 3200 0000 aa08 0080
7e-44 1.1163e-41 3.4e-44 -5.61252e-40 -2.5e-44 3.6e-44 6.9e-44 2.09e-43
3.10644e-40 1.51983e-40 3.6e-44 9.696e-42 -8e-45 -4.3e-44 -1.7630295e-12 -7.637e-42
6.9e-44 8.356e-42 -3.2e-44 -3.5e-44 -6.635842e-38 7.78e-43 3.6e-44 -8.3e-44
1.621155e-25 3.9e-44 6.59e-43 2.23e-43 -1e-44 -1.42e-43 -9.493734e-39 -5.8365547e-36
-1e-45 7e-44 -3.108e-42
