Projects/GDM/code/latent_representation_code/VAE_models/best_model.pt (torch, 748209 bytes, 22 tensors)

weight f4 [183, 366]
-0.02553713 0.04070452 -0.011729897 -0.03314695 -0.027649436 -0.031026367 -0.0014798805 0.02152089
-0.021331297 0.05488497 -0.017258747 0.040618025 -0.0290898 -0.042299625 -0.017021548 0.011839079
-0.0068499143 -0.037465036 -0.013458685 0.004143913 -0.029116485 0.031516038 0.015744634 0.013343546
-0.016505301 -0.037446648 -0.035714135 0.015375819 0.0002535135 0.036840945 -0.008527928 0.0018730863
0.024129067 -0.03637369 0.035721783 0.026515221 -0.009739157 0.02681516 -0.041644696 0.001135527
0.012951393 -0.02063771 0.05299371 0.027225142 0.013812343 -0.042785496 -0.035517365 0.009180992
0.010085527 -0.016745448 0.026143763 -0.0128182955 0.042158466 -0.04753687 -0.05766817 -0.00821248
-0.01048198 -0.007837661 -0.004992608 0.009786399 0.006343944 0.015393471 0.021493066 0.011558064
0.028509598 -0.016583448 0.010516104 0.040883143 0.024641788 0.007550594 0.012877912 0.041448593
0.034919728 -0.04971944 0.022654844 0.030851763 0.037768107 0.011296574 0.04502248 -0.017658785
0.037940357 0.02837405 -0.018329436 -0.032985877 -0.018287754 -0.013397373 0.0061470186 -0.016965276
-0.0009432862 0.026289774 -0.033849932 0.04238099 0.002505289 -0.018962242 0.02326958 -0.017314775
0.0015283882 -0.009315008 0.03732203 0.004200716 -0.007069048 0.048348367 0.002444906 -0.0036594083
-0.047859643 -0.0263919 0.026224896 0.02053125 -0.019836454 -0.023371823 -0.013278212 0.003851986
-0.004729794 0.01711494 0.0062032994 -0.04725768 -0.0018632531 -0.066982485 -0.0013684216 -0.0119762765
0.01646879 0.012089915 0.04197698 -0.027509091 0.036802236 -0.03102847 0.021437002 -0.023861682
0.0328437 0.023607386 -0.031569958 0.031327046 0.048492398 -0.020555994 -0.051748727 0.011737287
0.020129481 0.0143834185 -0.029796043 -0.020473586 0.010335955 -0.020900648 -0.03434562 -0.0021143814
0.0053043035 -0.010915499 -0.036014855 -0.016229732 0.051416982 0.0039334865 0.054565534 0.04731092
-0.004291284 -0.0021330188 0.02900876 -0.023503019 -0.055902094 -0.05308645 -0.04802123 -0.029223546
-0.03912868 -0.015980612 -0.02076215 -0.00913385 0.04586225 0.019310648 0.010558508 0.00092514267
0.0077375798 0.00029104232 -0.057540286 0.011185831 -0.024979163 0.01284405 -0.032700036 0.040411644
-0.040128358 -0.026302533 -0.050336827 -0.009187205 0.045949366 0.025519662 -0.0070549473 -0.0076381844
0.0020233276 0.042988684 -0.01151002 0.0067516463 -0.022315562 -0.013136999 0.01357372 0.032435957
-0.0005646795 0.011673599 0.01810515 0.0493812 -0.05339887 -0.0043566613 0.0042788615 -0.023620334
0.018384252 -0.035835348 0.008811984 -0.02439009 0.0024265952 0.015238488 0.021276586 0.01757933
0.0031730249 -0.04437766 -0.025843034 -0.0028737674 0.017262783 0.031995457 -0.002930759 -0.0059353113
-0.0059953392 -0.05123588 -0.0060303505 -0.0010292531 0.005135407 -0.008378985 -0.022809792 -0.016466452
-0.012620058 0.033502858 -0.02477464 0.033685077 -0.01824381 0.038877655 0.0042738025 -0.0084574465
0.004834248 -0.050942354 0.03831913 -0.011209626 0.004519371 -0.016221913 -0.009134663 -0.046715446
-4.6998655e-05 -0.0084205875 -0.0039707073 -0.016363453 0.02575201 0.037831485 0.0129729025 0.043555856
-0.054300055 -0.011857956 0.077481635 -0.0152878435 -0.025784308 0.0032773279 0.0149096735 -0.04989662
00000000: 3e33 d1bc c8b9 263d c12e 40bc 19c5 07bd
00000010: 1281 e2bc 022b febc 8df8 c1ba 944c b03c
00000020: f9be aebc 10cf 603d 3762 8dbc 165f 263d
00000030: bb4d eebc 5f42 2dbd c670 8bbc b2f8 413c
00000040: 3f75 e0bb f074 19bd d181 5cbc a9c9 873b
00000050: b285 eebc f616 013d e4fa 803c e39e 5a3c
00000060: 2036 87bc a861 19bd fc48 12bd dcea 7b3c
00000070: 02ea 8439 88e6 163d b9b8 0bbc 5982 f53a
00000080: 52aa c53c 94fc 14bd 0151 123d 7336 d93c
00000090: fc90 1fbc 77ab db3c a193 2abd f7d5 943a
000000a0: 1432 543c 6a10 a9bc ef0f 593d 4307 df3c
000000b0: 2a4d 623c d83f 2fbd a87a 11bd df6b 163c
000000c0: c43d 253c c02d 89bc 722b d63c d403 52bc
000000d0: 5bae 2c3d 05b6 42bd 7635 6cbd a38d 06bc
000000e0: 9cbc 2bbc 8869 00bc 0899 a3bb 2257 203c
000000f0: dce0 cf3b e634 7c3c 3a12 b03c 095e 3d3c
00000100: f68c e93c 03da 87bc bd4b 2c3c 1575 273d
00000110: 93dd c93c f96a f73b e1fd 523c 00c6 293d
00000120: fd07 0f3d 9da6 4bbd a796 b93c d6bc fc3c
00000130: bbb2 1a3d 4415 393c 7e69 383d 28a9 90bc
00000140: 5967 1b3d b270 e83c 9d27 96bc 331c 07bd
00000150: 33d0 95bc a880 5bbc ee6c c93b c3fa 8abc
00000160: de46 77ba a75d d73c 3aa6 0abd b097 2d3d
00000170: c62f 243b b456 9bbc d99f be3c b7d7 8dbc
00000180: 3354 c83a fa9d 18bc fcde 183d 29a6 893b
00000190: 79a3 e7bb f008 463d b73a 203b afd2 6fbb
000001a0: 7908 44bd d333 d8bc 98d5 d63c 2731 a83c
000001b0: 0f80 a2bc 4476 bfbc dc8c 59bc 9a71 7c3b
000001c0: 63fc 9abb a134 8c3c 0c45 cb3b 4591 41bd
000001d0: 6638 f4ba 1d2e 89bd 9c5c b3ba 2538 44bc
000001e0: 8ee9 863c c714 463c 0ef0 2b3d bf5a e1bc
000001f0: f1bd 163d 6b2f febc a79c af3c 9379 c3bc
00000200: 1e87 063d 4764 c13c 804f 01bd ca50 003d
00000210: f79f 463d 0b65 a8bc 79f6 53bd c04d 403c
00000220: 95e6 a43c 6ea8 6b3c d516 f4bc 39b8 a7bc
00000230: 2358 293c d637 abbc fead 0cbd 6f91 0abb
00000240: b9cf ad3b ecd6 32bc 5084 13bd 37f4 84bc
00000250: 9d9a 523d 7ae4 803b 1c80 5f3d 18c9 413d
00000260: e69d 8cbb 1eca 0bbb c7a3 ed3c 6789 c0bc
00000270: 98f9 64bd 2d71 59bd e9b1 44bd 3866 efbc
00000280: 6545 20bd c6e9 82bc 6215 aabc 25a6 15bc
00000290: 0eda 3b3d 5d31 9e3c 98fd 2c3c 4685 723a
000002a0: 868b fd3b 0a97 9839 5daf 6bbd c744 373c
000002b0: 1aa1 ccbc da6f 523c 79f0 05bd ae86 253d
000002c0: a25d 24bd 6978 d7bc fd2d 4ebd ee85 16bc
000002d0: 6735 3c3d 9c0e d13c 302d e7bb bc49 fabb
000002e0: ce99 043b e714 303d 8694 3cbc ea3c dd3b
000002f0: 20cf b6bc 913c 57bc 4f64 5e3c 91db 043d
00000300: 0007 14ba 9f42 3f3c 4051 943c f143 4a3d
00000310: c6b8 5abd 53c2 8ebb b135 8c3b 6e7f c1bc
00000320: 929a 963c 16c8 12bd 2460 103c bacd c7bc
00000330: 8307 1f3b daaa 793c 3c4c ae3c 8702 903c
00000340: 86f2 4f3b 59c5 35bd c5b4 d3bc d155 3cbb
00000350: ae6a 8d3c ab0d 033d fa11 40bb 007d c2bb
00000360: 8d74 c4bb b7dc 51bd 3f9a c5bb 01e8 86ba
00000370: eb46 a83b 0348 09bc 9adb babc a7e4 86bc
00000380: 5cc4 4ebc 4b3a 093d 30f4 cabc 5df9 093d
00000390: 0b74 95bc 2d3e 1f3d 410b 8c3b 1a91 0abc
000003a0: 9d68 9e3b eea8 50bd 85f4 1c3d 94a8 37bc
000003b0: 3b17 943b d1e3 84bc 8ea9 15bc b258 3fbd
000003c0: 6c20 45b8 81f6 09bc b51c 82bb a60c 86bc
000003d0: e1f5 d23c 30f5 1a3d 4c8c 543c a067 323d
000003e0: bc69 5ebd df47 42bc b1ae 9e3d dd79 7abc
000003f0: 9d39 d3bc 70c8 563b b447 743c 6660 4cbd

bias f4 [183]
-0.04345167 -0.014261494 0.081278525 0.014352783 0.0846433 -0.05681337 -0.003726358 -0.0319481
0.043304745 0.08276679 0.07682186 0.011285369 0.03480316 -0.023464588 -0.010552985 -0.043451134
-0.0004968577 0.035858847 0.006986385 0.0010273147 0.010048456 0.09889406 -0.08958919 -0.020822596
0.102011375 -0.05979264 -0.032483235 0.026090702 -0.023886293 -0.0048321025 0.08140569 0.036257263
0.0034083724 -0.09995323 -0.041465398 0.060125597 -0.0475037 -0.029730903 0.019859903 -0.014670556
-0.017206298 -0.009517257 -0.083336666 -0.11161436 0.018482534 0.036083806 0.05334105 0.074875124
-0.06339499 -0.04433184 0.020431686 0.10083557 0.11625341 0.038808268 -0.06954461 -0.017180238
-0.027230056 -0.034675248 -0.099163264 0.0637304 -0.023548864 -0.01978379 -0.034496758 -0.044785824
-0.07011267 -0.030742252 0.050370503 0.029615575 0.07137568 -0.03258247 -0.040798873 -0.04150087
-0.09130101 -0.015722832 0.09283061 0.07707183 0.039801788 -0.10309978 -0.04342803 0.01834218
-0.0692784 0.026410367 -0.06517804 -0.09527112 -0.0586763 -0.09015899 -0.09984974 0.05067925
0.04729065 -0.06221709 0.01693367 -0.032302286 -0.04792797 -0.03532268 -0.033686534 0.031038454
-0.039759636 0.044257015 0.015203997 0.06650619 0.0003689686 -0.0073344205 -0.03949475 0.08550597
-0.09954877 -0.036983054 0.03279023 -0.0028514005 -0.07786703 -0.041819755 0.02913095 0.046289284
0.046460275 -0.039769523 -0.040842604 -0.04179822 -0.025785958 0.02685665 -0.019293679 -0.1057492
-0.058515158 0.015081636 -0.012521066 0.10020123 -0.061074134 -0.019209515 0.08262956 0.019484423
0.06723631 -0.028039828 0.051083565 0.018494036 0.023726264 -0.0690005 0.090418875 0.023154374
0.0039254385 -0.04253749 0.06565058 -0.046358503 -0.03130114 0.011514751 0.030153241 -0.032428987
-0.035452094 -0.0357556 0.026775133 -0.0067785303 0.012676303 0.10983739 -0.04849273 0.0512175
-0.01629463 0.043662827 0.022711212 -0.028496826 -0.020252215 -0.014600792 -0.019247962 -0.05060383
0.040894024 -0.03326264 -0.033770252 0.038840275 0.042123675 -0.04268689 0.0011161285 -0.09705495
0.006413007 -0.095818914 -0.02692103 -0.10005269 -0.037792623 0.09876973 0.03289864 -0.020379629
-0.09857945 -0.09636195 -0.08356964 0.043367874 0.041604735 0.047690902 -0.07980104
00000000: 61fa 31bd 0ba9 69bc 5b75 a63d ef27 6b3c
00000010: 7759 ad3d 23b5 68bd ea35 74bb 03dc 02bd
00000020: 5160 313d a381 a93d c854 9d3d 45e6 383c
00000030: c28d 0e3d cf38 c0bc 6de6 2cbc d1f9 31bd
00000040: 8e3f 02ba bae0 123d 0cee e43b f6a6 863a
00000050: 47a2 243c f888 ca3d 8a7a b7bd 2694 aabc
00000060: 57eb d03d 21e9 74bd 240d 05bd 2bbc d53c
00000070: 30ad c3bc 9d56 9ebb 07b8 a63d 7f82 143d
00000080: 005f 5f3b 47b4 ccbd 9fd7 29bd 4246 763d
00000090: 3d93 42bd 398e f3bc 3cb1 a23c c65c 70bc
000000a0: 39f4 8cbc 45ee 1bbc 6aac aabd 1296 e4bd
000000b0: af68 973c 9dcc 133d 257c 5a3d 2158 993d
000000c0: 3cd5 81bd 4e95 35bd 5a60 a73c e182 ce3d
000000d0: 4516 ee3d 6bf5 1e3d 686d 8ebd 92bd 8cbc
000000e0: 9111 dfbc a207 0ebd 1c16 cbbd 1585 823d
000000f0: 8ce9 c0bc 9d11 a2bc 794c 0dbd 5771 37bd
00000100: 3b97 8fbd 2dd7 fbbc 4d51 4e3d 5d9c f23c
00000110: 6a2d 923d 3275 05bd b81c 27bd d1fc 29bd
00000120: 06fc babd 2bcd 80bc fa1d be3d d6d7 9d3d
00000130: 3307 233d fa25 d3bd 97e1 31bd 5742 963c
00000140: d5e1 8dbd 8e5a d83c 107c 85bd 811d c3bd
00000150: 8f56 70bd 47a5 b8bd 057e ccbd 0c95 4f3d
00000160: d7b3 413d 59d7 7ebd 7bb8 8a3c 674f 04bd
00000170: 1e50 44bd 84ae 10bd e4fa 09bd 5b44 fe3c
00000180: 00db 22bd d846 353d 2f1a 793c 6634 883d
00000190: 2172 c139 9455 f0bb 3fc5 21bd c11d af3d
000001a0: 3ae0 cbbd 8b7b 17bd 0c4f 063d 90de 3abb
000001b0: c078 9fbd 314b 2bbd 08a4 ee3c d599 3d3d
000001c0: 214d 3e3d 5ee5 22bd 934a 27bd 9c34 2bbd
000001d0: 133d d3bc 7a02 dc3c c70d 9ebc 0993 d8bd
000001e0: 97ad 6fbd f718 773c 2825 4dbc 4d36 cd3d
000001f0: df28 7abd 465d 9dbc b039 a93d cc9d 9f3c
00000200: 31b3 893d c8b3 e5bc 003d 513d ce80 973c
00000210: 955d c23c 2250 8dbd 882d b93d 3eae bd3c
00000220: f7a0 803b cb3b 2ebd d073 863d 6ae2 3dbd
00000230: a035 00bd 5ea8 3c3c ee03 f73c 42d4 04bd
00000240: 3736 11bd 7774 12bd 8657 db3c 6f1e debb
00000250: 45b0 4f3c 6df2 e03d 50a0 46bd 71c9 513d
00000260: 517c 85bc cbd7 323d dd0c ba3c 2d72 e9bc
00000270: f9e7 a5bc 2938 6fbc e7ad 9dbc f645 4fbd
00000280: 7e80 273d 683e 08bd ad52 0abd fb16 1f3d
00000290: e089 2c3d 73d8 2ebd 0f4b 923a bfc4 c6bd
000002a0: 3424 d23b b53c c4bd 7e89 dcbc 6de8 ccbd
000002b0: 70cc 1abd c947 ca3d b9c0 063d 2ef3 a6bc
000002c0: 06e4 c9bd 6a59 c5bd 8f26 abbd 83a2 313d
000002d0: ba69 2a3d 8957 433d ba6e a3bd

weight f4 [30, 183]
0.0049316864 0.0026956578 0.034073785 0.0174597 -0.015785476 -0.011814437 -0.013566629 0.0031588974
-0.0023775615 -0.025359623 0.0044176695 -0.00053357164 0.0022727645 -0.0032958009 0.0141829075 -0.011942098
0.008298818 -0.0030759359 -0.003957224 0.008211029 0.00485329 -0.03794616 0.04768359 -0.002039656
0.026375495 0.043541424 0.034294937 0.012058712 -0.00146947 0.01559596 -0.020553486 -0.004675152
-0.025607081 -0.015063862 0.036581554 0.0044116843 0.014042443 0.036313906 -0.006212132 0.017740367
-0.028534556 -0.0013596963 -0.012440504 -0.024330702 0.0030864973 -0.013349798 -0.008696481 0.015787244
0.029560944 0.013058074 0.0055278945 -0.0070168055 0.019391267 0.007602059 0.011074253 -0.006842319
-0.009351312 0.029701835 -0.04569985 -0.019762415 0.00026282706 -0.02310011 -0.006491369 -0.00035559107
0.03049816 -0.0067882114 0.023000764 0.032546267 0.00310256 -0.012090538 -0.0018020319 -0.0027702462
-0.0027917235 0.006853621 0.018050238 0.013265187 0.0040207426 -0.00090468215 -0.007357522 -0.0042028567
-0.029689468 -0.0004020791 0.019557185 0.0073435623 -0.026024284 -0.029367013 -0.014940458 0.041723773
0.031615518 0.037028447 -0.0049011717 -0.0016649824 -0.011929787 0.006115904 -0.009943562 0.041382056
0.00657349 -0.032077674 0.0034118062 0.028849063 0.0011216081 -0.0073450105 0.00069020793 -0.019756721
0.05480575 -0.045100834 -0.0024471055 -0.0019067659 0.026207868 -0.025469335 -0.02882379 -0.0020096188
-0.005407793 -0.025109095 -0.00076668645 0.009398035 -0.0083305035 -0.008907555 -0.00046174452 0.032471616
0.010355839 -0.014993199 0.004083769 0.03917229 0.012543506 -0.00070425315 -0.06269697 0.019620743
-0.0005881534 0.0042651044 0.058149014 -0.007859237 0.010010213 -0.005856637 0.016872095 0.010643071
0.00075771334 -0.0038184873 -0.035760585 -0.032403234 0.008982581 0.002002904 -0.007161305 -0.012734939
-0.0092083635 0.0038702942 -0.013892488 -0.0065842583 0.0034010732 -0.035010125 0.020898731 0.010807319
-0.0056035016 -0.026882945 0.015108278 -0.011567518 -0.014638277 0.0026939923 0.032844357 -0.004537235
0.006760007 -0.0037171373 -0.0020908066 -0.027841622 0.0006315284 -0.0048809783 -0.01099616 -0.0399333
-0.03009748 -0.049362566 -0.041445285 0.019183349 0.046367545 -0.050346788 -0.0030486844 -0.0008887928
-0.046669487 -0.044602744 0.03230898 0.005984662 0.007517958 0.03608919 0.027315788 0.0056051267
0.0031819032 0.0211079 -0.0015105513 0.0046894774 0.06165773 -0.009768805 0.0087146405 0.0008939615
-0.009831885 0.014129965 0.0023599952 -0.03598694 -0.0037842486 0.0015376634 -0.009151071 -0.004605825
-0.006055751 0.0045805015 -0.05302701 0.011739924 -0.021732086 0.07109618 0.004184357 -0.05043958
0.017514914 -0.0111374 -0.021595985 -0.015479068 -0.0071622636 0.00020636772 -0.033904575 -0.007148325
-0.034389317 0.047369435 0.0013233715 0.000265861 0.060311668 0.008635684 0.014732295 -0.039490182
0.011194915 0.017891912 -0.051820062 0.0021300684 0.0024308173 0.049029835 0.019439982 0.010718757
0.03751696 -0.016484702 -0.057827614 -0.037272148 -0.006616472 0.0064316783 -0.0071505755 0.0023018357
0.0070059006 0.04351349 -5.537703e-05 -0.003094585 -0.013551778 -0.0126632275 -0.003789537 -0.044375982
0.010493621 0.04185366 0.024849363 0.004415295 0.006696363 0.0009972074 -0.003970685 -0.0014854636
00000000: fc99 a13b a2a9 303b f490 0b3d a507 8f3c
00000010: 8b50 81bc 5791 41bc 9146 5ebc 8105 4f3b
00000020: ddd0 1bbb fcbe cfbc 19c2 903b 63df 0bba
00000030: a9f2 143b 5dfe 57bb 6d5f 683c caa8 43bc
00000040: c4f7 073c a495 49bb 9aab 81bb 8d87 063c
00000050: 5908 9f3b 6f6d 1bbd de4f 433d c0ab 05bb
00000060: 6c11 d83c 7e58 323d d978 0c3d e791 453c
00000070: 3b9b c0ba 3386 7f3c c95f a8bc 0432 99bb
00000080: f1c5 d1bc 6bce 76bc 8ad6 153d e48f 903b
00000090: 4612 663c e4bd 143d 248f cbbb 3f54 913c
000000a0: 4dc1 e9bc d637 b2ba 41d3 4bbc 2e51 c7bc
000000b0: d546 4a3b 1cb9 5abc af7b 0ebc 4054 813c
000000c0: cb29 f23c 88f1 553c 5723 b53b 3bed e5bb
000000d0: 6fda 9e3c b11a f93b c970 353c 8835 e0bb
000000e0: 3f36 19bc 4351 f33c c42f 3bbd cae4 a1bc
000000f0: 0dcc 8939 713c bdbc 8db5 d4bb a06e bab9
00000100: 47d7 f93c a56f debb 196c bc3c 3c4f 053d
00000110: 5254 4b3b 6417 46bc 2832 ecba 058d 35bb
00000120: 59f5 36bb 5794 e03b 18de 933c 3a56 593c
00000130: 6fc0 833b 3128 6dba 5e17 f1bb 1eb8 89bb
00000140: 5437 f3bc 25ce d2b9 6436 a03c 44a2 f03b
00000150: e130 d5bc 1793 f0bc d3c8 74bc 8ce6 2a3d
00000160: 467f 013d 24ab 173d 029a a0bb 8a3b daba
00000170: 2775 43bc ec67 c83b 52ea 22bc 3b80 293d
00000180: 6e66 d73b e163 03bd 9c98 5f3b df54 ec3c
00000190: ec02 933a 6aae f0bb 12ef 343a d9d8 a1bc
000001a0: fe7b 603d a7bb 38bd 9e5f 20bb 72ec f9ba
000001b0: e2b1 d63c 11a5 d0bc de1f ecbc cfb3 03bb
000001c0: db33 b1bb 97b1 cdbc 75fb 48ba 37fa 193c
000001d0: aa7c 08bc fef0 11bc 4d16 f2b9 f500 053d
000001e0: 89ab 293c 09a6 75bc 23d1 853b 2073 203d
000001f0: 4783 4d3c a19d 38ba 4567 80bd aebb a03c
00000200: 4e2e 1aba 4ac2 8b3b a92d 6e3d 07c4 00bc
00000210: e001 243c 08e9 bfbb 5937 8a3c 4660 2e3c
00000220: 48a1 463a 963f 7abb b179 12bd 41b9 04bd
00000230: ad2b 133c 2743 033b 61a9 eabb 35a6 50bc
00000240: adde 16bc c3a4 7d3b 519d 63bc c3c0 d7bb
00000250: 8ae4 5e3b c766 0fbd d133 ab3c 2e11 313c
00000260: 949d b7bb 9f39 dcbc b688 773c b085 3dbc
00000270: 62d5 6fbc b18d 303b ce87 063d 16ad 94bb
00000280: 0c83 dd3b 379b 73bb ea05 09bb 1d14 e4bc
00000290: 278d 253a 9df0 9fbb 3d29 34bc 1a91 23bd
000002a0: fe8e f6bc 6730 4abd 88c2 29bd 6626 9d3c
000002b0: e5eb 3d3d 6f38 4ebd 70cc 47bb e0fd 68ba
000002c0: 8128 3fbd 5eb1 36bd 6c56 043d fc1a c43b
000002d0: 3459 f63b 42d2 133d 5cc5 df3c 36ab b73b
000002e0: 7a87 503b 7aea ac3c b1fd c5ba 30aa 993b
000002f0: d18c 7c3d 560d 20bc dac7 0e3c be58 6a3a
00000300: ea15 21bc 5e81 673c 26aa 1a3b 0b67 13bd
00000310: 2801 78bb 6c8b c93a 60ee 15bc 76ec 96bb
00000320: 526f c6bb 0818 963b da32 59bd cf58 403c
00000330: 7d07 b2bc e09a 913d ee1c 893b bc99 4ebd
00000340: 707b 8f3c a479 36bc 10ea b0bc eb9b 7dbc
00000350: 6cb1 eabb 6a64 5839 86df 0abd 7f3c eabb
00000360: d0db 0cbd 7406 423d fb74 ad3a 4263 8b39
00000370: 5e09 773d af7c 0d3c b95f 713c 75c0 21bd
00000380: e06a 373c 0f92 923c 4641 54bd 9e98 0b3b
00000390: 594e 1f3b 82d3 483d 9940 9f3c ba9d 2f3c
000003a0: 62ab 193d ed0a 87bc a6dc 6cbd aeaa 18bd
000003b0: fdce d8bb d4c0 d23b 604f eabb 65da 163b
000003c0: c191 e53b 343b 323d a244 68b8 85ce 4abb
000003d0: 4708 5ebc 6d79 4fbc e159 78bb 97c3 35bd
000003e0: 70ed 2b3c be6e 2b3d e490 cb3c 2eae 903b
000003f0: 2a6d db3b bab4 823a 851c 82bb e3b3 c2ba

bias f4 [30]
-0.011532168 0.041498587 -0.0057712323 0.032861367 -0.045781907 0.02065497 0.062036544 -0.064806275
0.013259199 -0.04293103 -0.06653808 0.027482716 0.016561694 0.06475507 0.062817715 0.016325293
0.06949854 -0.03735181 0.055237368 0.038834322 0.04996288 0.031007502 0.007877342 0.05636033
-0.019328928 -0.021166265 0.06875608 -0.01347394 0.066808745 -0.046661444
00000000: 6bf1 3cbc 6cfa 293d 9b1c bdbb a499 063d
00000010: cf85 3bbd 9d34 a93c 081a 7e3d 27b9 84bd
00000020: 1d3d 593c 73d8 2fbd 1e45 88bd 6f23 e13c
00000030: 64ac 873c 4e9e 843d 93a6 803d 9fbc 853c
00000040: 4055 8e3d 36fe 18bd 9440 623d bd10 1f3d
00000050: e0a5 4c3d 7203 fe3c f80f 013c 17da 663d
00000060: b357 9ebc e064 adbc fdcf 8c3d cdc1 5cbc
00000070: 06d3 883d 1220 3fbd

weight f4 [30, 183]
-0.0005321244 -0.010620782 -0.030684689 0.009533148 -0.033882916 0.026510252 0.013114134 -0.0129553825
-0.0027939195 0.031834714 -0.017170582 -0.0019864738 -0.038420275 -0.013274404 0.00029339295 0.023613857
-0.00030986615 0.0050692596 -0.003002462 0.05146991 -0.015557537 0.06378517 -0.020839192 -0.0062114713
0.0074321846 0.05077092 0.037241876 0.026559042 -0.01928312 0.009469465 -0.04042493 0.053770725
0.036992263 0.069137126 -0.051250055 0.0019637244 -0.02118359 -0.05639681 -0.005975747 -0.0024198159
-0.002827082 -0.0077319522 -0.023370596 -0.053725686 -0.0047257086 0.00042933616 -0.020595757 0.040391628
-0.03080349 -0.024240892 -0.0013744194 0.04523121 -0.0005458081 -0.01185417 0.011153698 -0.012974232
-0.004868871 -0.025317024 -0.032859474 -0.033627056 -0.00026598497 -0.021990353 0.0003282227 -0.025665946
0.04189002 0.0006565012 0.058443703 0.027910817 -0.032535277 -0.0042428323 -0.005065223 0.0022876507
-0.022458535 -0.0034104667 0.05897 0.0034204973 0.002356566 0.0024275442 -0.0060478784 -0.0015297752
0.036533944 -0.006160876 0.029350977 0.030208968 0.020243384 0.016243977 0.054877765 -0.021353101
0.05680921 0.011586398 0.0046370276 -0.015207521 -0.010412518 0.0066762045 1.5362762e-05 0.0043759802
0.0021266951 -0.030401185 0.007382928 0.01841841 0.023348264 0.0034417664 -0.00526698 0.022797931
0.054925777 0.054280583 0.003635333 -0.014660868 0.034016106 -0.04734028 -0.048614636 0.0024229195
0.0020115946 -0.004918166 -0.0058742138 -0.004076833 -0.0046635685 -0.0065650055 0.0035320562 -0.004525814
-0.016019497 -0.029327828 -0.0015076776 -0.03407057 0.05921739 0.00026288466 -0.0048039425 -0.009259843
0.019937992 0.0010227516 -0.025437942 -0.012883906 0.0040943106 0.041404802 -0.012690149 0.0012958993
0.008971697 -0.0049606306 -0.02026388 -0.0015275333 -0.016215593 0.0027689873 0.0055994163 -0.009536526
-0.0034345689 -0.0060184086 0.0054940474 -0.006575137 0.009427772 -0.044276796 0.004296584 0.0020617791
-0.0050578946 -0.031040072 0.03729724 -0.00534997 0.011721026 -0.006592287 -0.01541259 0.0018977211
-0.006452236 -0.0031775024 0.008189839 -0.044772703 -0.0028986337 -0.004096477 -0.002264609 -0.04109208
-0.043007273 -0.017677348 -0.03217776 -0.024884967 -0.053543415 0.0110942 0.0045507066 0.0056818095
0.038650602 -0.027997652 0.010635037 -0.002491669 -0.0056766383 -0.041034177 -0.0067174733 -0.008654022
-0.0070231077 0.03581609 -0.012295353 -0.024454594 -0.016589127 -0.006543662 0.013127794 2.7684437e-06
0.03171502 0.03172215 -0.0069751134 0.043574486 -0.0017249228 0.0063154255 0.0391915 -0.0077136564
0.0012479676 -0.0030469785 0.06592367 -0.0129485745 0.019206984 0.011549277 0.0033817145 -0.010045685
0.01411632 -0.027985416 0.02808077 0.02628342 0.0031696265 -0.059172463 0.026754914 -0.012328941
-0.045168553 -0.02765977 -0.004701149 0.017311173 0.027082069 0.009095948 0.024767464 0.00036972883
-0.008000072 0.024619509 -0.017573657 -0.0063381316 6.150872e-05 -0.060030367 -0.043358088 0.013378531
0.034723952 -0.0058012074 -0.02818888 -0.025665985 -0.016081044 -0.04681509 0.0016561958 -0.0012409684
-0.036475252 0.030305155 0.00089726644 -0.0010574496 0.0035800592 -0.0018742253 -0.005002521 -0.033158395
0.0007171719 0.04080815 -0.03769242 -0.048566904 -0.0031335738 -0.013251657 0.004688505 -0.030794917
00000000: 447e 0bba ca02 2ebc 755e fbbc ec30 1c3c
00000010: d0c8 0abd 072c d93c aadc 563c d042 54bc
00000020: 311a 37bb 1e65 023d 52a9 8cbc 802f 02bb
00000030: 945e 1dbd e37c 59bc 89d2 9939 d971 c13c
00000040: 8875 a2b9 081c a63b f4c4 44bb 1dd2 523d
00000050: 0ae5 7ebc cda1 823d f4b6 aabc 9989 cbbb
00000060: af89 f33b 2bf5 4f3d f08a 183d 5992 d93c
00000070: a2f7 9dbc d125 1b3c 9d94 25bd b13e 5c3d
00000080: 3385 173d c497 8d3d 94eb 51bd d4b1 003b
00000090: 3589 adbc 5700 67bd 33d0 c3bb c695 1ebb
000000a0: 9146 39bb 515c fdbb b173 bfbc 770f 5cbd
000000b0: 1eda 9abb 8618 e139 6fb8 a8bc b171 253d
000000c0: 9a57 fcbc d694 c6bc dd25 b4ba 5c44 393d
000000d0: 9014 0fba fe37 42bc 00be 363c e091 54bc
000000e0: 0d8b 9fbb a665 cfbc a897 06bd 86bc 09bd
000000f0: e673 8bb9 1d25 b4bc 4e15 ac39 6441 d2bc
00000100: df94 2b3d 0d19 2c3a aa62 6f3d 3aa5 e43c
00000110: b643 05bd 7507 8bbb 2cfa a5bb 69ec 153b
00000120: f6fa b7bc 2382 5fbb 878a 713d 6c2a 603b
00000130: 9e70 1a3b 6f17 1f3b 482d c6bb bd82 c8ba
00000140: 9ea4 153d 2ce1 c9bb 7671 f03c cc78 f73c
00000150: 74d5 a53c 1712 853c 82c7 603d b3ec aebc
00000160: c6b0 683d e0d4 3d3c 35f2 973b f728 79bc
00000170: 4499 2abc 10c4 da3b 48df 8037 6264 8f3b
00000180: 0660 0b3b e80b f9bc 7dec f13b 35e2 963c
00000190: dc44 bf3c 428f 613b a196 acbb bac2 ba3c
000001a0: daf9 603d 5155 5e3d c43e 6e3b 2334 70bc
000001b0: 7954 0b3d e2e7 41bd 2420 47bd d8c9 1e3b
000001c0: f5d4 033b 9128 a1bb 7a7c c0bb f496 85bb
000001d0: d9d0 98bb 421f d7bb 127a 673b 484d 94bb
000001e0: 523b 83bc ea40 f0bc 449d c5ba 958d 0bbd
000001f0: ef8d 723d c8d3 8939 646a 9dbb 99b6 17bc
00000200: 0055 a33c d90d 863a 3b63 d0bc 0517 53bc
00000210: 9129 863b 1598 293d 58ea 4fbc 2adb a93a
00000220: 06fe 123c c98c a2bb 7000 a6bc 8337 c8ba
00000230: 90d6 84bc e677 353b 4f7b b73b 173f 1cbc
00000240: 8116 61bb 1236 c5bb 6907 b43b 3f74 d7bb
00000250: f176 1a3c 965b 35bd 5cca 8c3b ea1e 073b
00000260: b2bc a5bb c047 febc fec4 183d cd4e afbb
00000270: 8c09 403c 1d04 d8bb 1685 7cbc f4bc f83a
00000280: 476d d3bb a53d 50bb ad2e 063c 9563 37bd
00000290: 01f7 3dbb bd3b 86bb d669 14bb 2b50 28bd
000002a0: 6528 30bd 16d0 90bc d4cc 03bd 8fdb cbbc
000002b0: 5750 5bbd 73c4 353c 181e 953b 792e ba3b
000002c0: 1850 1e3d 555b e5bc 943e 2e3c 454b 23bb
000002d0: 1803 babb 7413 28bd 401e dcbb 99c9 0dbc
000002e0: 1922 e6bb e4b3 123d 7372 49bc 0055 c8bc
000002f0: ece5 87bc 376c d6bb f515 573c 80c9 3936
00000300: 9ce7 013d 16ef 013d 7e8f e4bb 297b 323d
00000310: ce16 e2ba a1f1 ce3b 4487 203d d7c2 fcbb
00000320: d892 a33a d1af 47bb fd02 873d 4226 54bc
00000330: f757 9d3c 2e39 3d3c c19f 5d3b a896 24bc
00000340: 2348 673c ac41 e5bc a509 e63c 5450 d73c
00000350: 82b9 4f3b d35e 72bd 1f2d db3c 54ff 49bc
00000360: a902 39bd be96 e2bc 190c 9abb 29d0 8d3c
00000370: 37db dd3c 2c07 153c 23e5 ca3c 2ad8 c139
00000380: bc12 03bc daae c93c a1f6 8fbc 1ab0 cfbb
00000390: 3efe 8038 67e2 75bd 4098 31bd a031 5b3c
000003a0: b43a 0e3d 0e18 bebb 5eec e6bc 7941 d2bc
000003b0: 65bc 83bc 2ec1 3fbd b614 d93a fda7 a2ba
000003c0: 1367 15bd 8442 f83c 8836 6b3a 1f9a 8aba
000003d0: 6d9f 6a3b 91a8 f5ba 30ec a3bb 19d1 07bd
000003e0: 9700 3c3a 7226 273d 5e63 1abd 17ee 46bd
000003f0: a55c 4dbb 7a1d 59bc 08a2 993b 9f45 fcbc

bias f4 [30]
0.015492579 -0.06235727 -0.019275544 0.03385723 -0.008230393 0.04787235 -0.011999653 0.011347008
0.003195187 0.052179914 -0.0041637155 0.020931665 -0.084185086 -0.035583835 -0.003736309 -0.05186993
0.033955473 0.016929463 -0.048080042 -0.0029105782 -0.05369983 -0.052630324 -0.027489603 -0.061572645
-0.037347026 -0.046715595 -0.07468524 0.040780578 0.05685583 0.028475607
00000000: 96d4 7d3c 566a 7fbd bfe7 9dbc e1ad 0a3d
00000010: c5d8 06bc cc15 443d 319a 44bc cde8 393c
00000020: 5866 513b 9bba 553d c76f 88bb e278 ab3c
00000030: 3b69 acbd 5bc0 11bd dddc 74bb 9075 54bd
00000040: e514 0b3d a8af 8a3c 94ef 44bd 66bf 3ebb
00000050: 5af4 5bbd e592 57bd e031 e1bc 9933 7cbd
00000060: 32f9 18bd da58 3fbd 93f4 98bd 8909 273d
00000070: a9e1 683d ad45 e93c

weight f4 [183, 30]
-0.022361202 0.031840824 0.019627528 -0.054603197 0.073405795 -0.020355817 0.016279316 0.07784776
-0.0630116 -0.003983663 0.04020379 -0.08579435 -0.08399827 -0.05430543 -0.03210203 -0.06939958
-0.013157149 -0.009025088 -0.07094611 -0.041588984 0.055022884 -0.058797337 0.016031316 -0.02963008
-0.030063184 -0.020427857 -0.08541062 -0.019120628 -0.05077373 0.020539068 -0.010653282 0.090840705
0.10578172 -0.022530945 0.07617685 0.030005671 0.019856798 0.016400516 0.07341196 0.10024467
0.058307987 -0.070229106 0.022916611 0.05735725 0.0682119 -0.07196393 0.063876085 -0.068600744
0.02227786 -0.09465164 -0.118262835 0.106728375 -0.04000576 -0.11298432 0.06287161 0.020182021
0.0689949 0.03955675 -0.07800135 -0.029756084 -0.011780273 0.03801931 0.010971858 -0.048877258
0.020774597 0.10820468 -0.0125303045 -0.078814626 -0.05179959 0.09867398 -0.015784133 -0.101991385
0.095263526 0.005635336 0.013729665 -0.03527122 -0.059319478 0.05203486 -0.08566537 0.06330093
0.05636927 0.08189096 0.06803893 0.03364464 0.0050716884 0.0062456066 -0.08296448 0.041669063
-0.014129395 -0.027818672 -0.008694059 0.015027623 -0.045709223 0.008771838 0.0740793 -0.069214605
0.012397815 0.024213633 -0.009726835 0.023434423 -0.009754354 0.017332042 0.032889675 0.04985367
-0.06843786 0.010539731 -0.0002817512 0.058163494 0.003496574 -0.044825967 -0.06219221 -0.040153146
-0.008499282 0.0071751187 -0.051515933 -0.06731916 -0.076711155 -0.056719534 0.029417027 0.08865073
0.0069676572 0.01570161 0.009888674 0.055325653 -0.023621768 0.0014003265 0.008626083 -0.06593179
-0.012614412 -0.019816337 -0.0001579728 -0.00018809503 0.02955703 -0.026908003 -0.02395443 0.0017626014
0.016868947 -0.014502434 0.015824523 -0.040395364 -0.029368924 -0.01793687 -0.029917598 0.027613457
-0.061319664 0.049943272 -0.033768218 0.01533434 0.0017626707 -0.009669824 -0.0141370185 0.101724155
-0.051605843 -0.066617 0.013548424 -0.07430944 -0.055977922 0.03000459 0.065448396 -0.01134353
0.02996974 -0.05522798 0.014034214 -0.022841945 0.010504361 0.05060351 0.07778865 -0.04510236
0.086725555 -0.011004506 0.016635051 0.0420239 -0.028092597 -0.0012633821 -0.08079579 -0.056546457
-0.07490304 0.055104308 -0.050591774 0.009778805 -0.04699602 -0.025165714 0.05945387 -0.015321475
0.004397542 -0.004098059 -0.020453148 0.038079873 0.01410342 -0.029225929 0.02001396 -0.024861528
0.008065566 0.10365138 0.06926197 0.034355845 -0.050786786 0.018004017 0.026655382 0.07329367
-0.007449275 0.008992098 0.011328729 0.027629893 0.027521238 0.014474242 0.0072359275 0.026120309
-0.048626184 -0.025119346 -0.077569425 0.07354594 -0.017298212 -0.040152006 0.07420738 -0.004488084
0.0076163863 0.047354512 0.042275317 -0.07336021 -0.09997364 0.09103376 -0.043912012 -0.09161668
0.049962215 -0.0010798711 -0.0028904986 -0.042431053 -0.03646592 -0.041735772 0.014864596 -0.008344524
0.13842557 0.12232971 0.026803046 0.024741268 -0.04848726 0.0074781007 -0.07692666 0.03572819
-0.07933341 0.037903342 -0.032797683 -0.06561726 -0.028904654 -0.0957715 -0.09717194 0.008739978
-0.021687979 0.04759569 0.004647759 0.012935988 0.06361605 0.056393582 0.02175093 0.012447087
00000000: d72e b7bc 866b 023d e9c9 a03c 9aa7 5fbd
00000010: c755 963d 3ec1 a6bc 335c 853c a56e 9f3d
00000020: 3a0c 81bd 6389 82bb bbac 243d f3b4 afbd
00000030: 4907 acbd 5f6f 5ebd 6b7d 03bd 5e21 8ebd
00000040: 1591 57bc f6dd 13bc 324c 91bd 3659 2abd
00000050: ad5f 613d 7ad5 70bd 1b54 833c c8ba f2bc
00000060: 1147 f6bc 5258 a7bc c3eb aebd dda2 9cbc
00000070: 1df8 4fbd 8c41 a83c 1a8b 2ebc b10a ba3d
00000080: 16a4 d83d d192 b8bc 9c02 9c3d 74ce f53c
00000090: b9aa a23c 605a 863c 0259 963d 144d cd3d
000000a0: 5bd4 6e3d 47d4 8fbd 9ebb bb3c 70ef 6a3d
000000b0: aeb2 8b3d d361 93bd 77d1 823d 8c7e 8cbd
000000c0: 0f80 b63c b8d8 c1bd c933 f2bd 6894 da3d
000000d0: 14dd 23bd 5364 e7bd d5c2 803d c454 a53c
000000e0: 334d 8d3d 4206 223d 2cbf 9fbd 08c3 f3bc
000000f0: 0c02 41bc 23ba 1b3d 4fc3 333c 8533 48bd
00000100: 7d2f aa3c 6a9a dd3d e84b 4dbc 9069 a1bd
00000110: cf2b 54bd 9515 ca3d ba4d 81bc dce0 d0bd
00000120: 8619 c33d a0a8 b83b 64f2 603c 8e78 10bd
00000130: fbf8 72bd 8122 553d 5371 afbd eba3 813d
00000140: 77e3 663d 73b6 a73d ff57 8b3d f6ce 093d
00000150: 6830 a63b f2a7 cc3b 48e9 a9bd 2ead 2a3d
00000160: fa7e 67bc fce3 e3bc 8771 0ebc 6b36 763c
00000170: 9839 3bbd c1b7 0f3c e3b6 973d 63c0 8dbd
00000180: 3420 4b3c ab5b c63c 4e5d 1fbc 8cf9 bf3c
00000190: bad0 1fbc edfb 8d3c 53b7 063d 5d33 4c3d
000001a0: 2629 8cbd d6ae 2c3c 02b8 93b9 d83c 6e3d
000001b0: c726 653b 6f9b 37bd 42bd 7ebd a077 24bd
000001c0: 9340 0bbc 421d eb3b 5f02 53bd a1de 89bd
000001d0: bd1a 9dbd be52 68bd fafb f03c 848e b53d
000001e0: f250 e43b aaa0 803c 1b04 223c 279d 623d
000001f0: 7082 c1bc 298b b73a 6a54 0d3c 3f07 87bd
00000200: aeac 4ebc df55 a2bc 80a5 25b9 603b 45b9
00000210: 9621 f23c 2c6e dcbc 153c c4bc 1707 e73a
00000220: bf30 8a3c 9e9b 6dbc 6ea2 813c 9c75 25bd
00000230: 1997 f0bc 58f0 92bc c015 f5bc 9e35 e23c
00000240: 542a 7bbd 5191 4c3d 8b50 0abd e23c 7b3c
00000250: 6a09 e73a 2e6e 1ebc f49e 67bc c154 d03d
00000260: a660 53bd 7e6e 88bd 35fa 5d3c 8c2f 98bd
00000270: 1b49 65bd 30cc f53c cf09 863d 37da 39bc
00000280: 1a83 f53c bc36 62bd c3ef 653c 081f bbbc
00000290: 7c1a 2c3c a045 4f3d a84f 9f3d 41bd 38bd
000002a0: 2b9d b13d 3e4c 34bc 3b46 883c 4121 2c3d
000002b0: 7222 e6bc 1298 a5ba 4378 a5bd 429d 67bd
000002c0: c466 99bd 0eb5 613d 5239 4fbd 4837 203c
000002d0: e67e 40bd 5428 cebc e785 733d ed06 7bbc
000002e0: 4219 903b 0349 86bb 5c8d a7bc a4f9 1b3d
000002f0: 0812 673c 376b efbc 51f4 a33c 67aa cbbc
00000300: 7025 043c 2d47 d43d 38d9 8d3d b7b8 0c3d
00000310: ce05 50bd 297d 933c 635c da3c fe1a 963d
00000320: 0c19 f4bb 9853 133c 229c 393c 1658 e23c
00000330: 3874 e13c 5f25 6d3c 5c1b ed3b 42fa d53c
00000340: 402c 47bd 16c7 cdbc b8dc 9ebd 419f 963d
00000350: fbb4 8dbc 6e76 24bd 0afa 973d c710 93bb
00000360: e192 f93b cef6 413d e228 2d3d e13d 96bd
00000370: fbbe ccbd e86f ba3d 15dd 33bd 87a1 bbbd
00000380: 2ea5 4c3d 768a 8dba 856e 3dbb 2fcc 2dbd
00000390: 4a5d 15bd 21f3 2abd a28a 733c 78b7 08bc
000003a0: 6fbf 0d3e 0088 fa3d 1092 db3c 33ae ca3c
000003b0: 949a 46bd db0a f53b ba8b 9dbd b957 123d
000003c0: 8e79 a2bd 8940 1b3d dd56 06bd 5862 86bd
000003d0: 74c9 ecbc d923 c4bd 1502 c7bd 2032 0f3c
000003e0: fdaa b1bc b3f3 423d 3a4c 983b 77f1 533c
000003f0: 2249 823d f5fc 663d 022f b23c deee 4b3c

bias f4 [183]
-0.11913196 0.26950055 0.34953046 -0.14103097 0.0051378757 -0.30974713 0.17714268 0.39076933
-0.3155896 0.18568784 -0.37902048 -0.20415871 0.30528414 0.2077793 0.27166796 -0.0128582455
0.19774435 -0.14596358 -0.16545057 -0.3699922 0.3459704 -0.008329769 0.2278668 0.07151731
-0.23116824 0.05047863 0.27436906 -0.063673064 0.1483067 -0.36629242 -0.32024094 0.27498206
0.30457395 0.25252435 -0.02986531 0.33187783 0.005755378 -0.27026477 -0.26972133 -0.100488916
-0.23635116 -0.084506184 -0.34738877 -0.3185682 0.2837931 -0.14792027 0.33011732 -0.3179521
0.3193382 -0.32884324 0.30784997 -0.33355922 -0.17490532 -0.20255353 0.2735913 -0.25850096
0.3053878 0.3994068 -0.30491292 0.21042357 -0.27450833 -0.32459494 0.29464176 0.25558242
0.059615154 -0.023227934 -0.33393204 0.31505108 -0.055319995 -0.23738211 -0.22257872 0.08814212
-0.27266183 0.27346045 0.18877305 -0.05028163 0.3090008 0.34705305 -0.26492116 0.16959426
0.22532524 -0.14484085 -0.02824975 -0.3053369 0.31190217 0.052783996 0.24260451 -0.19277614
-0.20535031 -0.061340224 0.17514817 -0.28787532 0.31898215 -0.24969438 0.2052582 -0.08316012
-0.19804783 0.07254066 0.3529261 -0.23836368 0.32282358 0.19747005 0.35484368 -0.2806506
0.0028708011 0.2805236 -0.1307027 0.27617168 0.22382167 0.088749014 0.27414653 0.317761
0.19596523 0.08131099 -0.15476778 -0.20918004 -0.09472568 0.32581893 0.035940666 0.2851011
0.37035856 0.33872584 0.35123116 -0.018011007 0.29460967 -0.35855258 0.36542898 0.23886791
-0.26831442 0.32008523 -0.0074637798 -0.12543158 0.2568695 -0.3008781 -0.29805255 0.014594781
0.09310221 0.069906205 0.013456021 -0.3208669 0.042001266 -0.026702322 -0.19685258 0.11978925
0.1993508 0.26354954 0.16960844 0.22572021 -0.18633044 -0.25755894 0.15663533 -0.37804016
0.30615345 0.020259771 -0.16571742 -0.3422232 -0.16336301 0.37232217 -0.3340226 -0.063200034
0.31541753 0.40141767 -0.23327674 0.051407855 0.30957636 -0.31447256 -0.27054107 0.08810359
0.36089 0.16142893 -0.121686034 0.25838894 0.1726567 -0.3620311 -0.16982771 -0.31018645
-0.2857167 -0.28341982 -0.116885304 0.37861276 0.018999187 -0.10444546 0.19319788
00000000: 75fb f3bd fafb 893e a8f5 b23e 6c6a 10be
00000010: a05b a83b 2d97 9ebe e464 353e eb12 c83e
00000020: f694 a1be f424 3e3e f90e c2be fb0e 51be
00000030: 344e 9c3e 19c4 543e 1018 8b3e 64ab 52bc
00000040: 7f7d 4a3e 7a77 15be e06b 29be 9e6f bdbe
00000050: 0823 b13e 9579 08bc ea55 693e ab77 923d
00000060: 5eb7 6cbe aec2 4e3d 1a7a 8c3e 0667 82bd
00000070: b6dd 173e ae8a bbbe 9ff6 a3be 73ca 8c3e
00000080: 1ef1 9b3e df4a 813e 18a8 f4bc e4eb a93e
00000090: 9c97 bc3b 2560 8abe ea18 8abe 22cd cdbd
000000a0: 0a06 72be 9411 adbd f1dc b1be 5f1b a3be
000000b0: 544d 913e 6978 17be 2305 a93e 9eca a2be
000000c0: 4c80 a33e 245e a8be 839e 9d3e 46c8 aabe
000000d0: 611a 33be 316a 4fbe 2914 8c3e 3d5a 84be
000000e0: ca5b 9c3e 0c7f cc3e 8c1d 9cbe 4779 573e
000000f0: 5b8c 8cbe 4f31 a6be 49db 963e b3db 823e
00000100: 052f 743d 8248 bebc 24f9 aabe 604e a13e
00000110: 3897 62bd 4c14 73be adeb 63be db83 b43d
00000120: 559a 8bbe 0203 8c3e b94d 413e 1cf4 4dbd
00000130: 5a35 9e3e f0b0 b13e bfa3 87be 1eaa 2d3e
00000140: a9bb 663e 2951 14be 056c e7bc 1e55 9cbe
00000150: a4b1 9f3e 0834 583d 516d 783e 1c67 45be
00000160: 5a47 52be e33f 7bbd 0b5a 333e 6564 93be
00000170: a151 a33e e2af 7fbe 352f 523e da4f aabd
00000180: 0dcd 4abe 3390 943d bbb2 b43e 9c15 74be
00000190: 2249 a53e 9735 4a3e 12ae b53e 6fb1 8fbe
000001a0: 0d24 3c3b caa0 8f3e eed6 05be 6066 8d3e
000001b0: 8231 653e 0bc2 b53d ef5c 8c3e 92b1 a23e
000001c0: 1cab 483e 6086 a63d 727b 1ebe 4b33 56be
000001d0: 8aff c1bd bdd1 a63e 8536 133d c5f8 913e
000001e0: a39f bd3e 796d ad3e 92d4 b33e d28b 93bc
000001f0: 14d7 963e 3494 b7be 8219 bb3e ca99 743e
00000200: 8260 89be 36e2 a33e b992 f4bb 2371 00be
00000210: 6684 833e b20c 9abe 589a 98be f31e 6f3c
00000220: 5fac be3d fc2a 8f3d a576 5c3c ab48 a4be
00000230: 8509 2c3d d4be dabc b993 49be 1154 f53d
00000240: 9e22 4c3e f7ef 863e d6ad 2d3e 3323 673e
00000250: 68cd 3ebe c4de 83be 0365 203e 7b8e c1be
00000260: 25c0 9c3e d2f7 a53c d4b1 29be e137 afbe
00000270: a248 27be 03a1 be3e 0305 abbe 056f 81bd
00000280: 687e a13e 9e86 cd3e 19e0 6ebe 0b91 523d
00000290: cb80 9e3e 8c02 a1be 5c84 8abe a86f b43d
000002a0: 93c6 b83e a04d 253e 8736 f9bd 8e4b 843e
000002b0: ebcc 303e 245c b9be 51e7 2dbe c2d0 9ebe
000002c0: 7649 92be 671c 91be 9061 efbd 88d9 c13e
000002d0: 2fa4 9b3c 80e7 d5bd aad5 453e

weight f4 [366, 183]
0.0025149172 -0.028181557 -0.081200905 0.0362883 0.023471678 0.08664651 0.033400256 -0.031557843
-0.0045195553 0.018032787 0.0374077 0.055709302 0.014409384 -0.045968678 -0.02004032 -0.01932096
0.018290881 -0.06478053 -0.02019737 0.025629444 0.01069631 0.016383013 -0.011940811 -0.029172346
0.058817334 -0.060926773 -0.0060407673 0.03494171 0.025832629 -0.0054483726 -0.026495364 -0.060566798
-0.015383107 0.0037597797 -0.004959598 -0.05398452 -0.0041590603 -0.029342324 0.046148993 -0.015413004
0.020602599 0.03742663 -0.027463963 0.020829178 0.029485267 -0.0054294346 0.020123973 0.019009339
-0.04632671 -0.003987686 -0.0080683455 0.02004865 0.039067004 -0.006564897 0.05266627 -0.027489407
-0.05977915 -0.053415667 0.024686897 0.029971108 0.043215126 0.07458458 -0.036463358 -0.039044466
-0.0014986068 0.02547727 0.0033651376 -0.0038274613 -0.038788583 0.07095227 -0.06722511 0.05824643
0.026793122 -0.0008179394 -0.026395973 -0.004452562 -0.0043836753 -0.0044641905 -0.018550802 0.012837027
0.0311208 -0.022389442 0.01681769 0.066351585 -0.056560747 0.01820487 -0.05130838 0.016412897
0.0007614645 0.02063242 0.0373736 -0.0082816165 -0.031445768 0.05971094 0.04128 -0.00096738903
0.017339686 0.05185167 -0.044133633 0.021935401 -0.04675691 -0.041726924 -0.03799471 0.025199642
-0.0008323033 -0.028089877 0.008434246 0.029713606 -0.035174526 -0.016149394 0.008657201 0.000708346
0.035681665 0.004823871 -0.0350219 0.0017936344 -0.021290304 -0.104413256 0.053066738 0.018727073
-0.049094968 -0.01954776 -0.0021861747 0.039076585 -0.03417208 0.07036191 -0.084883794 -0.03742543
-0.020708269 0.00397309 0.046651084 0.036367532 -0.054628585 0.034395866 0.028183633 -0.062635764
-0.03955192 -0.036094233 -0.016295997 0.072688654 -0.045682892 0.074421145 0.0056755524 0.02426671
0.011740025 -0.008042983 -0.014211185 -0.0014335586 0.054816198 0.03486433 0.04723609 0.08458852
-0.08203637 0.014715895 -0.0057627303 0.08968003 0.012366727 -0.060310196 0.02546209 -0.048982523
-0.0022959886 0.0054614116 0.062108275 -0.021541374 0.03737018 0.051970415 0.013426995 -0.02411751
0.0156035675 0.037980113 0.023954527 -0.030526327 0.03978519 0.041475374 0.055413876 -0.030662498
-0.0041823555 0.0668158 0.0027073214 -0.07413333 -0.015031955 -0.0025737553 0.020618597 0.020066004
0.011635703 -0.005701905 0.038186766 -0.036059286 0.032359183 0.015439009 -0.034546744 -0.024306549
-0.010386248 -0.006863861 0.020699615 -0.043012466 -0.035929613 0.028322952 -0.010416221 -0.043088693
-0.022943784 0.052261494 -0.0014575054 -0.04086231 -0.045400146 -0.049125463 0.0020800258 -0.03298469
-0.028072065 0.044003107 0.038168274 0.0023446651 -0.026767543 -0.0077109253 0.017201986 -0.031681806
-0.035945777 -0.070697494 0.040447664 -0.032078404 0.00973839 -0.03057606 0.029782599 0.028081696
0.023887686 -0.021394182 0.022561213 -0.009819295 -0.020442715 -0.02205519 -0.030811016 0.052353527
0.027149271 -0.04740268 -0.02991262 -0.05528182 0.021319333 -0.021892255 0.024356823 -0.03138412
0.033989858 -0.01616028 0.001998078 0.008367376 -0.06687575 0.011711773 0.031372774 -0.029841872
-0.016136752 -0.018619472 -0.025658255 -0.035914928 0.033111084 -0.043099068 0.04785012 -0.049814843
00000000: 4fd1 243b 02dd e6bc a94c a6bd 0aa3 143d
00000010: ad47 c03c ba73 b13d b5ce 083d cc42 01bd
00000020: c718 94bb 7fb9 933c d138 193d 702f 643d
00000030: 5615 6c3c a749 3cbd 992b a4bc fd46 9ebc
00000040: c2d6 953c a8ab 84bd f474 a5bc d7f4 d13c
00000050: 933f 2f3c ab35 863c 64a3 43bc d8fa eebc
00000060: 72ea 703d 5a8e 79bd a1f1 c5bb 0a1f 0f3d
00000070: f39e d33c 4388 b2bb ce0c d9bc e414 78bd
00000080: 6d09 7cbc a366 763b 2084 a2bb df1e 5dbd
00000090: ba48 88bb 505f f0bc ba06 3d3d d386 7cbc
000000a0: c8c6 a83c aa4c 193d 1bfc e0bc f4a1 aa3c
000000b0: 168b f13c 66e9 b1bb 08db a43c 79b9 9b3c
000000c0: 14c1 3dbd 22ab 82bb 1831 04bc 113d a43c
000000d0: b904 203d 591e d7bb 96b8 573d 7731 e1bc
000000e0: fbda 74bd 63ca 5abd 2d3c ca3c f885 f53c
000000f0: 5802 313d cdbf 983d 9a5a 15bd 17ed 1fbd
00000100: e66c c4ba b5b5 d03c a489 5c3b 25d6 7abb
00000110: c7e0 1ebd 6c4f 913d 52ad 89bd cf93 6e3d
00000120: 407d db3c fc6a 56ba 5e3c d8bc cce6 91bb
00000130: efa4 8fbb 5848 92bb daf7 97bc 6552 523c
00000140: 0cf1 fe3c 106a b7bc 41c5 893c 57e3 873d
00000150: 3eac 67bd 6122 953c bc28 52bd 5774 863c
00000160: 049d 473a 5205 a93c 0f15 193d 9eaf 07bc
00000170: 47cd 00bd 7593 743d 3815 293d 6198 7dba
00000180: f50b 8e3c 6b62 543d 78c5 34bd dfb1 b33c
00000190: 2c84 3fbd dae9 2abd 57a0 1bbd 7b6f ce3c
000001a0: ee2e 5aba be1c e6bc cb2f 0a3c f369 f33c
000001b0: 2a13 10bd bc4b 84bc efd6 0d3c 4cb0 393a
000001c0: f026 123d 9011 9e3b 2073 0fbd 6218 eb3a
000001d0: 0169 aebc 9ed6 d5bd 825c 593d 8569 993c
000001e0: ce17 49bd a022 a0bc ed45 0fbb c50e 203d
000001f0: 06f8 0bbd e819 903d 8ed7 adbd 684b 19bd
00000200: 63a4 a9bc b230 823b 3515 3f3d 1ff6 143d
00000210: 39c2 5fbd aee2 0c3d 5de1 e63c 2e47 80bd
00000220: 3201 22bd 8cd7 13bd 2f7f 85bc cadd 943d
00000230: fc1d 3bbd 1d6a 983d fcf9 b93b fbca c63c
00000240: 3c59 403c b7c6 03bc 08d6 68bc 3fe6 bbba
00000250: f386 603d e6cd 0e3d a17a 413d bf3c ad3d
00000260: af02 a8bd f01a 713c 49d5 bcbb 2aaa b73d
00000270: d09d 4a3c d307 77bd df95 d03c e6a1 48bd
00000280: 4c78 16bb a4f5 b23b 3f65 7e3d 8977 b0bc
00000290: 7911 193d eede 543d e6fc 5b3c 1692 c5bc
000002a0: 1ba6 7f3c 0991 1b3d 493c c43c 5912 fabc
000002b0: ccf5 223d 15e2 293d a9f9 623d eb2f fbbc
000002c0: 240c 89bb b9d6 883d 516d 313b 37d3 97bd
000002d0: 9748 76bc 73ac 28bb 55e8 a83c 7661 a43c
000002e0: ada3 3e3c 0cd7 babb ba69 1c3d e7b2 13bd
000002f0: 108b 043d e6f3 7c3c e380 0dbd 871e c7bc
00000300: 152b 2abc 3dea e0bb 3d92 a93c d72d 30bd
00000310: ee2a 13bd 8905 e83c cca8 2abc c57d 30bd
00000320: 9af4 bbbc 2610 563d c409 bfba 3d5f 27bd
00000330: 81f5 39bd c837 49bd 0b51 083b f41a 07bd
00000340: 63f7 e5bc 9a3c 343d 5656 1c3d f4a8 193b
00000350: 9b47 dbbc eeab fcbb 2eeb 8c3c c8c4 01bd
00000360: e13b 13bd d9c9 90bd 73ac 253d a564 03bd
00000370: c58d 1f3c a57a fabc a3fa f33c 960b e63c
00000380: 1cb0 c33c da42 afbc 4bd2 b83c 1ce1 20bc
00000390: 7b77 a7bc 16ad b4bc 6267 fcbc a770 563d
000003a0: 2668 de3c 5029 42bd 500b f5bc 316f 62bd
000003b0: e2a5 ae3c 6357 b3bc f687 c73c a38c 00bd
000003c0: f338 0b3d 9062 84bc 30f2 023b 5217 093c
000003d0: 27f6 88bd bde2 3f3c bd80 003d f176 f4bc
000003e0: 3931 84bc dd87 98bc 4331 d2bc 881b 13bd
000003f0: 7d9f 073d a688 30bd 7dfe 433d a60a 4cbd

bias f4 [366]
-0.15717407 -0.10505607 -0.13307826 0.0063915723 0.0010350815 0.0023810992 0.051436044 0.10273498
0.04633323 -0.057748534 0.04034418 -0.011484625 0.19840331 -0.00034287284 -0.20791066 0.0456844
0.1317783 -0.12922947 0.09423612 -0.1953597 -0.04493586 -0.029037766 -0.06474465 0.13687842
-0.11241856 0.033131223 0.122107655 -0.10367434 0.11272273 0.15492019 0.12822269 -0.026786251
0.035812702 -0.13134342 0.022289544 -0.058994416 0.02294727 -0.022701768 -0.1695474 -0.13585931
-0.0049862964 -0.08697779 -0.057598356 0.06605683 0.121624544 -0.048271116 0.06915959 0.023296801
-0.0786565 0.014169768 -0.07630758 -0.04701383 0.034712456 -0.053961076 0.08289426 0.09023844
-0.024229327 -0.028402094 -0.08113007 -0.052173812 -0.07088614 -0.0355645 -0.030683717 0.1266583
-0.09390355 -0.03644548 -0.14359187 0.07044013 -0.20701908 -0.040225863 -0.11622351 -0.0063473657
-0.10994016 -0.044462577 -0.06069197 -0.0723428 -0.16285677 -0.078479365 0.14138298 -0.1455126
-0.011556076 -0.11435703 0.009152509 0.040598214 0.12110364 -0.06497607 -0.22555062 -0.006778706
0.13816522 0.07849777 -0.21428387 -0.18532749 0.055510305 -0.17486113 0.047762617 -0.06308545
0.1183276 0.07029552 -0.009069104 -0.034131963 -0.009541876 0.00199243 -0.17067142 -0.08955997
-0.20817344 -0.15001124 -0.05034913 -0.08070176 -0.016659845 0.14186089 0.013106222 -0.11032712
0.10037082 0.1644261 0.14404786 0.043968517 0.08924392 -0.013823507 0.013754082 -0.025151005
-0.044271782 0.002769132 -0.01701011 -0.003244983 -0.009526246 -0.043345634 0.035651505 -0.035951868
-0.033290584 -0.06895654 -0.005646158 0.038086053 -0.0506219 -0.013362229 -0.011568116 0.12620862
0.054921545 -0.021727195 -0.045263056 -0.03680924 -0.024360303 -0.06977479 -0.0052001416 -0.15042302
0.06986049 0.039540783 -0.073752515 0.054145552 0.06375227 0.065998554 -0.0041086706 0.015222007
-0.14680319 -0.043663636 0.04675132 -0.06724168 0.07209704 0.034182522 -0.09860565 -0.009632491
0.06512043 -0.04514558 -0.009392986 -0.027418863 0.03926376 0.006329078 0.12162313 0.075653076
-0.036231626 0.04763445 -0.06638165 0.0038026748 0.045510426 0.0077266768 0.1359418 -0.024183668
0.09733589 -0.06453239 -0.06973474 0.08870594 0.019942278 0.10909266 -0.13141218 0.12548581
0.060256343 0.1027133 -0.012148319 -0.0032901273 -0.028161049 -0.03113572 -0.146462 0.015388605
0.03995952 -0.08266989 -0.07176495 -0.23877454 -0.05551224 0.17273444 0.016353732 -0.057897158
0.124636 -0.21127711 0.087456815 -0.0111480085 0.05940673 0.064243235 -0.1974873 0.22398314
-0.056730863 -0.12059868 0.12392404 -0.1606507 -0.12568735 -0.20909709 -0.062067397 -0.042937517
0.18158202 -0.12699851 -0.060837988 0.012609929 -0.005035752 0.01841604 0.05199459 0.009528916
0.069856286 0.010131001 -0.08458432 -0.20115471 -0.095277265 -0.054845825 -0.07031675 0.016703336
-0.07627132 -0.0784973 -0.037188426 -0.058719564 -0.11239894 -0.11260993 -0.1377126 -0.019556025
-0.08837396 0.035551157 0.01937035 -0.022839855 -0.02584101 0.01621178 -0.12065579 0.10272674
0.08921619 0.097385675 -0.034110203 0.06327679 0.010782917 0.027355643 -0.0006535611 0.0149481315
00000000: 3df2 20be a327 d7bd ab45 08be 6570 d13b
00000010: 92ab 873a 370c 1c3b 9aae 523d b866 d23d
00000020: eac7 3d3d ba89 6cbd f03f 253d 022a 3cbc
00000030: 3d2a 4b3e 9dc3 b3b9 88e6 54be 911f 3b3d
00000040: e4f0 063e bb54 04be defe c03d 600c 48be
00000050: aa0e 38bd 9ce0 edbc d898 84bd db29 0c3e
00000060: b43b e6bd 9bb4 073d 9413 fa3d 3653 d4bd
00000070: 2ddb e63d 66a3 1e3e cf4c 033e d76e dbbc
00000080: 57b0 123d e47e 06be 9098 b63c 21a4 71bd
00000090: eafb bb3c 0ff9 b9bc d59d 2dbe b41e 0bbe
000000a0: 1664 a3bb 6921 b2bd 41ec 6bbd ce48 873d
000000b0: 4a16 f93d efb7 45bd 8ba3 8d3d efd8 be3c
000000c0: a916 a1bd 5128 683c 2647 9cbd 9391 40bd
000000d0: a62e 0e3d 4a06 5dbd 77c4 a93d eece b83d
000000e0: 957c c6bc 82ab e8bc 8627 a6bd 35b4 55bd
000000f0: c12c 91bd 15ac 11bd 6b5c fbbc b7b2 013e
00000100: 8150 c0bd db47 15bd bf09 13be ea42 903d
00000110: cffc 53be e0c3 24bd 9706 eebd 90fd cfbb
00000120: 4e28 e1bd 641e 36bd 2598 78bd 7628 94bd
00000130: edc3 26be cab9 a0bd b3c6 103e 4101 15be
00000140: b255 3dbc 0534 eabd 68f4 153c 504a 263d
00000150: 2f05 f83d 2c12 85bd bef6 66be e81f debb
00000160: 2f7b 0d3e 70c3 a03d 3b6d 5bbe 7dc6 3dbe
00000170: c65e 633d cc0e 33be bca2 433d f232 81bd
00000180: be55 f23d 19f7 8f3d 9496 14bc f5cd 0bbd
00000190: 8755 1cbc 6e93 023b 7dc4 2ebe 386b b7bd
000001a0: 6b2b 55be 8c9c 19be e43a 4ebd f746 a5bd
000001b0: 3a7a 88bc fb43 113e 7bbb 563c 2ff3 e1bd
000001c0: 378f cd3d 515f 283e 4881 133e 5518 343d
000001d0: 84c5 b63d fe7b 62bc cd58 613c 7b09 cebc
000001e0: 5456 35bd 537a 353b c958 8bbc c8a9 54bb
000001f0: f913 1cbc 318b 31bd 5007 123d 4442 13bd
00000200: b55b 08bd 1639 8dbd 6803 b9bb 1f00 1c3d
00000210: e958 4fbd 40ed 5abc 3288 3dbc d53c 013e
00000220: 6af5 603d 3bfd b1bc c165 39bd 49c5 16bd
00000230: 428f c7bc 16e6 8ebd f365 aabb 7e08 1abe
00000240: 0413 8f3d 84f5 213d 8f0b 97bd bac7 5d3d
00000250: 8d90 823d 402a 873d 07a2 86bb ba65 793c
00000260: 9353 16be a4d8 32bd 507e 3f3d 02b6 89bd
00000270: 9da7 933d f902 0c3d c2f1 c9bd 98d1 1dbc
00000280: dc5d 853d 92ea 38bd 0ae5 19bc 869d e0bc
00000290: 09d3 203d 2864 cf3b 8c15 f93d 00f0 9a3d
000002a0: 9d67 14bd 571c 433d 1af3 87bd 4c36 793b
000002b0: 2469 3a3d 1030 fd3b 5434 0b3e d41c c6bc
000002c0: 0a58 c73d 8f29 84bd 16d1 8ebd 76ab b53d
000002d0: fd5d a33c f96b df3d ea90 06be 5a7f 003e
000002e0: 5bcf 763d 5a5b d23d be09 47bc 2d9f 57bb
000002f0: 00b2 e6bc 5610 ffbc 22fa 15be 7d20 7c3c
00000300: 98ac 233d d54e a9bd 81f9 92bd 5081 74be
00000310: cd60 63bd 4ce1 303e 43f8 853c 9225 6dbd
00000320: 2941 ff3d 0759 58be 8f1c b33d 23a6 36bc
00000330: 7954 733d f591 833d 1c3a 4abe d65b 653e
00000340: 9f5e 68bd 71fc f6bd e3cb fd3d 9e81 24be
00000350: 2fb4 00be 8c1d 56be 623a 7ebd 40df 2fbd
00000360: a3f0 393e e60b 02be 4131 79bd e099 4e3c
00000370: f302 a5bb 3cdd 963c 47f8 543d 2c1f 1c3c
00000380: d010 8f3d 7ffc 253c 8b3a adbd 80fb 4dbe
00000390: ba20 c3bd 04a6 60bd 3a02 90bd 6fd5 883c
000003a0: 2334 9cbd 31c3 a0bd e452 18bd ed83 70bd
000003b0: 6a31 e6bd 09a0 e6bd 8804 0dbe f533 a0bc
000003c0: 68fd b4bd 179e 113d 91ae 9e3c a61a bbbc
000003d0: 87b0 d3bc 91ce 843c 621a f7bd 6662 d23d
000003e0: fab6 b63d 2472 c73d 24b7 0bbd 4397 813d
000003f0: d5aa 303c f118 e03c be53 2bba 02e9 743c
