Mice Tumors/tumor_load/a/in_dim:62_mid_dim_1:70_mid_dim_2:35_out_dim:1_lr:0.001_test_size:0.2_batch_size:4_shuffle:True_epochs:500_.pt (torch_old, 28750 bytes, 5 tensors)

fc1.weight f4 [70, 62]
00000000: f6ad a99a 2f71 f79a 73c4 c19a 4138 b09a
00000010: 62db 0c9c 8f44 6019 590c 9e1a 4489 b09a
00000020: 7483 3e9d d577 6e9f 990c 6c1c b3bb b29a
00000030: d378 da1a 92dd 009d 4873 b91a 2b64 a09a
00000040: 0770 ad9a 3939 551a 2aa3 439b f003 aa9a
00000050: 9eda a99a 5dc0 a99a 9e38 aa9a 8241 8b1a
00000060: 5738 239a 1052 a89a 733f f89a 040d fe19
00000070: 5ff0 ba1a 1086 bf1a 42f2 c918 3565 7298
00000080: 5988 c01a 6418 c79a d6a3 b21a f3d0 891a
00000090: 7e95 aa9a 063a af1a 2dc3 b19a 8973 6c99
000000a0: b528 ae9a f76b 3519 e8ae aa9a 89f4 a99a
000000b0: dffd a99a 6c2f f697 a4a8 071a bd03 b19a
000000c0: 1436 aa9a 9ffe f719 1625 a21a b08b a99a
000000d0: 6eed a89a 9e9c b79a dcba b39a 03e4 ac9a
000000e0: 42e7 a99a 24d5 a89a 6c9f df9a 8210 d41a
000000f0: 33a6 6a9a 98b4 01a0 bbf5 3639 1627 2a39
00000100: b438 5539 35d8 1139 c7e6 81b9 01c3 0a39
00000110: 48b0 c5b9 54c1 4939 0e1b 78b9 4367 67b9
00000120: dff0 82b9 be10 9cb9 9e26 6fb9 e2da 6fb9
00000130: af6f 35b9 e663 dc38 080b 2c39 ca2f 66b9
00000140: 8eaf 46b9 6057 4239 c80a 3d39 9e6d 3539
00000150: 23b8 4039 24fc 2339 b310 57b9 a095 5a39
00000160: da3c 12b7 a571 0d39 433b c7b8 01c0 c7b8
00000170: 829e 8b37 f8c9 3539 dd47 09b9 5f24 4339
00000180: 50e4 90b8 02ce e4b7 1978 a139 e7b2 01b9
00000190: 826a 4639 6025 1b39 1451 3739 6cc7 04b9
000001a0: e5a4 1f39 fa6c 4139 a27a 4439 8eb1 2eb9
000001b0: a243 3139 17b3 6539 97a9 3f39 c469 35b9
000001c0: 78bf 81b9 e6ad 3a39 8885 4039 0438 0039
000001d0: a33a 2c39 c5f2 3939 9ced 3c39 80e8 4339
000001e0: 6855 5439 710f c139 a80c 7239 5d0f 7bb8
000001f0: fced e4bb 9977 2dbd 4c37 b53d b24b 0ebc
00000200: d2f2 8bbd 894c bdbd b7fd b9bd 4d02 763c
00000210: 4c2e 843d 3b6d 013d 176a 003d d79c d8bd
00000220: 62a2 c1bd 5be1 c0bd 9e94 063d fdd8 42bd
00000230: 42ff c9bb e23c f3bc 728a ddbc a063 d9bc
00000240: 0b3c 02bd 3aca b6bb fffb 04bd 92e9 17bd
00000250: 50f6 f83c 4db2 953d f521 ab3c ac63 2c3e
00000260: 015e 853d bcbf f5bc 3377 ae3d d707 0e3e
00000270: 033c a33d 6481 123e 658c 0e3d 254d 083c
00000280: 78be 9c3d f36c 22bc 2a54 b6bc 074c 23bd
00000290: aec0 b83c 9867 cbbd 5fa3 f03c 8dab 18bd
000002a0: 8fca fdbc 7778 b2bc 402c 48bc 3a3c cf3c
000002b0: d95e b2bb 7681 debc e4ca 89ba 741d 3dbc
000002c0: 8aee f13a bb1d 753b faab 5cbd 4b89 d5bc
000002d0: f650 97bc 68eb d8bc de46 7ebd 594a 9bbd
000002e0: c912 64bd 345c ee3d 5443 4ebb e1cb 103c
000002f0: 26fc 513b a135 97bb c6ac 903c 30a5 53bb
00000300: 585a 933c ae54 a8ba af4f 3d3c 4e9d ed3b
00000310: 72cb f03b 0ed7 36bb a3cc ed3a fb82 2b3c
00000320: 8042 a5bb 08cd 2abd 31cd 44bb 15af 4d3b
00000330: 367f b63c 7c3e 4ebb abe5 60bb 3008 4abb
00000340: 68b3 4dbb af96 75bb 3d20 713b 832f ecbb
00000350: a0b7 81bb b540 be3c 877f 713b e0f1 773b
00000360: 890d ae3b e6a8 213b 1ae5 4bbc c22d f03a
00000370: 95b6 a73a 8e09 b3bb c05a cabb 16d6 9a3a
00000380: f468 33bc 0d45 f3bb 6909 7fbb 3e40 2cbb
00000390: f574 42bb 98ee 4dbb 66af 5fbb 4b53 213c
000003a0: c4dc 11bb d528 07bc 07f5 4dbb bd7f 1e3c
000003b0: 6274 773b 8ee3 4dbb fb44 9abb f842 04bc
000003c0: 5fab 7bbc c867 97bb 10d1 4dbb e782 4dbb
000003d0: 0946 7c3b e00a 563a a172 0abb 6adf eb3c
000003e0: 95a7 1e3b fdeb 063c bfff d03c 9ff2 8a3b
000003f0: 006e 223d 56f3 483b a811 073d 4179 943c
-7.017781e-23 -1.02339664e-22 -8.014031e-23 -7.288278e-23 -4.660566e-22 1.1594374e-23 6.536722e-23 -7.301366e-23
-2.521425e-21 -5.0497583e-20 7.810213e-22 -7.392232e-23 9.035789e-23 -1.7055208e-21 7.6700454e-23 -6.633628e-23
-7.173211e-23 4.4093592e-23 -1.6182743e-22 -7.0316713e-23 -7.024996e-23 -7.020754e-23 -7.040182e-23 5.7594886e-23
-3.375312e-23 -6.961575e-23 -1.02672904e-22 2.6268241e-23 7.731614e-23 7.921234e-23 5.22019e-24 -3.1328863e-24
7.962962e-23 -8.2343876e-23 7.3883766e-23 5.699945e-23 -7.055187e-23 7.2472046e-23 -7.352081e-23 -1.2224246e-23
-7.203048e-23 9.379284e-24 -7.059293e-23 -7.029183e-23 -7.030691e-23 -1.5909348e-24 2.8053572e-23 -7.3211524e-23
-7.039772e-23 2.5642042e-23 6.7061545e-23 -7.012244e-23 -6.986676e-23 -7.5940055e-23 -7.433455e-23 -7.1505905e-23
-7.027038e-23 -6.982752e-23 -9.24882e-23 8.7707815e-23 -4.852432e-23 -1.0986478e-19 0.00017448414 0.00016227024
0.00020334386 0.00013908821 -0.0002477674 0.0001323335 -0.00037706108 0.00019240874 -0.00023661202 -0.00022068345
-0.00024974995 -0.00029767113 -0.00022807202 -0.00022874356 -0.0001730311 0.00010509025 0.00016407308 -0.00021952312
-0.0001894815 0.00018533831 0.00018028461 0.0001730234 0.00018379143 0.00015638821 -0.00020510219 0.0002084584
-8.716446e-06 0.00013489144 -9.500098e-05 -9.524823e-05 1.6643902e-05 0.00017336744 -0.0001309211 0.00018610198
-6.9089816e-05 -2.7275648e-05 0.00030797793 -0.00012369045 0.00018922429 0.00014795875 0.00017482444 -0.00012662791
0.0001522485 0.00018446511 0.00018737701 -0.00016660077 0.0001690523 0.00021905858 0.00018278357 -0.00017300906
-0.00024747453 0.00017803125 0.00018360291 0.00012227899 0.00016425042 0.00017733414 0.00018017594 0.00018683262
0.00020249712 0.00036823333 0.00023083633 -5.985737e-05 -0.0069863778 -0.042350385 0.08848438 -0.008685039
-0.06833424 -0.092431135 -0.090815954 0.015015197 0.06454143 0.03159831 0.031351175 -0.1057679
-0.094548 -0.09417983 0.032856576 -0.047570217 -0.0061644623 -0.029692117 -0.027043555 -0.026536763
-0.031795543 -0.0055783065 -0.032466885 -0.037087984 0.030390888 0.07309399 0.020890215 0.16834897
0.065120704 -0.029998653 0.08518829 0.13870178 0.07970431 0.14307171 0.03480186 0.008319174
0.076535165 -0.009913671 -0.02225693 -0.039867427 0.022552814 -0.09931868 0.029374776 -0.03727298
-0.030980377 -0.021785958 -0.012217581 0.025297273 -0.0054434356 -0.027161341 -0.0010512737 -0.011542667
0.0018457931 0.0037401754 -0.053874947 -0.026066443 -0.018471222 -0.026479438 -0.062079303 -0.0758254
-0.055681977 0.1163868 -0.0031473236 0.008837671 0.0032041161 -0.0046145474 0.01766051 -0.0032294504
0.017987415 -0.0012842619 0.011554643 0.007251418 0.0073484713 -0.0027899179 0.0018142652 0.01046824
-0.005043328 -0.04169944 -0.003002953 0.0031384875 0.022277456 -0.003147035 -0.003431658 -0.0030827634
-0.0031387452 -0.0037473848 0.0036792897 -0.0072078123 -0.0039586574 0.023224214 0.0036849694 0.0037833378
0.005311672 0.0024667322 -0.012444759 0.0018324184 0.0012795503 -0.0054637855 -0.006175369 0.001181307
-0.010950316 -0.007424003 -0.003891552 -0.0026283409 -0.0029671763 -0.003142273 -0.0034131645 0.009846519
-0.002225683 -0.008249481 -0.0031426565 0.00967401 0.0037758579 -0.003141615 -0.00470793 -0.008072607
-0.015360682 -0.004620526 -0.0031405129 -0.0031358541 0.0038493893 0.00081650726 -0.0021125453 0.028793056
0.0024208773 0.008234975 0.025512574 0.0042403485 0.039655685 0.0030662618 0.032975823 0.018124225

fc1.bias f4 [70]
00000000: 8687 a91a 3c0d 53b9 963d 30bb a230 883b
00000010: 521c 23ba 31a3 16bb 2eab 613c 6257 103c
00000020: 7c29 f03a 6af4 9311 eb10 fc3b 57a0 953c
00000030: 0e9b a8b2 c676 84ba 68b2 8b3b 12cf dfb8
00000040: 6e4a c2bb 026b ee3c 2f9a 8fac 4dc5 3abc
00000050: f73a 903c 3a77 e63b 4f94 7a30 a43b 532f
00000060: b56d a439 ef8d cd38 15e6 0cba ee89 543b
00000070: 0892 3dba 3dda 05ba 6007 d93b 32a2 aab0
00000080: 634c 813c 5bf5 183c d8a3 993c 1a85 023c
00000090: 107f 2d3d 4219 243a fe22 ee3c 2bdd 4e3c
000000a0: f157 26ba c3b7 4cbc 8b5f d5ab 0f4a 5c3c
000000b0: 476d 703c 18cf 16ba 938f 6d3c 0c38 15ba
000000c0: 2cb3 7639 ffe2 fd3b 92c5 ab3b 655c baba
000000d0: c6cb 30bc bf1d 833b ecb5 2fba 53e9 61bc
000000e0: 8b89 0080 c19b 9eb6 c03b d5bb 1aec 503a
000000f0: 085c 37bb f7db 183b a76c 223c 1274 093d
00000100: 6094 103b 7c39 ca3c 9fc0 903c c94b df3c
00000110: fe42 503c d80a 85bc
7.011571e-23 -0.00020127458 -0.0026892177 0.004156188 -0.00062221766 -0.0022985453 0.013773723 0.008809896
0.001832291 2.3343142e-28 0.0076924465 0.018264933 -1.9628285e-08 -0.0010106198 0.004263211 -0.000106720385
-0.005929283 0.02910376 -4.0814223e-12 -0.011399579 0.017606242 0.007033256 9.116023e-10 1.9211527e-10
0.00031362256 9.801599e-05 -0.0005374861 0.0032430845 -0.0007231538 -0.00051060674 0.0066231936 -1.2415227e-09
0.015783494 0.009335841 0.018754885 0.007966304 0.042357504 0.0006259867 0.02906942 0.012625973
-0.0006345502 -0.012494984 -1.5161079e-12 0.013445391 0.014674491 -0.0005752905 0.014499563 -0.00056922506
0.00023527135 0.0077480073 0.005242058 -0.001421821 -0.010790771 0.0040013487 -0.00067028287 -0.013788539
-4.9341e-41 -4.726899e-06 -0.006507367 0.0007969752 -0.002797844 0.0023324469 0.0099136 0.03355796
0.0022061095 0.024685614 0.017669974 0.027257817 0.012711285 -0.016240522

fc2.weight f4 [35, 70]
00000000: 325e 0000 ef7c c31d 7e0c 322a 2dff 67ae
00000010: eabc 3129 2f17 0faa c21e 732a 8684 bead
00000020: acf7 1d2a 040d 0080 d217 eea9 0693 8d2a
00000030: 7c83 0000 9d8f 0080 8ad8 d028 ad8b 912a
00000040: 00a0 6fa8 f25e bfae 157c 0000 067f 442a
00000050: 4b7c 342b f0ab a52a 42aa 0080 7a14 0080
00000060: 1332 a6ad 48c1 2e29 dbcd a429 83ac 322b
00000070: 9095 a52c c74c 4b2a b838 07aa dad1 819a
00000080: c448 0c2d b2a5 d0ac 556d e8a9 b45f 9caa
00000090: 4507 a4ab 320f fb2a 0a4e 4f2a f296 ae2a
000000a0: 143a aaa8 ac45 902a 684f 928d 47d5 482d
000000b0: 3111 73ac 1270 842a 143d 09a8 6ee4 45a7
000000c0: a3df 26ae 3602 9bad f577 4aae 1cb5 f4a7
000000d0: 0d60 fcaf 5caf 8d29 bc7a 2ca7 af83 05ae
000000e0: 4d60 0080 fc08 c39d cebc 38a4 886e 28ab
000000f0: 709c 67a8 5772 5f29 42ad b929 0d82 fc28
00000100: 4df7 08ae 6f19 952a e339 a0ae e51d 66a9
00000110: 85dd 03aa 8ffb 18aa 19ae cf1b 4adf 85b8
00000120: 9e31 99bd 3896 393d 5e49 a53b b124 6ebd
00000130: a521 083d a83c 673c 60a1 e33c 2d91 4229
00000140: 21ae ac3c 7085 de3c fc42 c737 82f9 753b
00000150: 4c65 c1bc 6bbe 763c 120c c73c a10a ae3c
00000160: 1273 022b 9494 4cbd 9210 483d 8189 023d
00000170: 13ab 41b2 5b2b 0080 9764 943c aff4 3bba
00000180: 7a56 6cbb 87b1 c0bc 57ba 40bd 5b3d c93d
00000190: bab4 c23c 5d6c b7af 4dfb 86bd 7ddf 3c3d
000001a0: e8e3 cbbd 659a 00bd 450a 93bd 250a 15bd
000001b0: 9e71 acbd b084 1b3d 4576 19bd 7c68 aa3d
000001c0: f74a 892c 61a6 9cbc ab19 fc3c b146 093c
000001d0: a345 9a3c 10b5 8fba 24cb 16ba 99fe 043d
000001e0: 5c12 713d 0604 393b 456c 403c 5fa8 cdbd
000001f0: 1851 10bb 2a44 77bc 5452 0927 3e7a 2136
00000200: bc2b bdbb 632f 60bd 41cc e8bc 4fc9 a33c
00000210: 23aa fe3c 0b3b 68bd 2f29 293d ec29 6a3d
00000220: f967 553d c303 44bd af2e d0bd af2d 293d
00000230: 772c 0080 2822 0080 f513 0000 5923 d5aa
00000240: d405 5d8e a0ac 0000 ca0f 0000 c10e 0880
00000250: 9ce1 5d25 1702 0080 1e09 0000 4379 bc96
00000260: dc06 0080 5b6b 0000 dd53 451b c949 0080
00000270: cf2d 0000 7409 0fb1 be7f 0000 308a 0080
00000280: e19d 0080 2493 d5a1 1c58 0000 1a95 0080
00000290: d311 e415 2919 2787 373b 0000 0529 0080
000002a0: 993b a62f 5c11 0000 a009 0080 625b 0000
000002b0: abed 152c 2323 0080 5c13 0080 2ab8 0680
000002c0: 69b9 112a ce29 0080 5f45 0080 8b2a 0c1e
000002d0: ace2 0200 9109 0080 2589 0000 197a 1a32
000002e0: fc9d 5fa1 807c 0000 7d05 4002 a046 0629
000002f0: 5679 0580 08f1 9eaa 842d 492e a8e1 5202
00000300: da07 a4b4 314c 0080 f8c2 6e81 0cf7 aeab
00000310: 494a 0000 e3ce 0b18 0d85 0080 2f06 0000
00000320: 7621 0000 3374 0000 0a06 0d21 6703 0000
00000330: 1e67 efae c875 0000 8e61 8c2b 136b 0000
00000340: 6a26 0080 0523 0000 56a9 2294 ef76 e633
00000350: de83 87b5 bb59 94b6 0d1c dcb4 1a09 8bb2
00000360: 6bfc f0b5 f471 03b6 617a 2db6 a480 c203
00000370: 42ae 50b5 7e8b 0ab6 2870 7d2b b158 052d
00000380: 8506 83b4 0980 c9b6 b804 20b7 b0b8 0db8
00000390: 1051 33a6 a60f 14b4 8ea4 d5b6 4194 80b6
000003a0: acbb 8b2b 384e ae16 11a3 15b6 bef2 ebb3
000003b0: 7125 1e37 1a87 35b7 452a fbb6 0b6c 9db5
000003c0: ee8e 6db6 5c60 0829 f6c2 e935 63ff 1bb6
000003d0: 6465 3b37 37e5 3ab6 283e ccb5 3694 a9b5
000003e0: 027a 3b36 75e3 29b6 730c dd34 290f 9436
000003f0: 9101 49a5 c952 1b37 cf34 52b6 14ff a135
3.3791e-41 5.174525e-21 1.581391e-13 -5.274996e-11 3.9465752e-14 -1.2708995e-13 2.1593407e-13 -2.1659351e-11
1.403033e-13 -4.669e-42 -1.05734554e-13 2.514865e-13 4.7168e-41 -5.1519e-41 2.3186548e-14 2.5854094e-13
-1.330186e-14 -8.70254e-11 4.4512e-41 1.7452367e-13 6.412134e-13 2.9429193e-13 -6.1077e-41 -7.346e-42
-1.8894252e-11 3.8803406e-14 7.318773e-14 6.347771e-13 4.706187e-12 1.805666e-13 -1.2010087e-13 -5.369218e-23
7.974236e-12 -5.9301114e-12 -1.0321836e-13 -2.7777574e-13 -1.1654919e-12 4.45971e-13 1.8412369e-13 3.1013348e-13
-1.8898979e-14 2.5627883e-13 -9.017061e-31 1.1416041e-11 -3.454192e-12 2.3525675e-13 -7.618272e-15 -2.7463074e-15
-3.794266e-11 -1.7622442e-11 -4.6036026e-11 -6.7919964e-15 -4.590678e-10 6.292078e-14 -2.393633e-15 -3.0357657e-11
-3.4546e-41 -5.162536e-21 -4.0058564e-17 -5.9838983e-13 -1.2856998e-14 4.961512e-14 8.245706e-14 2.803402e-14
-3.1142467e-11 2.6485365e-13 -7.2862404e-11 -5.109619e-14 -1.1711992e-13 -1.3587589e-13 3.4357785e-22 -6.383525e-05
-0.07480167 0.045309275 0.0050441464 -0.05814046 0.03323521 0.014113583 0.02778691 4.3202573e-14
0.021079125 0.027163237 2.375384e-05 0.0037532751 -0.023607872 0.015060048 0.024297748 0.021245303
4.634497e-13 -0.049946383 0.048843928 0.031869415 -1.1272976e-08 -1.5553e-41 0.018114371 -0.00071699446
-0.0036062286 -0.023522152 -0.047052708 0.09826156 0.023767818 -3.3364503e-10 -0.065909006 0.046111573
-0.09955579 -0.031397242 -0.07179693 -0.036386628 -0.08420108 0.037968338 -0.037466306 0.0832071
3.902097e-12 -0.019122304 0.030773958 0.008378671 0.018832034 -0.0010963995 -0.0005752316 0.032469366
0.0588554 0.0028231158 0.0117445635 -0.1004188 -0.0022020992 -0.015091935 1.90572e-15 2.4062024e-06
-0.005773036 -0.05473269 -0.028417708 0.019993452 0.031086987 -0.056696933 0.04129904 0.057168886
0.05210111 -0.04785515 -0.10165154 0.041303333 -1.5951e-41 -1.2253e-41 7.159e-42 -3.7860928e-13
-2.724316e-30 6.1926e-41 5.664e-42 -7.39977e-40 1.9245134e-16 -7.5e-43 3.27e-42 -3.0449565e-25
-2.46e-42 3.8512e-41 1.6322556e-22 -2.6469e-41 1.6433e-41 -2.0814612e-09 4.5825e-41 -4.9572e-41
-5.6636e-41 -1.4472389e-18 3.1608e-41 -5.3488e-41 9.211659e-26 -1.2571078e-34 2.1242e-41 -1.4715e-41
3.023757e-10 6.227e-42 -3.453e-42 3.2782e-41 2.1306106e-12 -1.2605e-41 -6.945e-42 -6.17079e-40
1.2942914e-13 -1.4997e-41 -2.4886e-41 7.420336e-21 2.64986e-40 -3.432e-42 4.9198e-41 8.991742e-09
-7.576443e-19 4.4662e-41 1.4107507e-37 2.9815234e-14 -5.02705e-40 -2.8233687e-13 4.5742535e-11 1.5493124e-37
-3.0553093e-07 -2.7332e-41 -4.385358e-38 -1.2432013e-12 2.6648e-41 1.806978e-24 -4.773e-41 2.218e-42
1.2004e-41 4.1684e-41 4.778065e-19 1.22e-42 -1.0886779e-10 4.2252e-41 9.974675e-13 3.8411e-41
-1.378e-41 1.2563e-41 -8.2123055e-27 1.07318435e-07 -1.0096662e-06 -4.4211897e-06 -4.0998603e-07 -1.6185869e-08
-1.7954857e-06 -1.958685e-06 -2.5850243e-06 1.143183e-36 -7.7739617e-07 -2.0644798e-06 9.0039304e-13 7.579868e-12
-2.4405395e-07 -6.005172e-06 -9.537842e-06 -3.3789023e-05 -6.221296e-16 -1.3789267e-07 -6.3670514e-06 -3.8319563e-06
9.928633e-13 2.816058e-25 -2.2297647e-06 -1.0987195e-07 9.426251e-06 -1.08198965e-05 -7.4853037e-06 -1.1728856e-06
-3.5398948e-06 3.0281645e-14 1.7416594e-06 -2.3245454e-06 1.1169675e-05 -2.784958e-06 -1.5217274e-06 -1.2634616e-06
2.793619e-06 -2.531536e-06 4.1173516e-07 4.4125086e-06 -1.7434502e-16 9.257995e-06 -3.1323177e-06 1.2069672e-06

fc2.bias f4 [35]
00000000: 912e 1faf f751 1b3d 6ef4 81af 24d8 e7b7
00000010: eee3 c9b2 faef 0eb5 54b7 1a3b c08e 36b9
00000020: dc42 592e e8bd 7db4 fe49 7faf 2765 b7bb
00000030: b5ae aebc 352d b53d 13c5 d4bc deb0 0a3a
00000040: 2de7 d93c 502e c63c 0b2e 343d af2c 70af
00000050: d62f a83c 638b a13c 6b55 1aba c32b 45a0
00000060: 5410 943c b222 55ac 653a bcaf f69a 613d
00000070: 71f3 5c3c 68a8 27b0 5396 113c 5829 a23d
00000080: 33b2 32bb ec2c e03c 4bc6 a5aa
-1.447751e-10 0.037919965 -2.363864e-10 -2.7637994e-05 -2.350313e-08 -5.3248334e-07 0.0023607807 -0.00017410051
4.939947e-11 -2.3631549e-07 -2.3218402e-10 -0.005596775 -0.021323541 0.08846513 -0.025972879 0.00052906375
0.026599491 0.024192005 0.043989222 -2.1843748e-10 0.020530622 0.019719785 -0.0005887362 -1.6701029e-19
0.018074192 -3.028838e-12 -3.4238493e-10 0.055079423 0.013485775 -6.0993566e-10 0.008885938 0.07918042
-0.002726686 0.02736517 -2.944748e-13

fc3.weight f4 [1, 35]
00000000: 26f4 24af 1d35 9cbe 2c82 c8b4 7ba1 ba36
00000010: 18f9 d1b2 aa33 0d34 0ada 313e a409 97bb
00000020: 6289 7dac 70da 8534 5d04 cab9 4b20 ba3e
00000030: 5af8 a93e 41c4 bf3e 9480 9e3e dad3 64bc
00000040: f64c c23e 3187 c73e 095b 963e 9748 d52f
00000050: 5c18 303e 2ffa cb3e 80c2 76bc e4dd 1111
00000060: 8c07 91be e886 67ad 8e21 81ae fad3 b03e
00000070: 698e aabe 03b9 2831 bb8d afbd 997b 693e
00000080: 1a79 c73e 3989 bdbe 1cb6 17ab
-1.5002452e-10 -0.30509272 -3.7347615e-07 5.5620308e-06 -2.4444077e-08 1.3150444e-07 0.17368332 -0.0046093035
-3.6029725e-12 2.4932115e-07 -0.00038531693 0.36352763 0.3319729 0.37454417 0.30957472 -0.013966525
0.37949342 0.3897033 0.2936633 3.8796052e-10 0.17196792 0.39839312 -0.015061021 1.1506858e-28
-0.2832607 -1.3160785e-11 -5.872201e-11 0.34536725 -0.33311775 2.4552385e-09 -0.08571955 0.22801055
0.3895958 -0.37018755 -5.3898704e-13
