Mice Tumors/tumor_load/a/in_dim:62_mid_dim_1:70_mid_dim_2:35_out_dim:1_lr:0.05_test_size:0.2_batch_size:8_shuffle:True_epochs:100_.pt (torch_old, 28750 bytes, 5 tensors)

fc1.weight f4 [70, 62]
00000000: c0ad a83e faca 7c3e 34c2 b23e a486 c03e
00000010: 456c d3be e6cb 0abd 53cc 9ebe 87ee b43e
00000020: 8948 8bbe 4d00 d4be ffb5 91be c664 80be
00000030: faaa d0be 478a 53be e943 84be 2a18 923e
00000040: ddf2 9e3e eb3a a8be 5acc a7be 8b06 813e
00000050: 1e0a 9c3e 7c86 8c3e c8a3 6c3e 951c b93e
00000060: f280 87be 7047 9a3e 1572 983e 48f3 93be
00000070: b282 c7be 1193 a5be 61cb ab3e 3914 8d3d
00000080: ad0d 6cbe b810 ac3e 9ad6 d5be fc8c c03e
00000090: f2f9 883e 2257 98be 7f33 873e c958 d53e
000000a0: 889c 693e 8a73 eabd e460 a23e 097b 973e
000000b0: 30df 823e c470 1dbe 799d 5d3e f8dc f43e
000000c0: 03fd 8d3e d8f5 e3be 8cd0 a4be 2f59 ca3e
000000d0: 5f0c 9e3e 68a4 cb3e 0414 df3e f008 733e
000000e0: 72c0 953e f6fe c93e badd d23e 6ae7 603e
000000f0: 80d6 853e 37e6 babe bf47 513e e275 b23e
00000100: 839e 283e 5602 893e 1f93 37be 62b4 85be
00000110: 7906 8dbe 9cb7 c83e d1af 58be 213f 7dbe
00000120: 15b0 8fbe 9603 82be d899 8fbe 4065 acbe
00000130: 8b88 a8be fdcb 603e 67db ab3e ebd4 bebe
00000140: 6fc3 c8be 398a 803e 1939 6f3e 8b9d a93e
00000150: 201a a93e 577e 9abe cac7 85be 9b8a 6f3e
00000160: ea26 b73e 1364 84be 4cfa 38be 6fc6 71be
00000170: c548 5b3e a508 b63e c2f6 9cbe dfcd 4f3e
00000180: 2aeb 88be a8ae b0be fb73 3a3e 33a7 99be
00000190: 1f35 373e 0744 5b3e 1b27 cb3e 5c7d b4be
000001a0: 459e 5e3e 33a8 743e 5dc8 8a3e bfa8 8f3e
000001b0: 3bee 30be e7ad 6b3e 10be 903e d5f9 9ebe
000001c0: 7b37 cabe efe5 c03e b5d7 b83e 3b4f 703e
000001d0: 0ba2 393e 3d79 c23e 807d b63e 9d08 403e
000001e0: 44ca a23e 6810 63be c288 803e 2560 243e
000001f0: 57ab ce3e dee5 b33e 053b b43e abe8 cd3e
00000200: 0646 34be ef5b 713e f79f b33e 0c18 693e
00000210: 86b5 4ebe 3bb9 d5be dec1 83be 2927 96be
00000220: 741f a3be 3057 a8be 0371 6dbe 57e5 35be
00000230: 0480 6f3e 7223 d5be 34bf 88be dab2 6e3e
00000240: 6050 bc3e 418a 983e 2d3c c13e 64b3 9d3e
00000250: 5120 ccbe 7a52 9d3e 6690 4e3e 47d1 81be
00000260: 19f3 d9be 4b59 a6be ef14 bdbe c8df c23e
00000270: f4ea cabe 7ef3 773e 73eb cfbe b956 c23e
00000280: e6e9 883e 416d bebe 49e0 8e3e 6ed5 933e
00000290: 9fa0 cd3e 838a 89be 70a6 ca3e dacf 7d3e
000002a0: a2b1 d33e 540d a4be 1ed2 513e 502c 79be
000002b0: 5b36 ca3e d886 a1be 20c3 7bbe 5894 4d3e
000002c0: e746 8b3e 7e12 4b3e 17ec c23e 3530 ba3e
000002d0: 7945 ac3e 29e3 be3e 6800 993e 4d50 8fbe
000002e0: 7bd2 d63e 096a 7fbe 467c c83e 967c 8d3e
000002f0: 942e 1bbe ba84 ae3e 3f9a 38be 63e0 593e
00000300: f1a0 463e 1967 3c3e 9686 8dbe 7cf2 bcbe
00000310: 64d4 c8be 006e 67be 95c6 94be a229 9dbe
00000320: 9c1a 9fbe cd76 623e fc93 1b3e 5751 9ebe
00000330: a94c adbe 3a5a c33e 1986 2c3e cf72 bf3e
00000340: c4cb a73e fdfc 843e 0544 a1be e390 bc3e
00000350: e35f 7ebe 9d3e 4bbe c984 aebe ec32 1fbe
00000360: ebf4 48be 25e7 68be 25cf 88be 49f5 aa3e
00000370: e9a6 59be 134d be3e 392d 86be 915d 2dbe
00000380: 68eb 853e 2977 a73e 0774 523e 01b1 303e
00000390: 3f5a 483e 8d62 243e 8908 123e e58a 703e
000003a0: f375 7c3e 6967 8c3e d538 4c3e f011 34be
000003b0: 0929 bdbe a941 813e f7c3 393e abe0 8c3e
000003c0: f804 c03e 6301 533e 266f c53e a75c c23e
000003d0: d8ad b93e fe07 953e f3a1 a23e 4180 2abe
000003e0: fdbc 493e 2739 3d3e f3bd 933e e870 d03e
000003f0: 939e c4be 17ec 92be 145c 403c 076f 383e
0.3294506 0.24686804 0.3491379 0.37602723 -0.4129354 -0.03388586 -0.31015262 0.35338232
-0.27203777 -0.4140648 -0.28459165 -0.25076884 -0.40755445 -0.20658217 -0.2583306 0.2853406
0.31044665 -0.3285745 -0.32773095 0.25200304 0.3047647 0.27446353 0.23109353 0.3615462
-0.26465565 0.30132627 0.29774538 -0.28896546 -0.389669 -0.32338765 0.33553603 0.06888623
-0.23052092 0.33606505 -0.4176529 0.37607563 0.26753193 -0.29753977 0.26406476 0.416693
0.22813618 -0.114478186 0.31714547 0.29586056 0.25560904 -0.15375048 0.21642102 0.47824836
0.27732095 -0.445235 -0.3219036 0.39521167 0.30868813 0.3977387 0.43569958 0.23733878
0.29248387 0.39452332 0.4118479 0.21963277 0.26140213 -0.36503765 0.20437525 0.34855562
0.16466717 0.26759595 -0.17927216 -0.26114184 -0.27544 0.39202583 -0.21160819 -0.24731113
-0.28064027 -0.2539336 -0.2804706 -0.33670998 -0.32916674 0.21952815 0.33565828 -0.3727182
-0.39211604 0.25105456 0.23361625 0.33128008 0.33027744 -0.30174515 -0.2612899 0.23392718
0.35771877 -0.258576 -0.1806423 -0.23610853 0.21414478 0.3555347 -0.3065701 0.20293377
-0.26741916 -0.34508252 0.18208306 -0.30010375 0.17891358 0.21412669 0.39678273 -0.35251892
0.21740063 0.23892288 0.2710599 0.2805843 -0.17278378 0.23015557 0.28270006 -0.31049982
-0.39495453 0.37675425 0.3610207 0.23467724 0.1812822 0.37983122 0.35642624 0.18753286
0.3179494 -0.22174227 0.25104338 0.16052301 0.40365097 0.35136312 0.35201278 0.40216574
-0.17604837 0.23570226 0.3508298 0.2276308 -0.20186433 -0.41742882 -0.25733846 -0.29326752
-0.31859934 -0.3287902 -0.23187642 -0.17763267 0.23388678 -0.41628605 -0.26708376 0.23310414
0.3678007 0.2979298 0.37741223 0.30800927 -0.39868405 0.30726987 0.20172271 -0.25354978
-0.4256828 -0.3249 -0.36930034 0.38061357 -0.3963238 0.24213979 -0.4060932 0.3795679
0.2674095 -0.3719273 0.2790549 0.2887377 0.40161607 -0.2686349 0.39580107 0.2478632
0.4134646 -0.3204142 0.2049031 -0.2433331 0.39494595 -0.3154819 -0.24586153 0.2007612
0.27202532 0.19831273 0.38070747 0.36364904 0.33646753 0.37282684 0.29883122 -0.27990952
0.4195746 -0.24942793 0.39157313 0.27634114 -0.15154487 0.34085637 -0.1802759 0.21277003
0.19397332 0.18398704 -0.27641743 -0.3690375 -0.3922454 -0.22600555 -0.29057756 -0.30695826
-0.3107499 0.22115631 0.1519317 -0.30921432 -0.3384755 0.38154775 0.16848029 0.3739228
0.32772648 0.25974265 -0.31497207 0.3682929 -0.24841265 -0.19848104 -0.34085682 -0.15546769
-0.19624679 -0.22744425 -0.2672054 0.33390263 -0.21255077 0.37168178 -0.26206377 -0.16930224
0.26156163 0.327081 0.20552073 0.17255022 0.19565676 0.16053219 0.14261068 0.23490484
0.24654369 0.27422646 0.19943555 -0.17584968 -0.3694537 0.25245407 0.18141161 0.27515158
0.3750379 0.20605998 0.38561362 0.37961313 0.36265445 0.2910766 0.31764182 -0.16650487
0.19701 0.18478833 0.28855857 0.4071114 -0.38402233 -0.28695747 0.011740703 0.18011104

fc1.bias f4 [70]
00000000: 104c 7abe 1f29 c9be af27 bbbe 9ae3 7fbe
00000010: cac6 2dbe f64b 59be 1e92 f6bd 937a b8be
00000020: bd95 b9be 5a29 5bbe 5c3b b4be 6a61 78be
00000030: d096 003e f008 88bb b156 b5be 8e1c 98be
00000040: 9db7 5dbe 6e24 dabe 5461 da3d 136b bcbe
00000050: df2c cabe 7d75 e63d aa7e b0be 6a29 b8be
00000060: d294 afbe 7d6e 3bbe c8f0 133d ebcf 2fbe
00000070: 3d88 9abe 7368 d2be 2cb9 003d 5298 46be
00000080: 58c0 89bd 5180 93be 456d 94be dd9d 88be
00000090: b99d 84be a55c a2be 2aa1 58be 7f06 9fbd
000000a0: aade 7dbe 7613 38bd 22f6 cabe e7f1 65be
000000b0: 8088 3f3d d442 f6bc a15f dfbe 7f83 82be
000000c0: e57b b3bd 60da a8be c51e 81be f624 e23d
000000d0: 5fa3 8ebe c095 b8be ef25 70be 4539 82be
000000e0: 38d3 8cbe 09b3 c3be e701 cabe bc9f bcbe
000000f0: 882d 77be 0cf1 01be d807 143d 3886 eb3d
00000100: 480e b6be bbfd b9be 26e1 80be ce40 82be
00000110: cabf b8be 8054 beba
-0.24443078 -0.39289185 -0.36553714 -0.24989167 -0.16970363 -0.21220383 -0.120395884 -0.36031017
-0.36247054 -0.21402493 -0.35201538 -0.2425591 0.1255753 -0.004151456 -0.35417703 -0.29709285
-0.21652074 -0.4260592 0.10663095 -0.3680044 -0.3948736 0.11252878 -0.34471637 -0.35969096
-0.34293228 -0.18303867 0.0361183 -0.17169158 -0.30182067 -0.41095313 0.031426594 -0.19394043
-0.0672614 -0.28808835 -0.28989616 -0.2668294 -0.25901583 -0.31711307 -0.21155229 -0.07764911
-0.24791971 -0.044940434 -0.3964091 -0.2245556 0.046761036 -0.030061163 -0.43627647 -0.2549095
-0.087638654 -0.32979107 -0.25218788 0.11042206 -0.27859017 -0.3605175 -0.2345197 -0.25434318
-0.27504897 -0.3822253 -0.39454576 -0.36840618 -0.24138463 -0.12689608 0.036140293 0.115002096
-0.3555777 -0.36326393 -0.25171775 -0.25440067 -0.36083823 -0.0014521033

fc2.weight f4 [35, 70]
00000000: 866e acbe 741a bcbe 63db a1bd c64f 8c3e
00000010: e82b c5bd e413 073e bb18 343e 80dc 61bd
00000020: de71 a5bd 7b76 bb3e 9fb5 083e 9171 98bd
00000030: 00bc de3a 91d2 cf3d 3d03 6e3e 6011 0d3b
00000040: 946d b13e 4ec6 6f3d 52e8 753d eece 00be
00000050: 444e af3e d8dc 14be 7a39 903e be58 ab3e
00000060: 6c07 a3be 747d fa3d 83c4 a73d 0272 6b3e
00000070: 3554 ab3e c5b2 4cbe 6e8e 89bd 9652 c6bd
00000080: a100 8abe 4857 0c3c 4c88 c83e 2864 c33e
00000090: 2352 71be 3004 19be 274f 883e 4138 2cbd
000000a0: 344e 68be df17 d03d 902f 933b 8a97 82be
000000b0: 4f4e a53d 3c11 fb3c d176 82be 9c24 803e
000000c0: 3a76 85be 7448 8dbe a86c b5bd d928 c83d
000000d0: 479c 17be 53af 463e 8dc2 8ebd f712 ddbd
000000e0: 30ff c53e fed1 213e 905c a9be 0486 a6be
000000f0: b8f5 b8bc 510f a63d 5797 8dbe 49d4 ad3d
00000100: 6fb0 dfbd 0f82 3b3e 95c5 503e aeb0 a3be
00000110: 3a2a a63e 2640 1b3d aabe 22be 8fd5 96be
00000120: 97d5 dcbd 1625 19bd f7c3 bfbe c4d8 76be
00000130: 4f94 bbbe 4cfb 19bd 98e8 33bd f080 d73b
00000140: ae2d 38be d7bc 8fbe 279f c93d 37de 853d
00000150: 9427 3cbd e8cb 90bd 2a5c 303d 6d52 afbd
00000160: 689b 043c 4118 53be 065e 533d 333b cdbe
00000170: 6855 94bd 54ad ed3c 3478 7dbe 9668 78be
00000180: dd3a b13d 3455 67be b273 1d3d 6cbe a1be
00000190: a866 d6bc 10f3 9cbe 6c14 a6be ba81 2a3d
000001a0: 50eb e1bb 01cc 9ebd e4fe 3ebe c5cd 973d
000001b0: f4ec 843c 9fd6 98be 936f 60be c832 e8bc
000001c0: 7aeb 3b3d 9fee bbbe 553d bebd 9fb6 c03d
000001d0: 25fc c2be c09f 06bc ddce 34be f34a 8fbe
000001e0: f417 9cbe b0fd f4bb 8055 59be e077 ac3b
000001f0: 8136 23be 5815 3fbd d38e 8f3d 2a76 263d
00000200: 7e5e c1be 95d8 b3be 521b 2dbe 7ff1 9d3d
00000210: a4f8 33bf 3eb7 53bd af72 ca3d 9568 96bd
00000220: faf9 c1be aaf5 23be 3013 65bc 5521 c83d
00000230: b21a a4bd 2e5c 373e 5ef4 ca3e 4a7c b5be
00000240: bbf9 b7be d15d cdbe 4225 4abe f33e 463e
00000250: 6310 a7be 6433 8fbe 49d7 c6bd 751b 31be
00000260: 9cf9 b53c 40ac 953a 427e 7fbe 0d0e 78be
00000270: ce7b bfbe fa14 8dbe 7808 a1bd 3acc 77be
00000280: f08a 6cbe 3062 65be f41a abbe cf4c 62be
00000290: 7023 bebd b445 4cbe faf9 afbd dfbc c6bd
000002a0: 0038 4abe f0cd 12bd 5613 2c3d 50df 35be
000002b0: e98a 68be c652 a43e 2d24 c9be a805 87be
000002c0: 453f 85be b454 fa3c 97e2 a5be 2e67 e8bd
000002d0: e752 ae3e e5f5 d63d f37f 423e 14c1 13be
000002e0: c3b3 b53d 802a e8ba 06e6 0ebe ae69 a9be
000002f0: 8782 93be a8c0 00be 9af8 5fbe 9572 d13d
00000300: 54bb 49bc f3fb 5cbe 424f adbe 5f8a b03e
00000310: 81fe b8be 3f85 a13e 94f3 cf3d 1551 e4bd
00000320: 53c6 47be afde f23d 9030 e2be c836 fcbc
00000330: 56dc 83be 1f69 823e eb4f 85be bcdc 1abc
00000340: aadb 9cbe 0889 48bc f8af a0be 0759 36be
00000350: e264 8abe 54be a13c 6618 23be c31c 5cbe
00000360: f100 42be afb2 b4be dfd3 453e 9d12 453e
00000370: 1000 8ebe 7438 e5bd 3091 903b f670 5b3d
00000380: cd12 b83e a399 653e 0522 d23e a106 553e
00000390: 7c84 92bd 5ac9 86be 9645 ae3e aa88 69bd
000003a0: 1f2f 9c3e f777 4e3e 096f abbe 2bf1 e2be
000003b0: 426e 573d 2505 d3be 96e2 c43e 3742 58be
000003c0: 00a1 94bd ed74 6bbe 54df 2abe 58ec 8dbe
000003d0: af02 a33e debe 843e 3fb8 f9bd 93bb df3d
000003e0: 3b2b 7f3e 91c5 8fbe 0750 aebe a06e 5ebb
000003f0: 822a acbe 31b3 f2bd 8a0d 313d 5a0e 563d
-0.33678073 -0.36738932 -0.07903173 0.27404612 -0.09627515 0.13191181 0.17587559 -0.055141926
-0.08078359 0.3661383 0.13350533 -0.07443536 0.0016993284 0.10147584 0.23243423 0.002152525
0.34653914 0.058538727 0.06003601 -0.12578937 0.342394 -0.1453737 0.2816885 0.33466142
-0.318416 0.122309595 0.081917785 0.2299271 0.33462682 -0.1999007 -0.067166194 -0.09683721
-0.26953605 0.008565731 0.39166486 0.3816235 -0.23566489 -0.14943004 0.26622888 -0.042045835
-0.22686082 0.10160803 0.004491754 -0.2550624 0.08071577 0.030647866 -0.25481275 0.2502793
-0.26066762 -0.2759434 -0.08858615 0.09773416 -0.14805709 0.19402818 -0.06970701 -0.10794633
0.38671255 0.15802762 -0.33078432 -0.3252412 -0.022578105 0.0810839 -0.27654526 0.08487756
-0.10922324 0.18311332 0.20387872 -0.31970733 0.3245409 0.037902974 -0.15893045 -0.29459807
-0.107829265 -0.037388884 -0.37454197 -0.24106127 -0.36636588 -0.03759317 -0.04392299 0.00657665
-0.17986175 -0.2807376 0.09844809 0.06536525 -0.045936182 -0.07070142 0.043056644 -0.08560643
0.008093692 -0.20614721 0.05160334 -0.40084228 -0.072428524 0.029013313 -0.24752885 -0.24258646
0.086538054 -0.22591096 0.038440414 -0.31590593 -0.026171997 -0.30654192 -0.32437456 0.041627623
-0.0068945065 -0.077537544 -0.1865192 0.07412294 0.01622627 -0.29851243 -0.21917562 -0.028344527
0.045878865 -0.3670549 -0.09289042 0.09409832 -0.38082996 -0.008216798 -0.17657037 -0.2798687
-0.30487025 -0.007476531 -0.21224022 0.0052633137 -0.1593876 -0.046651214 0.070096634 0.040640034
-0.37767404 -0.35126176 -0.16904953 0.07712077 -0.7030127 -0.051688425 0.098851554 -0.07344166
-0.3788603 -0.16011682 -0.013981625 0.097719826 -0.08012904 0.17906258 0.39639562 -0.35446388
-0.35932717 -0.4011064 -0.19740775 0.1935995 -0.3262969 -0.27968895 -0.09709031 -0.1729563
0.02221375 0.0011419132 -0.24950507 -0.2422411 -0.37399143 -0.27555066 -0.078629434 -0.24199
-0.23099875 -0.22400737 -0.33419 -0.22099613 -0.09284103 -0.19948465 -0.08592601 -0.09703993
-0.19747925 -0.03584093 0.042010628 -0.17760968 -0.2270924 0.320944 -0.39285412 -0.26371503
-0.26024833 0.030557968 -0.32399437 -0.11347805 0.34047624 0.104961194 0.18994121 -0.14429122
0.088721775 -0.0017712861 -0.13954934 -0.3308844 -0.28810522 -0.12573493 -0.21872178 0.10226933
-0.012312729 -0.21580486 -0.3384953 0.3448057 -0.3613167 0.3154697 0.10153881 -0.11148278
-0.19509248 0.1185888 -0.44177675 -0.03078784 -0.2575404 0.25470826 -0.26037535 -0.009452041
-0.3063634 -0.012239702 -0.31384254 -0.17807399 -0.27030092 0.019744076 -0.15927276 -0.21495347
-0.18945672 -0.35292575 0.19319104 0.19245382 -0.27734423 -0.11192408 0.004411839 0.053574525
0.35951844 0.22421889 0.4104158 0.2080331 -0.07154176 -0.26325494 0.34037465 -0.0570151
0.305047 0.2016295 -0.3348315 -0.44324622 0.052595384 -0.41214862 0.3845412 -0.21119009
-0.07257271 -0.22993822 -0.16686755 -0.27719378 0.31837985 0.2592687 -0.12193345 0.10924449
0.24918835 -0.2808042 -0.3404543 -0.003394045 -0.3362618 -0.11850584 0.043225802 0.05225978

fc2.bias f4 [35]
00000000: 05cf 98be de8b aabe da0f 96be 5425 a9be
00000010: fa98 8dbe b177 8bbe 4140 4dbd 46d8 4fbe
00000020: f784 55bc 1f62 8fbf 7c93 1fbe feca 1fbe
00000030: 992b c0be 09b5 5ebc 7ed5 b2bd e9a9 ddbe
00000040: 571f 27be 2ec6 90be 7618 84bb c28e 50bd
00000050: 6a33 62be 6396 99be 2b19 b4be 3a78 06bf
00000060: e9a7 c6be 6b26 d2bd 6473 10bc 107f 4ebe
00000070: f0bd d2be 4640 c1be bd8e 1fbf 2851 c3be
00000080: c143 0dbe 0009 84be e78f 88be
-0.29845443 -0.33309835 -0.2930897 -0.33036292 -0.27655774 -0.27239755 -0.050110105 -0.20297346
-0.01303219 -1.1201819 -0.15583605 -0.15604779 -0.37533262 -0.013592967 -0.08732127 -0.43293694
-0.16320549 -0.282762 -0.0040312363 -0.050917394 -0.22089925 -0.29997548 -0.35175452 -0.525272
-0.3879998 -0.10261234 -0.008816574 -0.20165658 -0.41160536 -0.3774435 -0.62327176 -0.38147855
-0.13795377 -0.25788116 -0.2667229

fc3.weight f4 [1, 35]
00000000: fc76 5b3c 6c96 13be f8a3 723e bf28 46be
00000010: 61a0 17be 6ae7 0dbe aaad ee3d 3d82 c13d
00000020: f548 ed3d da4c f03e 0ebe 45be 75ce b3bd
00000030: dbe5 023e ce15 0b3e 1a56 05be 88f9 66be
00000040: abae 8e3c 216c d43d ae86 8f3d 89cf 193f
00000050: 4353 ffbd 5a08 843d 1e9c 713e 9f32 13bd
00000060: cd35 74be 20fb 163e b87a 223d 5049 303e
00000070: 1768 20be 7921 33bd 15e7 323e 2b7c 623e
00000080: 5c6d 33be 9726 d6bd abf8 123e
0.013395067 -0.1441285 0.23695362 -0.19351481 -0.14807273 -0.13857809 0.116542175 0.09448669
0.11586181 0.46933633 -0.19310781 -0.08779613 0.12782995 0.13582537 -0.13021126 -0.22556126
0.017417273 0.103721865 0.0700811 0.600823 -0.12467053 0.064469054 0.2359471 -0.035936948
-0.23848648 0.14744234 0.039667815 0.17215466 -0.15664707 -0.043733094 0.17470963 0.22117679
-0.17522186 -0.10456579 0.14352672
