Mice Tumors/tumor_load/c - weight decay=1/in_dim:62_mid_dim_1:70_mid_dim_2:35_out_dim:1_lr:0.001_test_size:0.2_batch_size:4_shuffle:True_epochs:200_.pt (torch_old, 28750 bytes, 5 tensors)

fc1.weight f4 [70, 62]
000000 72 78 11 06 c6 60 6e 05 68 55 6e 06 21 5a 95 06
       2.7359958e-35 1.1208481e-35 4.4825571e-35 5.6180003e-35
000010 a8 c7 27 87 ad 4d 08 85 70 de a5 03 96 a0 5f 06
       -1.2622357e-34 -6.408956e-36 9.7488975e-37 4.2059618e-35
000020 cd 25 c5 86 f1 67 b5 06 a0 f3 a5 06 5f fa 25 87
       -7.415871e-35 6.823736e-35 6.2424076e-35 -1.2486798e-34
000030 46 15 14 87 9c ec bd 86 03 c1 8b 07 7e 0b d5 06
       -1.1140534e-34 -7.1441565e-35 2.1027838e-34 8.013858e-35
000040 c3 72 67 06 c3 74 0d 06 58 e3 17 87 48 51 8b 06
       4.3530585e-35 2.6604936e-35 -1.1426788e-34 5.240542e-35
000050 34 ac 93 87 d7 41 45 06 ee 71 bb 86 3a e6 3c 06
       -2.2219314e-34 3.7099953e-35 -7.0508987e-35 3.5528014e-35
000060 54 18 53 05 5c 0a 85 87 75 cc c4 06 24 81 af 86
       9.925641e-36 -2.0017705e-34 7.402743e-35 -6.601744e-35
000070 f3 e9 ab 86 8f a2 f0 06 ac eb fd 05 5b 96 db 85
       -6.466681e-35 9.0516825e-35 2.3878578e-35 -2.0649893e-35
000080 00 a5 06 02 b9 7d 9c 87 e9 70 9d 86 96 3c b7 04
       9.892118e-38 -2.3546164e-34 -5.922274e-35 4.3078733e-36
000090 13 d4 d1 06 f1 ce ac 85 83 ef e9 86 5c 86 fa 03
       7.892868e-35 -1.625082e-35 -8.799679e-35 1.4724527e-36
0000a0 fc 54 8a 06 e6 8f e5 05 af 4b 67 87 fb 5b 76 86
       5.2034704e-35 2.1587916e-35 -1.740075e-34 -4.6335034e-35
0000b0 8b 71 9f 06 dc 65 50 85 cc 0d 13 06 53 25 16 87
       5.997599e-35 -9.7988216e-36 2.7657763e-35 -1.1295714e-34
0000c0 c9 c4 de 86 a0 07 00 87 02 73 89 07 9e eb 9f 06
       -8.379627e-35 -9.63189e-35 2.0681064e-34 6.015536e-35
0000d0 dc 93 43 86 ab 8f c6 86 d6 21 47 87 a0 80 a4 87
       -3.6784054e-35 -7.4690423e-35 -1.498104e-34 -2.4751576e-34
0000e0 0e 29 91 87 1c 48 e2 04 c4 24 88 06 2c 25 74 86
       -2.1841305e-34 5.3198567e-36 5.1211536e-35 -4.591861e-35
0000f0 bf 80 a5 05 d0 92 39 87 d7 72 16 b9 18 e1 ea 38
       1.5563819e-35 -1.3960997e-34 -0.00014347896 0.000111999165
000100 b3 3d 4b 3a ec f6 26 b8 77 c5 2d 3a 5c c8 3a b9
       0.00077530293 -3.9807448e-05 0.0006628851 -0.00017812982
000110 54 2f d6 3a 81 bd d0 39 5f 10 51 3a 32 3a 94 3a
       0.0016341009 0.00039814043 0.0007975157 0.0011308847
000120 fe 7e 43 3a ff a5 03 ba bc da cd b9 a6 cd 51 3a
       0.0007457583 -0.0005021989 -0.00039263617 0.0008003361
000130 da 46 52 ba 89 a5 02 bb 22 85 0b ba d7 a9 03 b9
       -0.0008021422 -0.0019935092 -0.00053222675 -0.00012556404
000140 5c 1a b9 39 a9 55 16 b9 95 92 6d b9 85 f4 78 b9
       0.0003530559 -0.00014337026 -0.00022656687 -0.00023742214
000150 52 70 0d b9 77 b0 45 ba 0f 0a c1 39 d6 ca 64 b9
       -0.0001348865 -0.0007541249 0.00036819323 -0.00021819337
000160 46 48 79 ba 83 83 a9 3a 1a ba 3a ba eb 84 e8 b8
       -0.0009509366 0.001293287 -0.0007123068 -0.0001108738
000170 91 7d 89 39 57 b3 b3 39 45 bc 9b b9 d8 75 93 38
       0.0002622423 0.0003427516 -0.00029704176 7.031456e-05
000180 1d 7e aa b8 e4 dc 27 ba 6a 12 2b 3a 77 ff e1 b8
       -8.129722e-05 -0.00064034597 0.0006525876 -0.0001077642
000190 79 8c 2f b9 cc bf 9b b9 c2 e9 d7 38 89 d0 a2 b9
       -0.0001674163 -0.00029706804 0.0001029554 -0.0003105442
0001a0 fb ef fe b9 58 75 12 b9 ac 80 69 b9 e2 4b 81 3a
       -0.00048625455 -0.00013967359 -0.00022268546 0.0009864534
0001b0 61 5c b5 b9 50 2c 01 ba fa 2e 14 b9 37 90 05 3a
       -0.00034591838 -0.00049275625 -0.0001413188 0.0005095037
0001c0 cb 20 fe 39 6e 33 10 b9 94 8f b5 b9 b0 48 bb b8
       0.00048471088 -0.00013752069 -0.00034629984 -8.930394e-05
0001d0 05 c0 74 ba bc 3b 0a b8 c6 2c 09 b9 fb 51 14 b9
       -0.00093364745 -3.2957396e-05 -0.00013082018 -0.0001414492
0001e0 c6 2c c2 b9 3b 21 1a b9 f0 ee 59 ba 02 2e a2 3a
       -0.00037035922 -0.00014698964 -0.00083134975 0.001237333
0001f0 b2 c2 67 b9 42 22 09 3c 73 58 d3 3c fa 45 42 3b
       -0.00022102406 0.008369984 0.025799012 0.002964376
000200 de 7d 49 3c 8e d6 85 bb 89 64 30 3d bd 2a 74 3c
       0.0122980755 -0.004084415 0.043064628 0.014902768
000210 64 b1 82 3c b0 4a de 3c 28 c3 88 3c cc 17 90 bc
       0.015953727 0.027135223 0.01669462 -0.017589472
000220 d1 fa 7f bc 1f 03 80 3c 3d 5f dc bc 9f 30 6e bd
       -0.015623764 0.015626488 -0.026900882 -0.058151837
000230 dc af 39 bc 6f 52 b6 bb d3 80 f0 3b 00 d8 67 b9
       -0.011333432 -0.005564026 0.007339576 -0.00022110343
000240 39 87 43 bb 53 4f 51 bb 08 5d 63 b9 6d 0a a9 bc
       -0.0029835238 -0.003193815 -0.00021683064 -0.020634854
000250 2e 9a c6 3b 36 e8 d8 ba cf 27 c7 bc 64 7a 26 3d
       0.00606086 -0.0016548696 -0.024310974 0.040644065
000260 77 ed c1 bc 13 c6 e6 bb 3c 87 ed 3b 2f 6d 3a 3c
       -0.023672802 -0.0070426553 0.007248787 0.01137857
000270 b3 0a 6a bc 66 30 c6 3b cc 02 dd bb bc f8 a3 bc
       -0.014284777 0.00604825 -0.006744718 -0.020016067
000280 52 d3 cb 3c a3 21 fb bb 28 d2 9b ba fc 93 e3 bb
       0.024881039 -0.007663922 -0.0011888193 -0.0069451313
000290 77 f6 ea 3b eb d0 32 bc ea 4f 1c bc 46 3d 67 b9
       0.007170494 -0.010914068 -0.009540537 -0.00022052703
0002a0 f0 ea 35 bb 59 d8 e7 3c ed c3 ef bb 4b 26 42 bc
       -0.0027758442 0.028301405 -0.0073170573 -0.01184995
0002b0 22 7a 67 b9 e3 e9 2c 3c 62 02 12 3c 76 70 67 b9
       -0.00022075375 0.01055381 0.008911701 -0.00022071772
0002c0 b5 de bd bb da 79 8f 3a f8 69 ba bc b4 03 5d 3b
       -0.005794371 0.0010946349 -0.022755608 0.003372413
0002d0 40 62 67 b9 88 38 66 b9 c2 fd f4 bb 12 94 d4 bb
       -0.00022066478 -0.00021955569 -0.0074765394 -0.006487378
0002e0 e0 73 a9 bc b7 6b f3 3c 93 76 38 17 c2 e8 8c 17
       -0.020685136 0.029714448 5.960327e-25 9.106044e-25
0002f0 ff 50 b5 97 19 0a ab 15 b8 f4 04 18 2d cd 07 17
       -1.1717297e-24 6.908228e-26 1.7184152e-24 4.387982e-25
000300 86 2a ce 17 72 5a d5 17 04 f1 cb 17 4e 70 93 18
       1.3323172e-24 1.3787634e-24 1.3179408e-24 3.811201e-24
000310 2a bb 51 97 9c fb 49 98 3b 91 b9 17 85 dd 15 97
       -6.7767776e-25 -2.6105671e-24 1.1992006e-24 -4.8424094e-25
000320 23 d1 29 98 47 7c 91 17 99 7d 96 17 5a 2d 88 97
       -2.1948325e-24 9.401777e-25 9.725228e-25 -8.800242e-25
000330 c7 3d 5a 17 b1 1b 10 18 a6 05 ac 97 d8 8b c8 17
       7.0517573e-25 1.8625544e-24 -1.1116665e-24 1.2959999e-24
000340 78 cf ec 15 34 26 da 16 57 81 aa 96 55 fb bd 17
       9.564697e-26 3.524391e-25 -2.7546606e-25 1.2277284e-24
000350 f4 9c 50 97 9e af 03 97 60 b5 33 14 c1 36 1b 17
       -6.7406527e-25 -4.2550043e-25 9.0729604e-27 5.015231e-25
000360 be 2f 1a 17 e8 64 55 97 2b fe 42 16 75 b2 c3 17
       4.9820343e-25 -6.8951373e-25 1.5751396e-25 1.2646629e-24
000370 cf e1 d9 97 f8 1b a4 97 da 00 47 97 b7 7b c8 17
       -1.4080298e-24 -1.0605312e-24 -6.4301443e-25 1.2955927e-24
000380 3e ce 58 18 4a 55 82 15 bc 18 4e 18 93 73 66 17
       2.8021471e-24 5.2641144e-26 2.6637364e-24 7.4462883e-25
000390 7c 5e bf 17 69 42 9e 97 a4 9f b7 15 85 2e 45 98
       1.2366937e-24 -1.0227275e-24 7.416498e-26 -2.548514e-24
0003a0 bf 43 48 18 7d 21 a9 97 0a 20 d2 17 1f 6e fb 17
       2.5883597e-24 -1.0929823e-24 1.357902e-24 1.6248293e-24
0003b0 a1 34 eb 97 d8 6c d5 17 36 a8 63 18 10 82 2c 18
       -1.5199804e-24 1.3792278e-24 2.9423987e-24 2.2296144e-24
0003c0 a0 4f 5b 18 46 f6 50 17 70 6c 2d 17 18 68 09 18
       2.8345287e-24 6.7519266e-25 5.603618e-25 1.7759389e-24
0003d0 0d 67 13 18 a0 36 c3 96 b4 91 b8 97 a0 27 fd 97
       1.9051332e-24 -3.1538422e-25 -1.1927502e-24 -1.6359745e-24
0003e0 2f ad a3 b7 8a aa 06 37 3f bb cd 38 e2 6e bc b6
       -1.951176e-05 8.026729e-06 9.810039e-05 -5.615745e-06
0003f0 bc 0f ca 38 cb 51 8f b7 8b ef 60 39 2a c0 53 38
       9.635041e-05 -1.7085016e-05 0.00021451541 5.0485287e-05

fc1.bias f4 [70]
000000 b8 a4 cb 86 bf 9f bb 39 6a 50 ca 3b c4 8d 0d 98
       -7.6602145e-35 0.0003578644 0.006174137 -1.8295396e-24
000010 33 bb 4a 38 08 89 50 33 42 08 1c 15 9f da 8c 33
       4.8334896e-05 4.8553403e-08 3.1510463e-26 6.559025e-08
000020 e7 e1 08 86 a2 ac 23 89 27 aa 01 89 60 d9 f2 8f
       -2.5744724e-35 -1.9701583e-33 -1.5607815e-33 -2.3946772e-29
000030 82 36 81 3a 65 9a 72 89 9c c5 a1 3b f6 f4 ff 1c
       0.0009858164 -2.9202286e-33 0.004936887 1.6937805e-21
000040 96 f7 29 01 21 2e f2 3b da 15 cc 14 04 56 d2 a5
       3.1218032e-38 0.007390753 2.0607355e-26 -3.648748e-16
000050 1e 8f 9b 82 dd 2d f6 3b c8 77 a0 a4 e6 d3 1b 3c
       -2.2857348e-37 0.0075127915 -6.9591856e-17 0.00951097
000060 de 16 ec 3b 6b a2 af 9c 18 a3 01 89 a3 f0 2a 3c
       0.0072048744 -1.1622513e-21 -1.5604496e-33 0.010433349
000070 06 60 fe 0d a9 11 f3 0f 3c b5 01 33 2f fa 1a 3c
       1.5677075e-30 2.3968452e-29 3.0199985e-08 0.0094590625
000080 1e 88 1f 3c 7b 9b 7a 06 dd 70 d2 b6 a4 1d 13 3c
       0.009737043 4.7134003e-35 -6.2716267e-06 0.008979235
000090 77 f9 99 86 f4 1a bd ae 7b df ba 03 3b 76 14 8d
       -5.791876e-35 -8.599513e-11 1.0983406e-36 -4.5748336e-31
0000a0 d3 39 a4 0c 5f d1 c5 38 58 1f 2e 3c 8b f1 d2 a6
       2.5303003e-31 9.4326904e-05 0.01062759 -1.4637148e-15
0000b0 e8 1b 30 8d 20 c5 09 3c f9 9c 1f 3c 66 d2 1a 3c
       -5.426778e-31 0.008408815 0.009742015 0.009449577
0000c0 20 07 f9 01 c7 27 a5 3c a1 90 ba 1a 57 4c 29 8b
       9.147838e-38 0.020160569 7.716146e-23 -3.2605648e-32
0000d0 0e a7 15 06 76 e9 e1 3b 30 8c 3a 3c 09 c4 43 3c
       2.8146518e-35 0.006894286 0.011385962 0.011948594
0000e0 92 c9 2f 07 c5 f8 c0 89 83 8c c0 3c e5 58 61 8a
       1.3224773e-34 -4.645626e-33 0.023504501 -1.0850075e-32
0000f0 3e 6e 9f 04 93 4d 15 3c 98 af 59 85 31 a0 bc b4
       3.7481962e-36 0.009112733 -1.02355424e-35 -3.5134283e-07
000100 1b ad 48 88 5b 62 93 83 b0 a6 ea 3a 93 27 9d 36
       -6.0388795e-34 -8.662465e-37 0.001790246 4.6835717e-06
000110 ab e2 55 3c 98 16 45 83
       0.01305453 -5.7919033e-37

fc2.weight f4 [35, 70]
000000 fc 4a 40 00 32 26 66 ad d2 88 21 b1 5b 55 e5 0f
       5.904371e-39 -1.3082467e-11 -2.3506357e-09 2.2614021e-29
000010 70 e7 50 ac 65 d0 6e 2b 31 78 95 0e d3 fc 80 a8
       -2.9687051e-12 8.484379e-13 3.6847076e-30 -1.43205e-14
000020 83 d7 02 80 44 16 0f 04 df c3 02 04 c6 e6 73 86
       -2.60982e-40 1.6819793e-36 1.5371366e-36 -4.5872766e-35
000030 b2 5f a8 ae fd 40 1a 80 cc 03 f8 b0 79 66 d3 13
       -7.6567544e-11 -2.411036e-39 -1.8045454e-09 5.3364934e-27
000040 56 08 00 80 2b ea 90 b1 cf be 71 8f 0d 13 96 1e
       -2.99e-42 -4.2175734e-09 -1.1918966e-29 1.5889747e-20
000050 ba 5d 00 00 72 fa 50 b1 40 7b 14 17 cf 47 8f b1
       3.3623e-41 -3.0410345e-09 4.7976943e-25 -4.1700114e-09
000060 29 7d 63 b1 a6 99 30 93 7b 52 10 82 ec 18 b5 b1
       -3.3103993e-09 -2.2290078e-27 -1.060312e-37 -5.2706266e-09
000070 ff e6 ba 03 60 08 91 03 08 62 a7 29 51 0c a0 b1
       1.0985132e-36 8.524257e-37 7.4332955e-14 -4.658013e-09
000080 39 96 b5 b1 31 c2 01 00 8e f9 86 ab 70 97 8b b1
       -5.2848717e-09 1.61498e-40 -9.590538e-13 -4.062649e-09
000090 e4 49 00 00 c6 94 15 24 36 16 00 00 92 e0 20 85
       2.6507e-41 3.243524e-17 7.968e-42 -7.564411e-36
0000a0 38 85 32 81 c3 42 26 ad 1d e9 c0 b1 dc f6 35 1f
       -3.2789016e-38 -9.450832e-12 -5.6144374e-09 3.8532438e-20
0000b0 29 6d 63 02 2e 5a 9b b1 3f 0a 91 b1 b0 a9 9d b1
       1.6708654e-37 -4.521346e-09 -4.2212203e-09 -4.5885926e-09
0000c0 33 02 00 80 23 5b d9 31 d7 2c c3 94 88 11 54 00
       -7.89e-43 6.3258923e-09 -1.9707654e-26 7.720471e-39
0000d0 d0 10 01 80 29 41 7c b1 4f 57 b8 b1 ae bb c9 30
       -9.7867e-41 -3.6707866e-09 -5.3650306e-09 1.4678017e-09
0000e0 fc 55 92 82 be e1 42 81 73 ed 36 32 80 d1 19 01
       -2.1502125e-37 -3.5794135e-38 1.0647784e-08 2.825197e-38
0000f0 3d 4e 01 80 37 f9 9e b1 fe 65 01 00 12 4f b8 a7
       -1.19902e-40 -4.6267377e-09 1.28423e-40 -5.1155987e-15
000100 01 32 02 01 55 07 00 80 1e 29 db af cf c7 61 2b
       2.3913105e-38 -2.63e-42 -3.9865083e-10 8.021335e-13
000110 8e d0 1a b2 27 09 00 00 72 56 00 00 76 0b db 16
       -9.0114e-09 3.283e-42 3.1011e-41 3.538859e-25
000120 37 af 68 19 e1 1a 09 08 12 0d 0b 15 aa 03 11 13
       1.2029503e-23 4.1258534e-34 2.8081137e-26 1.830338e-27
000130 16 da 06 04 08 b1 58 13 8c 01 00 00 9e a4 98 80
       1.5851764e-36 2.7350316e-27 5.55e-43 -1.4018049e-38
000140 29 0f 06 80 09 01 00 00 24 78 a4 17 fa 01 00 00
       -5.56451e-40 3.71e-43 1.0628579e-24 7.09e-43
000150 51 d1 31 19 48 7d 00 00 b7 01 00 80 dd 62 8d 19
       9.192957e-24 4.4942e-41 -6.15e-43 1.4618989e-23
000160 4a 27 b5 89 b4 64 88 04 e2 00 00 00 39 e2 9b 19
       -4.3611112e-33 3.2065928e-36 3.17e-43 1.6117995e-23
000170 b0 38 70 80 5e e3 c2 19 9f be 8a 19 00 d2 f0 09
       -1.0305911e-38 2.0150963e-23 1.4345857e-23 5.797538e-33
000180 0e 84 02 00 57 11 dc 19 4e 00 00 00 0b 02 00 80
       2.31043e-40 2.275447e-23 1.1e-43 -7.33e-43
000190 29 57 8b 10 6a 8d c7 19 33 08 c4 19 79 82 00 00
       5.4960124e-29 2.0633234e-23 2.0269237e-23 4.6805e-41
0001a0 10 8f 1c 94 aa 94 af 19 07 01 00 00 fa 55 33 14
       -7.904201e-27 1.8154621e-23 3.69e-43 9.0541464e-27
0001b0 e9 03 00 80 98 3b 6a 81 ad 00 00 80 80 29 f4 15
       -1.403e-42 -4.302177e-38 -2.42e-43 9.861629e-26
0001c0 b3 f5 da 19 49 98 d3 8f 9f 00 00 00 6b 70 a6 19
       2.2639909e-23 -2.0864864e-29 2.23e-43 1.7209403e-23
0001d0 6a c0 da 19 fa b1 c0 19 7b 00 00 80 e5 a7 d8 19
       2.2618387e-23 1.9924219e-23 -1.72e-43 2.2401689e-23
0001e0 5c de e0 0d 30 02 00 80 b1 26 00 00 a5 a9 82 19
       1.3858597e-30 -7.85e-43 1.388e-41 1.3510204e-23
0001f0 ca 19 f4 19 94 35 7c 19 61 99 00 00 08 ca 00 80
       2.5239425e-23 1.3038915e-23 5.5022e-41 -7.2475e-41
000200 ab 11 01 1a 31 f7 6a 00 a5 01 00 00 22 f5 b0 19
       2.6690847e-23 9.823238e-39 5.9e-43 1.8296982e-23
000210 33 05 00 00 02 35 1c 11 94 08 00 00 92 0c 00 00
       1.865e-42 1.2322564e-28 3.077e-42 4.51e-42
000220 bb 0f 43 18 16 12 71 14 83 4a 06 1a 7b 0e 00 80
       2.5211101e-24 1.21709574e-26 2.777074e-23 -5.195e-42
000230 b4 8c 8d 07 f5 b6 50 3a 5a fa d6 3c 32 de 08 18
       2.129802e-34 0.0007961833 0.026242424 1.7689768e-24
000240 2c a8 d8 38 60 73 e1 b5 9f 56 a6 95 26 0a 8c 34
       0.00010331007 -1.6797385e-06 -6.718353e-26 2.6084416e-07
000250 fe b5 9b 85 d6 ec 13 8b 4d 2b c3 09 f3 04 14 10
       -1.4642983e-35 -2.8489346e-32 4.6985262e-33 2.9191666e-29
000260 20 8c 28 3b 3d 48 32 08 9d a1 a7 3c 32 e0 58 1d
       0.0025718287 5.364984e-34 0.020462805 2.8703268e-21
000270 c5 5f 7b 82 40 40 07 3d e6 ef ab 14 34 58 73 25
       -1.8468052e-37 0.033020258 1.736121e-26 2.1106775e-16
000280 58 bf 2b 81 73 82 05 3d 79 28 2e 24 f0 46 2d 3d
       -3.1545022e-38 0.03259511 3.7764517e-17 0.04230398
000290 f6 ab 00 3d e8 43 65 1c e4 b8 17 8a 8e d1 45 3d
       0.031413995 7.585751e-22 -7.3051596e-33 0.04829555
0002a0 1a 3b 5c 0e aa 84 0f 0e 7a f8 88 33 99 d1 33 3d
       2.714555e-30 1.7689986e-30 6.378191e-08 0.04390106
0002b0 fb e4 34 3d f2 3c 4a 87 12 cd 1e 36 66 a0 22 3d
       0.044163685 -1.5214701e-34 2.3663201e-06 0.03970375
0002c0 c8 b9 71 08 7e 70 0b ad d6 ae 9b 83 6d 6d d7 0c
       7.2741684e-34 -7.9262135e-12 -9.150222e-37 3.3191853e-31
0002d0 b4 05 81 8b 61 62 67 39 68 c8 49 3d d4 0f 66 25
       -4.9697574e-32 0.00022066526 0.049263388 1.9954683e-16
0002e0 f6 54 1b 0c e9 e6 1a 3d 21 ba 32 3d 1b 74 2e 3d
       1.1966333e-31 0.03781787 0.043634538 0.042591196
0002f0 6e 15 90 83 f0 e7 4b 3d ba b9 27 1a 7b f2 bb 8b
       -8.468479e-37 0.04978174 3.468482e-23 -7.2394624e-32
000300 b2 56 83 88 47 b8 f3 3c 1d 9f 59 3d 87 52 f1 3c
       -7.904658e-34 0.029750956 0.053130258 0.029458297
000310 fc 2c 03 89 33 03 39 0a 6c 36 6e 3d c5 83 fd 8a
       -1.5789703e-33 8.908028e-33 0.05815737 -2.441258e-32
000320 e2 90 a0 84 9b aa 25 3d b2 7c 8f 05 e3 1a 4e 34
       -3.7748873e-36 0.040445905 1.3493461e-35 1.9195026e-07
000330 f0 77 96 09 54 f6 2b 83 14 80 c5 3b 60 64 af 36
       3.6223975e-33 -5.0535154e-37 0.006027231 5.2270916e-06
000340 e9 d5 7c 3d 9d b8 d1 03 d6 01 00 00 e9 0c 1b 24
       0.061727438 1.2326301e-36 6.59e-43 3.3621203e-17
000350 3e a2 19 27 63 ab 3e 05 36 ed aa 22 ed 8c 66 a0
       2.1320967e-15 8.965236e-36 4.632975e-18 -1.9528386e-19
000360 35 4b 44 82 6b e3 87 1e e5 01 00 00 c3 00 00 00
       -1.4421389e-37 1.4387739e-20 6.8e-43 2.73e-43
000370 32 01 00 80 10 0e 00 00 9d af 23 25 aa 00 00 80
       -4.29e-43 5.045e-42 1.4197496e-16 -2.38e-43
000380 f2 b1 e5 26 b8 6b 1e 09 40 00 00 80 00 36 3f 27
       1.5938299e-15 1.9069207e-33 -9e-44 2.6535848e-15
000390 0e 89 ab 83 ac 2a 84 0f 8a 00 00 00 a5 e1 3a 27
       -1.0081943e-36 1.3032642e-29 1.93e-43 2.5935007e-15
0003a0 6c 23 d2 0e b6 1d 76 27 3b 6f 41 27 84 3e f6 08
       5.1803107e-30 3.4155464e-15 2.6844429e-15 1.4820284e-33
0003b0 93 00 00 00 61 67 8b 27 7f 01 00 00 86 27 00 80
       2.06e-43 3.8692334e-15 5.37e-43 -1.4178e-41
0003c0 f3 0d 40 1d 6f 27 8e 27 3d f8 85 27 39 00 00 80
       2.54182e-21 3.945567e-15 3.7184056e-15 -8e-44
0003d0 d2 3c ff a1 97 01 62 27 9c 01 00 00 05 31 42 9a
       -1.7295571e-18 3.1364662e-15 5.77e-43 -4.0157857e-23
0003e0 d9 01 00 00 e8 04 00 80 97 01 00 00 95 2e 68 23
       6.63e-43 -1.76e-42 5.7e-43 1.2586609e-17
0003f0 80 2d 93 27 43 91 7d 14 6f 00 00 00 1f cc 56 27
       4.0850027e-15 1.28018836e-26 1.56e-43 2.980912e-15

fc2.bias f4 [35]
000000 2b 9f 89 32 62 bf 15 19 1d f8 87 3c 44 9d fa 26
       1.602128e-08 7.741769e-24 0.016597802 1.7389862e-15
000010 d0 9c 62 a3 02 5f ba 3c d0 74 ad 3c 59 f4 47 1f
       -1.2284691e-17 0.022750381 0.021173865 4.234201e-20
000020 c6 0b 7f 3c 3e 54 7b 31 ac ca c4 3c 2e 33 7c a2
       0.015566772 3.6573193e-09 0.024022423 -3.4179463e-18
000030 82 2c 9f 3c 06 36 71 24 6d 24 cb 3c d3 ad bd 14
       0.019430403 5.2304304e-17 0.024797643 1.9152685e-26
000040 b9 15 1f 33 ef dd bf 88 7b f1 3e 32 f2 61 13 a6
       3.703983e-08 -1.1547571e-33 1.1114362e-08 -5.113361e-16
000050 09 a2 be 30 1f 27 ea 3c ce 03 c6 3c 08 be 4d 3c
       1.3870373e-09 0.028583108 0.024171736 0.012557514
000060 e0 b5 25 1a 8d 94 39 ae f5 1d 2d 23 d8 b3 8f 3c
       3.4268118e-23 -4.219607e-11 9.3846924e-18 0.01754181
000070 24 fc e4 3c 2d 47 47 28 30 73 e7 3c 14 eb 09 1e
       0.027952261 1.1062153e-14 0.028253168 7.301333e-21
000080 0d 9d 0e 2c 9e cc 8a 28 67 83 6c 3c
       2.0266594e-12 1.5409816e-14 0.014435626

fc3.weight f4 [1, 35]
000000 28 8f 20 b3 46 15 cb 1a f2 f8 41 3e 22 fd 72 28
       -3.7383103e-08 8.39932e-23 0.18942621 1.3488588e-14
000010 95 68 8d a5 f6 31 85 3e b4 2f 78 3e e0 32 1c 21
       -2.4530469e-16 0.2601468 0.24236947 5.292219e-19
000020 e9 18 36 3e ff 23 33 33 d4 93 8c 3e 98 a5 cf 23
       0.1778294 4.1709423e-08 0.27456534 2.2513117e-17
000030 f3 06 63 3e c2 94 1d 26 c4 50 91 3e 20 39 25 15
       0.2217062 5.467192e-16 0.28381932 3.3366548e-26
000040 33 6d d5 34 14 14 fc 87 a5 e5 fe 33 aa 69 ac a8
       3.9753795e-07 -3.7928547e-34 1.1869569e-07 -1.914166e-14
000050 67 da 24 32 28 e5 a6 3e 8b d9 8d 3e 51 da 12 3e
       9.595715e-09 0.32596707 0.27705035 0.14341094
000060 49 1a ea 1b 3d 62 73 b0 72 33 e8 24 5c 77 4d 3e
       3.872904e-22 -8.854249e-10 1.00701113e-16 0.20065063
000070 b3 6b a3 3e a3 3d 03 2a 66 b9 a5 3e 96 e9 e7 1f
       0.31918105 1.1656522e-13 0.3236801 9.821874e-20
000080 56 7f 76 ac ec 3c 1f 2a 54 0c 29 3e
       -3.5029388e-12 1.4143173e-13 0.16508609
