Mice Tumors/tumor_load/in_dim:62_mid_dim_1:40_mid_dim_2:20_out_dim:1_lr:0.001_test_size:0.2_batch_size:4_shuffle:True_epochs:200_.pt (torch_old, 14470 bytes, 5 tensors)

fc1.weight f4 [40, 62]
000000 db 70 4c 3a 01 db f6 3c 3e 17 78 3d 62 db fd 3b
       0.0007798799 0.030133726 0.06056904 0.0077470997
000010 25 91 ea 3c 1a a4 78 bb df 1c dc 3d 23 7a 10 3d
       0.028633663 -0.003793961 0.10747694 0.03527273
000020 b6 70 00 3d d4 b5 85 3d f9 d6 03 3d 8e 56 19 bd
       0.03135749 0.065288216 0.032187436 -0.03743606
000030 12 0c d3 bc c0 22 fa 3c 90 71 80 bd d8 e6 16 be
       -0.025762592 0.030534148 -0.0627166 -0.14736497
000040 01 1a e7 bc 2d 12 88 3b 1e 44 23 3c 06 59 4c 3a
       -0.028210642 0.0041525573 0.009964971 0.0007795248
000050 83 65 8a bb d6 e0 fc bb f4 57 4c 3a 17 42 49 bd
       -0.004223527 -0.007717232 0.00077950885 -0.049135294
000060 0a f3 37 3c f6 cd 62 3a 28 c2 97 bd 47 6d ad 3d
       0.011227379 0.00086519064 -0.07410079 0.084681086
000070 1e c3 7d bd f2 06 88 bc 69 a4 b4 3c 58 6c 02 3d
       -0.061953656 -0.016604874 0.022051053 0.031841606
000080 dc b2 ef bc 7e 87 8f 3c fd 34 70 bc 6f a1 3c bd
       -0.029260091 0.017520662 -0.014661071 -0.046052393
000090 e4 3b 8c 3d 54 99 ad bc 8b c4 c3 ba 7c 74 45 bc
       0.06847361 -0.021191277 -0.0014935894 -0.012051698
0000a0 bb 43 9a 3c 95 85 9d bc 96 06 a2 bc 5c 5b 4c 3a
       0.018831125 -0.019228736 -0.019778531 0.0007795596
0000b0 fa 1c 7c bb 00 35 8e 3d e9 85 90 bc 24 6c 04 bd
       -0.003846942 0.06943703 -0.017641978 -0.032329693
0000c0 a0 5d 4c 3a 1c 58 5a 3c 71 95 91 3c f0 54 4c 3a
       0.00077959336 0.013326671 0.017771455 0.0007794639
0000d0 6f a7 38 bc 12 fb 42 3b fa 2b 71 bd 07 99 33 3c
       -0.011270388 0.00297517 -0.05887983 0.0109617775
0000e0 18 57 4c 3a 9f 65 4c 3a 66 ce a9 bc 0d fb be bc
       0.00077949604 0.0007797125 -0.020728301 -0.02331307
0000f0 62 ff 25 bd 31 06 83 3d ae 6c b0 1e d7 dc b6 1c
       -0.040526755 0.06397665 1.8679674e-20 1.2100835e-21
000100 73 3b 17 1f 01 22 78 1e 36 a0 50 1e 8f 83 bb 1f
       3.202467e-20 1.31360425e-20 1.1044559e-20 7.9415226e-20
000110 73 1d 8a 9f 4e 27 c9 1e 36 24 aa 1e ce 0f 89 9f
       -5.849399e-20 2.1297959e-20 1.8014427e-20 -5.8047904e-20
000120 88 7e 2b 20 3c f0 3c 9f 74 c9 16 20 bb 9f 4e 20
       1.4526129e-19 -4.0009266e-20 1.277215e-19 1.7501729e-19
000130 a0 1e 96 1f f5 4f 1c 9f de d7 ec 9e ea 64 a7 20
       6.3578136e-20 -3.3100424e-20 -2.5076753e-20 2.835768e-19
000140 fb 1e 46 20 e6 27 ad 1e 0b e7 e6 9f 09 05 93 1e
       1.6781503e-19 1.8333589e-20 -9.779102e-20 1.5566313e-20
000150 50 7b dc 9f 19 d5 1f 9e 3f 4f 86 1f e9 89 09 1e
       -9.337763e-20 -8.4614575e-21 5.688231e-20 7.281239e-21
000160 17 07 b0 1e a3 d7 9b 9d c8 f0 cb 1d da 0a 92 9e
       1.8637657e-20 -4.125112e-21 5.3982615e-21 -1.546284e-20
000170 19 5d 10 9d 96 87 03 1d 64 61 a0 1f 8d aa ac 1e
       -1.9106372e-21 1.7407802e-21 6.7923755e-20 1.8281747e-20
000180 96 a2 9e 9e e5 16 3d 1e d6 3f 70 1e c4 ec a9 9e
       -1.6796145e-20 1.0010311e-20 1.2718695e-20 -1.7991495e-20
000190 e2 a4 9b 1e b8 bb 3d 9e 32 de f3 9d 44 58 6b 1c
       1.6479457e-20 -1.0044396e-20 -6.455131e-21 7.786906e-22
0001a0 67 85 10 1e 57 be 67 1e cd ce f3 1d cf 6b b5 1e
       7.6508835e-21 1.22683995e-20 6.453539e-21 1.9208709e-20
0001b0 21 4a 36 1f ed 76 ea 9d f8 6d 46 1e 98 60 97 1e
       3.8601317e-20 -6.206225e-21 1.0504774e-20 1.6027697e-20
0001c0 e6 95 96 20 cf dd e5 1d 24 bc 4c 20 7c 8d 9f 1e
       2.5510183e-19 6.084514e-21 1.7341723e-19 1.6893296e-20
0001d0 16 7e 02 20 ea 99 8b 1e 46 4a 32 1e 7e 97 63 1e
       1.1053147e-19 1.4780855e-20 9.438601e-21 1.2048608e-20
0001e0 14 6a b4 1e 2a 81 78 1e 50 9c b0 1e 46 86 d5 9d
       1.9102114e-20 1.3155721e-20 1.8699374e-20 -5.6519466e-21
0001f0 1a c0 9f 85 e4 4d a9 06 d4 8a 24 06 a6 5d 69 85
       -1.5022855e-35 6.3685184e-35 3.0946967e-35 -1.0972808e-35
000200 92 ec dd 06 ea 73 2d 06 8e 23 08 06 65 10 2d 07
       8.347857e-35 3.2622844e-35 2.5604879e-35 1.3019891e-34
000210 9c d3 d7 84 00 ec bf 06 44 11 30 05 2d 51 bc 06
       -5.074059e-36 7.2192986e-35 8.2786514e-36 7.083702e-35
000220 11 b5 dd 85 db e0 9e 06 a0 02 52 86 02 6c 07 06
       -2.0849253e-35 5.976339e-35 -3.949854e-35 2.547003e-35
000230 64 18 1b 86 4e 41 25 06 46 88 42 87 a3 35 bf 05
       -2.917018e-35 3.108103e-35 -1.4634985e-34 1.7981257e-35
000240 b6 35 d2 05 dc 6e 82 05 2a 79 c4 05 dc 5e 6e 86
       1.9768035e-35 1.2265865e-35 1.847626e-35 -4.4832517e-35
000250 00 9e 26 83 00 4e 03 07 74 9f 4d 87 59 4e ec 06
       -4.896439e-37 9.878267e-35 -1.5469345e-34 8.8888455e-35
000260 38 57 e1 86 63 6f 77 86 ed b7 0c 05 9e 5b 1f 87
       -8.476375e-35 -4.653737e-35 6.61655e-36 -1.1988754e-34
000270 14 69 c9 85 b4 77 0b 07 07 8d ad 85 ae c0 df 85
       -1.8940549e-35 1.0492375e-34 -1.6320647e-35 -2.1041599e-35
000280 dc ef e2 06 a7 3d 80 86 1b 11 4f 06 a3 5c dc 04
       8.5364193e-35 -4.823884e-35 3.894494e-35 5.1806825e-36
000290 3e 4b 74 06 74 7d 30 05 6d 33 1c 06 e0 ba 10 04
       4.594658e-35 8.298522e-36 2.937812e-35 1.7012927e-36
0002a0 4e 00 3d 06 56 64 09 06 0c dd f6 84 7e 91 7d 05
       3.5547173e-35 2.584055e-35 -5.803732e-36 1.19227255e-35
0002b0 63 c0 8e 05 e4 12 73 06 de 90 dd 84 17 db 07 07
       1.3424288e-35 4.57171e-35 -5.208989e-36 1.0220656e-34
0002c0 39 17 04 86 d9 f2 b1 06 9e 51 93 85 e9 6a 1d 07
       -2.4843502e-35 6.693683e-35 -1.3853795e-35 1.1842785e-34
0002d0 e0 83 43 05 d8 5c 08 06 fb b5 5b 06 ac 59 5c 07
       9.1930775e-36 2.5646968e-35 4.132302e-35 1.6577313e-34
0002e0 28 2e c6 85 97 e8 00 86 44 53 52 39 08 11 ee 3b
       -1.8636786e-35 -2.4245004e-35 0.0002005818 0.007265214
0002f0 59 65 7d 3c 98 25 02 3b 12 e9 02 3c 70 0a a8 ba
       0.015466058 0.0019858833 0.007990139 -0.0012820493
000300 70 97 e6 3c 0b 87 16 3c 40 c4 0d 3c ea 11 8e 3c
       0.028148383 0.00918747 0.008652747 0.017342526
000310 74 6a 0c 3c e3 2b 22 bc c2 30 da bb e8 1a 0c 3c
       0.008570302 -0.009898159 -0.0066586444 0.008551337
000320 ad e9 83 bc ee ae 18 bd 89 f4 ec bb 5d 57 e3 3a
       -0.016102636 -0.0372762 -0.0072312993 0.0017344762
000330 41 60 13 3b 8e b5 4f 39 58 22 99 ba c4 27 e3 ba
       0.0022487792 0.00019808693 -0.0011683209 -0.0017330577
000340 5c b1 4f 39 01 7c 57 bc 98 c2 38 3b 78 8a de 37
       0.0001980713 -0.013152123 0.0028192159 2.6528942e-05
000350 74 51 a3 bc bc a0 b2 3c 5e 97 84 bc 09 14 8f bb
       -0.0199363 0.02180516 -0.016185459 -0.004366402
000360 2f 7b 9e 3b da 43 f5 3b f1 31 f9 bb a7 e6 90 3b
       0.004836462 0.007484895 -0.0076048304 0.004422027
000370 d4 ae 7e bb c2 f0 46 bc 3f 6a 8d 3c b2 8e b2 bb
       -0.003886153 -0.012142362 0.017262576 -0.0054491395
000380 ee 12 04 ba 5e 01 62 bb 7f f6 9f 3b 3b 05 9e bb
       -0.0005038221 -0.0034485678 0.0048816795 -0.004822401
000390 b9 64 ad bb 94 d4 51 39 bb ac 8b ba 88 01 96 3c
       -0.005291548 0.00020010985 -0.0010656336 0.018311277
0003a0 95 a9 96 bb ac 16 02 bc 63 55 51 39 32 78 6a 3b
       -0.0045978525 -0.007939976 0.00019963602 0.0035777208
0003b0 e9 dd 92 3b 8d 08 51 39 fd 6c 26 bb 43 d9 23 3a
       0.00448202 0.00019934979 -0.0025394552 0.0006250331
0003c0 8e 34 78 bc e4 fb 38 3b 2a 3a 52 39 32 12 50 39
       -0.015149249 0.002822631 0.00020048828 0.00019843204
0003d0 46 9a aa bb 12 31 d0 bb 1a 7e 24 bc 34 96 8e 3c
       -0.005206379 -0.006353506 -0.010039831 0.017405607
0003e0 6e d7 82 14 6a e9 6a 13 6e 7a 85 14 43 4e fa 13
       1.3211617e-26 2.9650034e-27 1.3477858e-26 6.3186044e-27
0003f0 72 ed cc 12 04 0d b7 12 38 ff b9 13 c1 93 c0 13
       1.2932745e-27 1.1552132e-27 4.695223e-27 4.861331e-27

fc1.bias f4 [40]
000000 e9 46 53 3c 3e 6d 33 9f 5c fe 66 84 33 9f 5f 3b
       0.012895324 -3.7995087e-20 -2.7153166e-36 0.003412199
000010 46 c0 be 92 0d 13 34 3b 79 23 e3 3c 7f 62 34 3c
       -1.2038085e-27 0.0027477175 0.027726876 0.011009811
000020 62 7a 4e b1 75 44 64 3c aa 14 7d 8b 96 ce 6d 3b
       -3.0046512e-09 0.013932337 -4.8741574e-32 0.0036286465
000030 7a 00 f5 0e b3 6a 40 3c cf 71 d4 3b 3a aa e2 08
       6.0397622e-30 0.011744189 0.0064832936 1.36419e-33
000040 91 a1 32 3c e4 42 d9 8a fe 11 82 0a da fd 27 84
       0.010902778 -2.0921501e-32 1.2525313e-32 -1.9747319e-36
000050 f6 4c 4b 33 ee 2e 76 34 2a a0 a8 0e b1 28 42 8e
       4.7334616e-08 2.2927608e-07 4.156943e-30 -2.3931938e-30
000060 be 08 b8 3c af 38 bb 3b 0f ec 4f 22 41 f8 9e 04
       0.022465106 0.0057135443 2.81787e-18 3.7373607e-36
000070 6c 77 42 aa e5 1d 8f 05 9d 4f 5d 3c c5 fd c1 18
       -1.7272094e-13 1.3458637e-35 0.013507751 5.0145572e-24
000080 39 14 76 87 f7 d2 48 2b 2b 04 47 3c 7e 36 18 8c
       -1.8512926e-34 7.1347046e-13 0.01214699 -1.1726052e-31
000090 a4 4b 4b 3b 57 8a 82 8f 52 b2 ae 07 90 7a 81 89
       0.0031020427 -1.2872276e-29 2.6285417e-34 -3.1170878e-33

fc2.weight f4 [20, 40]
000000 fc 82 08 3e 51 dc ad a0 df 95 62 87 54 c8 08 3d
       0.13331217 -2.9453133e-19 -1.7046393e-34 0.033394173
000010 dc f7 0f 14 b0 ec de 3c ef f0 25 3e 3f 65 e8 3d
       7.268537e-27 0.02721247 0.1620519 0.11347436
000020 f6 29 24 33 51 16 14 3e b9 97 08 0c d2 01 16 3d
       3.822239e-08 0.14461638 1.0522716e-31 0.03662283
000030 f0 66 c0 0f 3d 06 f9 3d 6e 8b 83 3d 93 93 52 89
       1.8972312e-29 0.12159393 0.064230785 -2.534722e-33
000040 f1 66 e7 3d d4 54 2a 8a 2f fc 07 0c d2 64 7f 05
       0.112989314 -8.201157e-33 1.047591e-31 1.200856e-35
000050 3b 32 0f b4 e0 7a 85 b4 4a d0 52 8f 1c f4 dd 8e
       -1.3336187e-07 -2.4862584e-07 -1.03939144e-29 -5.4715775e-30
000060 95 46 04 3e 22 e8 67 3d 0f bf da 21 fe f8 de 85
       0.1291755 0.056617863 1.4822827e-18 -2.0968245e-35
000070 c4 62 c5 ab 8f 8a 37 84 c4 69 10 3e d9 44 b8 18
       -1.4025105e-12 -2.157517e-36 0.14102846 4.7632404e-24
000080 57 4a 4a 07 72 e9 d0 2a 61 87 00 3e 27 f7 95 8c
       1.5218637e-34 3.7110207e-13 0.12551643 -2.3105834e-31
000090 3b 09 fa 3c 43 7f f1 0f 9b d1 84 88 7c f0 22 8a
       0.03052198 2.3813454e-29 -7.993739e-34 -7.845246e-33
0000a0 54 b7 7c 3d c4 d3 23 9f 48 60 ac 05 3d 1a 76 3c
       0.061698273 -3.469176e-20 1.621017e-35 0.015020904
0000b0 8e 6c 28 12 dd c5 47 3c cd 6e 90 3d 35 02 57 3d
       5.3145257e-28 0.01219317 0.070523836 0.05249234
0000c0 88 dc 48 b1 dd ba 89 3d d5 e8 00 0c f6 51 88 3c
       -2.9229188e-09 0.067250945 9.930827e-32 0.016640645
0000d0 71 2d 87 10 de 76 66 3d 4a 2e f1 3c 48 7c fe 08
       5.3318125e-29 0.056265704 0.029441018 1.5316287e-33
0000e0 2d 3e 56 3d 10 39 ec 09 26 f4 0d 8b a2 10 03 06
       0.05230539 5.6868595e-33 -2.733929e-32 2.4650581e-35
0000f0 de f8 37 b4 98 fd 79 b4 b2 df b3 0e b8 c0 51 8d
       -1.713374e-07 -2.3282189e-07 4.4342318e-30 -6.4635074e-31
000100 f8 10 6b 3d d7 35 d4 3c b2 f5 0a a2 ec 23 85 85
       0.05738923 0.02590458 -1.8832557e-18 -1.2520456e-35
000110 1c c6 9d ab 7e 70 f8 05 6e ec 85 3d 4c b3 db 99
       -1.1210507e-12 2.3363131e-35 0.06539236 -2.2716487e-23
000120 11 32 83 05 30 cb 37 2a 0a 11 6e 3d 40 cd a8 0b
       1.2337572e-35 1.632416e-13 0.05812172 6.502007e-32
000130 89 cd 60 3c 8c f1 01 10 ba cb 91 88 b1 c1 a1 8a
       0.013720878 2.5626845e-29 -8.774766e-34 -1.5576595e-32
000140 65 c1 6b 3d 61 04 8a 9d c4 d3 28 06 4f 4b 65 3c
       0.057557482 -3.6532824e-21 3.175287e-35 0.013995006
000150 12 88 ae 93 a9 e9 39 3c c5 0a 86 3d a3 8b 48 3d
       -4.405795e-27 0.011347213 0.06545023 0.048961293
000160 ba b1 e9 31 d0 8a 80 3d 5a 6d 00 0c 35 10 7e 3c
       6.8013977e-09 0.062764764 9.893668e-32 0.015506794
000170 af 3e 6f 8f 26 fc 56 3d a0 e2 e0 3c 4b 20 03 8a
       -1.1795682e-29 0.05248656 0.027451813 -6.313494e-33
000180 a5 de 47 3d c0 f4 0b 8d 4c 03 04 0b 6b 78 7c 05
       0.048796315 -4.312729e-31 2.5424756e-32 1.18711e-35
000190 f0 bd a8 b3 b4 a9 ad b5 90 e7 47 0f b2 97 5d 8f
       -7.857659e-08 -1.2938895e-06 9.856055e-30 -1.0925357e-29
0001a0 dc 29 5a 3d 6f d6 c5 3c be f9 02 21 8e d1 88 85
       0.053262576 0.024150101 4.4376244e-19 -1.2866357e-35
0001b0 d1 6b 0f ac 98 ca 40 84 89 e7 79 3d 59 29 a8 98
       -2.0381372e-12 -2.2662518e-36 0.061011825 -4.3468733e-24
0001c0 ec c8 0c 06 b0 ae 74 ab 03 22 5e 3d bd 8c a1 0c
       2.6478688e-35 -8.692864e-13 0.054231655 2.4890681e-31
0001d0 ee 62 51 3c 03 9c e4 0f 73 74 22 87 78 98 a0 09
       0.012779934 2.254263e-29 -1.2221747e-34 3.866198e-33
0001e0 a0 eb ce 20 cd db ec 27 3d b9 98 00 08 d3 dc 22
       3.505368e-19 6.5741467e-15 1.4025446e-38 5.9854558e-18
0001f0 ef 5c 30 03 7b fe cd 22 7c 6a 08 a4 51 b1 fb 23
       5.1828434e-37 5.5834803e-18 -2.9580495e-17 2.7288571e-17
000200 44 33 45 9c cd 49 cb 23 4b 97 af 01 24 27 70 23
       -6.524809e-22 2.204056e-17 6.450194e-38 1.30187144e-17
000210 b8 00 00 00 f8 89 1b 24 5c b2 e7 a3 2a 00 00 80
       2.58e-43 3.372713e-17 -2.5120608e-17 -5.9e-44
000220 6f 07 a2 24 94 6c 00 80 54 01 00 00 9d 01 00 00
       7.0268894e-17 -3.895e-41 4.76e-43 5.79e-43
000230 dc 34 a5 9a 59 be 05 9b 32 6b ac 81 70 ab 26 81
       -6.83278e-23 -1.1063007e-22 -6.333664e-38 -3.0612385e-38
000240 db 60 a8 24 e3 c7 8a 25 0f 46 51 90 86 0f 00 80
       7.3022466e-17 2.4074632e-16 -4.1271953e-29 -5.569e-42
000250 6c a1 cb 15 14 00 00 80 5c a5 56 24 d4 12 02 89
       8.2245726e-26 -2.8e-44 4.6543918e-17 -1.5657034e-33
000260 8b 1f 00 00 ee 9e a2 14 0c da 08 24 3c 22 0f 00
       1.1315e-41 1.6420506e-26 2.9674992e-17 1.389813e-39
000270 02 a0 ab 23 75 16 04 80 4e 4a 7c 81 33 00 00 00
       1.8607623e-17 -3.75398e-40 -4.63384e-38 7.1e-44
000280 90 5e de 3d 21 d5 43 1f f6 8c e8 87 2b 18 dc 3c
       0.1085788 4.1469152e-20 -3.499033e-34 0.026866993
000290 7a 38 a2 14 04 d5 b2 3c ca be 03 3e ba 7f bd 3d
       1.6380096e-26 0.02183009 0.12865749 0.092528775
0002a0 81 15 61 33 de 42 f2 3d 2a ae 5a 0d ec d5 f2 3c
       5.2406453e-08 0.1182916 6.738608e-31 0.029643022
0002b0 68 52 12 91 46 00 cb 3d c9 bc 55 3d 2a eb 30 09
       -1.1542763e-28 0.099121615 0.052181993 2.1295803e-33
0002c0 7c bf bc 3d 54 8b 1e 09 14 6b 86 0b 86 0e 87 86
       0.0921621 1.908407e-33 5.1776036e-32 -5.0802696e-35
0002d0 c0 b4 1b b4 34 27 93 b4 31 c4 ae 0f fc 7d 09 8e
       -1.4501256e-07 -2.7409408e-07 1.7233295e-29 -1.6947213e-30
0002e0 f4 e8 d5 3d 36 43 3c 3d 5c 0a 95 22 8e f9 10 86
       0.10444823 0.045962535 4.03975e-18 -2.7266734e-35
0002f0 da e0 e2 ac 94 22 27 84 6e a8 eb 3d c2 b6 c4 98
       -6.44827e-12 -1.9646633e-36 0.11506735 -5.084935e-24
000300 c8 57 a5 06 00 48 d7 29 6a a2 d1 3d f1 6b f9 8c
       6.2195085e-35 9.560408e-14 0.10236056 -3.842949e-31
000310 1b 45 c9 3c b8 4b e2 0f c6 a7 74 08 7f fa a2 8b
       0.024569085 2.2314486e-29 7.3623296e-34 -6.2777035e-32
000320 2c f2 9f 3d b8 03 06 9d c8 fa aa 87 64 54 9c 3c
       0.078098625 -1.7736675e-21 -2.5726153e-34 0.01908321
000330 98 c1 1e 14 7f e9 7d 3c 85 d0 b7 3d 0a 1f 88 3d
       8.015141e-27 0.015497564 0.08975319 0.06646545
000340 3c 8a 35 b1 c0 49 ae 3d db 72 30 0c bd 1e ad 3c
       -2.6417544e-09 0.085101604 1.359311e-31 0.021132821
000350 4a fb 1c 8f d1 e3 91 3d 41 f1 18 3d 1c f0 60 08
       -7.73979e-30 0.07123531 0.037339453 6.7689795e-34
000360 44 a1 87 3d 16 44 c5 8b 6a 27 90 8d 14 b1 c0 05
       0.06622556 -7.5984084e-32 -8.884174e-31 1.8120641e-35
000370 6c 93 af 32 e0 2b 47 b4 19 29 a8 0f 86 23 b5 0e
       2.0439721e-08 -1.8549281e-07 1.658191e-29 4.4654153e-30
000380 aa d6 95 3d 29 99 06 3d f4 11 3c a1 4e 1e 65 85
       0.073163345 0.03286091 -6.372064e-19 -1.0773094e-35
000390 f7 93 c3 ac 66 0e 04 03 c9 7c a9 3d 3f ed d1 17
       -5.5586607e-12 3.880784e-37 0.08275754 1.3566198e-24
0003a0 8f 35 65 06 47 2a 7f aa 20 b1 96 3d 74 de 69 8b
       4.3109462e-35 -2.2663218e-13 0.07358003 -4.5041523e-32
0003b0 fe d6 8e 3c e5 42 43 0f 98 35 92 07 b2 61 dd 09
       0.0174365 9.627126e-30 2.1999138e-34 5.3295687e-33
0003c0 f6 50 00 1b 51 dd c1 81 c2 00 00 80 a1 9e df 9a
       1.0614072e-22 -7.1214577e-38 -2.72e-43 -9.248692e-23
0003d0 ed 8d 00 80 c7 3c df 19 61 6b 19 1a cc d4 22 1b
       -5.0913e-41 2.3082207e-23 3.1726398e-23 1.3469084e-22
0003e0 33 8b 96 92 45 d3 18 1b ad 00 00 80 69 c1 03 1a
       -9.500646e-28 1.264141e-22 -2.42e-43 2.72464e-23
0003f0 9d 00 00 80 95 83 b5 19 ac 72 43 1a c7 1e 01 80
       -2.2e-43 1.8768107e-23 4.0417686e-23 -1.02876e-40

fc2.bias f4 [20]
000000 b2 d1 03 3d 70 1c 6e 3c 7d a7 5d 3c e4 7c b4 23
       0.032182403 0.014533147 0.013528702 1.9568532e-17
000010 c1 97 d2 3c 48 4c 96 3c 38 b8 53 9a 61 74 5a 1f
       0.025707128 0.01834692 -4.3782588e-23 4.6259562e-20
000020 90 31 c9 21 c1 15 f3 3c ee 4f 87 3c ea 21 82 ae
       1.3633409e-18 0.029673459 0.016517606 -5.91774e-11
000030 c7 98 21 0f 08 81 52 1f 0e ab 80 3c c7 23 34 2e
       7.967337e-30 4.4575962e-20 0.015706565 4.0959038e-11
000040 d0 0d d8 3c 2a 9e 90 3c cc ea 90 3c ac b7 ae 3c
       0.026373774 0.017653544 0.017690085 0.021327816

fc3.weight f4 [1, 20]
000000 44 e3 ce 3e 59 fa 3d 3e d6 29 31 3e 8d 2e 25 25
       0.40407765 0.18552531 0.17301115 1.4327241e-16
000010 eb 42 a8 3e a5 0e 71 3e bf 25 a5 1b 80 89 c5 9e
       0.32863554 0.23540743 2.7321353e-22 -2.0915055e-20
000020 ca fb ba 23 4f be bf 3e 87 a1 58 3e a6 55 99 2e
       2.0272797e-17 0.3744988 0.21155368 6.972849e-11
000030 05 4d 82 10 74 b9 9c 21 52 14 4e 3e 67 cd 2d b0
       5.1394626e-29 1.062006e-18 0.20124939 -6.322893e-10
000040 50 65 ab 3e aa dc 67 3e 0d 4c 68 3e 13 e5 8b 3e
       0.33475733 0.2264277 0.22685261 0.27323207
