Projects/Mice_Tumors/tumor_load/in_dim:62_mid_dim_1:40_mid_dim_2:20_out_dim:1_lr:0.001_test_size:0.2_batch_size:4_shuffle:True_epochs:50_.pt (torch_old, 14470 bytes, 5 tensors)

fc1.weight f4 [40, 62]
000000 f6 83 0d 3a 0f a3 45 3c e6 7b 74 3c 67 05 6a 3b
       0.0005398387 0.012062802 0.014922118 0.0035708786
000010 90 15 12 3b b4 6c e3 ba 25 4f c4 3c 32 dd 77 3b
       0.0022290684 -0.0017351122 0.02396352 0.0037821052
000020 0b d8 66 3c 19 a5 aa 3c bc 64 28 3c cd 35 98 bc
       0.014089595 0.020830678 0.010277923 -0.018580342
000030 e1 94 55 bb a2 3d a9 3b dc 1d 40 bc af 60 4a bd
       -0.003258996 0.005164818 -0.011725869 -0.04940861
000040 3d a6 bc bb 79 a3 84 bb 0e 99 40 3c 83 e3 48 3a
       -0.005757122 -0.004047808 0.011755241 0.00076632964
000050 e5 6d 86 b9 83 aa c0 ba c6 20 23 3a 55 5d 74 bc
       -0.0002564035 -0.0014699254 0.000622284 -0.01491483
000060 fc 72 d9 3b 3d 21 a9 ba 60 f3 31 bc 80 b7 fb 3c
       0.0066360217 -0.0012903583 -0.010861248 0.030727148
000070 22 65 9b bc ac 67 0b bc 19 09 d0 3b ee a8 97 3b
       -0.018969122 -0.008508604 0.006348741 0.0046282923
000080 a3 f1 29 bc 00 36 13 3c bc 9b b6 bb 22 46 80 bc
       -0.010372552 0.008985043 -0.005572764 -0.015658442
000090 b2 b7 c0 3c dd 21 0c bc d4 46 c4 3b 30 e7 98 ba
       0.023525093 -0.0085529955 0.0059898887 -0.0011665579
0000a0 57 f3 2c 3c fe 6d 9f 3a ce 24 c8 bb de 5d 49 3a
       0.010556064 0.0012163518 -0.006107903 0.0007681529
0000b0 b6 c4 c8 b8 86 4a 33 3c fd 68 59 bb 1c 36 28 bc
       -9.5733834e-05 0.010943061 -0.003317415 -0.010266807
0000c0 98 be 49 3a ce 19 80 3b 8c 89 94 3b f2 d6 3d 3a
       0.0007695942 0.003909326 0.0045329984 0.0007241807
0000d0 93 e5 63 bb 14 68 f4 3a 39 2c 62 bc eb 41 38 3b
       -0.0034774288 0.001864674 -0.013804489 0.0028115462
0000e0 c3 70 49 3a e6 1f 46 3a 52 53 0c bc d8 dc 97 bc
       0.00076843443 0.0007557854 -0.008564787 -0.018537924
0000f0 61 4e 44 bc e5 c7 ee 3c a3 01 3f 3a 4e 6a 48 3c
       -0.011981578 0.029148052 0.00072863157 0.012232376
000100 c7 3d 83 3c 8e da 78 3b c0 02 b9 3b 58 94 71 38
       0.016020669 0.0037972066 0.00564608 5.7597033e-05
000110 2e 31 ca 3c b2 a4 84 3b da f1 87 3c 69 12 c1 3c
       0.024681654 0.0040479535 0.016594816 0.023568349
000120 ac bb 55 3c 33 b4 7f bc 5a b5 f4 ba 6c 35 20 3c
       0.013045233 -0.015606928 -0.001866977 0.009778362
000130 e8 c6 27 bc 90 8e 4a bd 9f a8 c9 bb 2f 40 bf bb
       -0.010240294 -0.049452364 -0.0061541344 -0.0058365087
000140 82 3c 43 3c 69 26 1b 3a 36 fb ff ba a5 0a 06 bb
       0.011916282 0.00059185043 -0.0019529823 -0.0020453122
000150 3f 5c 39 3a 1e 4e 9d bc 9d 87 3b 3c f2 cc 13 bb
       0.00070709357 -0.019202288 0.011445907 -0.0022552577
000160 20 cc 39 bc 84 a8 e4 3c 74 b7 9f bc 4b 0b 09 bc
       -0.011340171 0.027912386 -0.019496657 -0.008364509
000170 43 99 e7 3b 8e 59 c4 3b ae 82 0f bc 60 89 39 3c
       0.007067831 0.005992121 -0.008759184 0.011324257
000180 e5 ed 86 bb 0b 65 8b bc a8 e7 ce 3c 12 ed 19 bc
       -0.0041177147 -0.017015954 0.025256947 -0.009394901
000190 dd 6f d6 3b 36 7f 76 b9 cf 82 33 3c 96 fd 3c 3b
       0.006544097 -0.00023507778 0.01095648 0.0028837672
0001a0 04 46 14 bc d8 25 3e 3a f6 c8 f3 ba af c6 21 3c
       -0.009049896 0.0007253564 -0.001859932 0.00987403
0001b0 6e 10 66 bb 61 3f 3f bc 80 4f 05 3a 37 74 ad 3b
       -0.0035105008 -0.011672826 0.0005085394 0.005293395
0001c0 2f 53 f6 3b 94 28 d8 39 55 d0 8e bb 62 b8 3e 3a
       0.0075172405 0.00041228964 -0.004358331 0.00072754
0001d0 57 a4 6b bc 7e 2b 49 3b 70 b1 3f 3a c1 b9 3f 3a
       -0.014382443 0.003069609 0.0007312512 0.0007313751
0001e0 67 b9 27 bc b2 32 a7 bc 0f 5e 47 bc a1 bb e1 3c
       -0.010237074 -0.020409916 -0.012168421 0.027555289
0001f0 e8 fa b3 bb bd a1 a7 3c d6 30 ea 3c c3 76 8b 3b
       -0.005492557 0.020462865 0.02858774 0.004256101
000200 3b 53 f7 3c 3d df 15 3b 8a b6 25 3d bc b9 ea 3a
       0.030191055 0.0022868656 0.040457286 0.0017908136
000210 a0 fa 2d 3d 0d 1b 35 3d 61 f8 31 3d cb eb fe 3b
       0.042475343 0.04421525 0.043449763 0.0077795736
000220 78 1b 9d bb c5 18 33 3d b7 c6 4e bc 59 3a c7 bd
       -0.0047945343 0.043724794 -0.0126206195 -0.09727926
000230 44 f7 98 bc 73 0c 40 bc c2 fd c9 3c a8 50 ef ba
       -0.018672593 -0.011721718 0.024657134 -0.001825829
000240 0e e9 1c bc 5d 0a 52 bc 8d 61 94 bb ca 43 43 bd
       -0.009577049 -0.012819854 -0.0045282305 -0.04767207
000250 93 54 44 3d d4 3e 59 bc 61 84 d8 bc 20 98 82 3d
       0.04793222 -0.013259608 -0.02643031 0.06376672
000260 3d 90 12 bd ea 7f 74 bc 2c 17 4d 3c 96 4c 31 3c
       -0.035782088 -0.014923075 0.012517732 0.010821482
000270 4f 62 04 bc 9a ac 95 3c a7 18 0d bb e4 18 20 bd
       -0.008080079 0.01827078 -0.0021529587 -0.039086238
000280 17 ae 55 3d f0 18 84 bc 83 50 43 3c 67 ec e8 b9
       0.05216798 -0.016125172 0.011921051 -0.00044426622
000290 8e fd 9c 3c 71 ab 1c 3c c3 00 df bc 6e e9 b3 bb
       0.019163873 0.009562359 -0.027222043 -0.0054904735
0002a0 c2 7a 23 bc f9 37 8a 3c a7 3b 75 bc 82 a6 c9 bc
       -0.009977998 0.016872393 -0.0149678355 -0.02461553
0002b0 ce 3c 29 bb a9 51 83 3c 81 9b b8 3c 83 e4 b1 bb
       -0.0025823596 0.01603015 0.022535088 -0.005428852
0002c0 8e a8 8e bc f5 cf 55 bb de e6 10 bd 97 5e 07 bb
       -0.017414358 -0.0032625173 -0.035376422 -0.0020655745
0002d0 6b de c4 bb 9b 80 c3 bb a6 8d de bc 84 c4 2c bd
       -0.0060079596 -0.0059662587 -0.027167153 -0.0421796
0002e0 03 f6 fe bc 8e c5 a5 3d f3 47 9d bb 7e b0 a6 3c
       -0.031123167 0.08094321 -0.004799837 0.02034783
0002f0 13 f8 ec 3c 81 cc 52 3b 8d f8 d6 3c a8 d6 12 3b
       0.028926885 0.003216535 0.026241565 0.0022405777
000300 53 4d 63 3d cc 7e 34 3b 0b 57 17 3d 6c f2 30 3d
       0.055493664 0.0027541397 0.036948245 0.04319994
000310 04 cc 38 3d a1 b3 25 bc c9 0b b5 3b c6 ef 3b 3c
       0.04511644 -0.010113628 0.0055250865 0.011470741
000320 29 07 91 bc 34 3c d6 bd 76 c2 9f bc 64 f1 3d bc
       -0.01770361 -0.104607016 -0.019501906 -0.011593197
000330 1d e2 bb 3c 52 a3 92 bb db 90 28 bc 49 37 19 bc
       0.022934968 -0.0044750357 -0.0102884425 -0.00935156
000340 7f f2 43 bb a8 04 39 bd a4 9a 1c 3d 0b 55 37 bc
       -0.0029899178 -0.045170456 0.038233414 -0.011189709
000350 e1 a9 d8 bc ba f6 82 3d 06 eb 13 bd 01 12 70 bc
       -0.026448192 0.063947156 -0.036112808 -0.01465273
000360 db 15 50 3c f1 d2 31 3c bc 0f 50 bc 9c 86 9c 3c
       0.012700523 0.010853515 -0.012699064 0.019107156
000370 5f 93 77 bb 9e b9 1f bd 0a 23 4f 3d 38 aa 85 bc
       -0.003777705 -0.038995378 0.050570525 -0.016316518
000380 be dc 34 3c a4 0a da b9 f5 c8 9f 3c 35 8f 1a 3c
       0.011038957 -0.00041588128 0.019505003 0.009433557
000390 32 98 d7 bc c4 42 a5 bb 08 38 23 bc 04 03 8b 3c
       -0.02631769 -0.0050433595 -0.009962089 0.016969211
0003a0 6c 7f 69 bc 94 dc e9 bc bb ac a3 bb 4a 8e a0 3c
       -0.014251571 -0.028547563 -0.0049949563 0.019599099
0003b0 b5 69 de 3c 58 f0 df ba 69 03 81 bc bc 34 80 bb
       0.027150014 -0.0017085178 -0.015748696 -0.0039125364
0003c0 4e 9b 0c bd da c4 d7 3a fc bc 9d bb 8b b3 9d bb
       -0.034327798 0.0016461865 -0.0048137885 -0.004812663
0003d0 87 d3 d8 bc b8 30 2d bd 98 cf fe bc fd ae 44 3d
       -0.026468052 -0.04228279 -0.031104848 0.048018444
0003e0 ce 7c af b2 2f be 37 34 e4 8f 03 b5 40 2b 0c 35
       -2.0429436e-08 1.7112392e-07 -4.901069e-07 5.2217e-07
0003f0 69 10 29 b4 27 cd 06 33 37 b7 bb 34 80 53 07 b6
       -1.5745321e-07 3.138589e-08 3.496477e-07 -2.016517e-06

fc1.bias f4 [40]
000000 a9 aa 39 3b c6 2c 7f 3b e2 17 ab 3c d3 2f 8a 3c
       0.002833048 0.00389366 0.020885412 0.016868507
000010 47 c8 0f b4 16 a2 c6 32 f9 35 1a 3d b4 37 d3 3b
       -1.3390773e-07 2.3123942e-08 0.03764913 0.0064458493
000020 97 42 3b b5 c6 e7 a6 3b c2 7c 0b 3c ee b4 ff 35
       -6.975983e-07 0.0050935475 0.008513631 1.9051638e-06
000030 60 83 d9 39 fa 3d 16 b5 ac 05 5f 3c 42 cf 82 3a
       0.00041487347 -5.596954e-07 0.013612192 0.000997998
000040 36 6f 77 b3 d6 68 34 31 b3 1c d3 3b c5 67 3c 3c
       -5.7610315e-08 2.625304e-09 0.00644263 0.01149935
000050 5c 45 7d 3c 71 18 c6 b6 23 e0 3b 3c e9 97 0d b7
       0.015458431 -5.903705e-06 0.011467013 -8.439624e-06
000060 44 ea 96 3c 66 24 68 3b 0d c2 99 39 8c dd 92 b7
       0.018422253 0.0035422086 0.00029327013 -1.7507722e-05
000070 5d c5 64 39 6c 08 c6 3a 29 58 94 b5 41 81 d6 34
       0.00021817298 0.0015108711 -1.1052517e-06 3.995465e-07
000080 ad cb 76 b7 21 7f 3b 3c ce 07 5e 3b 21 c1 11 b8
       -1.4710165e-05 0.011443884 0.0033879164 -3.475056e-05
000090 03 b7 42 3b d1 0e 72 3c 29 17 4a 3a 76 ab 1a b5
       0.0029711134 0.01477404 0.00077091396 -5.761898e-07

fc2.weight f4 [20, 40]
000000 fd db 6f ba c1 fc 08 ba 27 25 81 bb 9a 90 aa b9
       -0.0009149907 -0.00052256515 -0.0039411965 -0.00032532663
000010 26 7f af 33 e6 6f e8 2f 9a e7 23 3b db a7 f6 ba
       8.172201e-08 4.2280063e-10 0.0025009871 -0.0018818335
000020 d1 21 21 32 b8 e2 bc ba 18 c3 c1 b9 4f 25 3b 36
       9.379122e-09 -0.0014410829 -0.00036957185 2.7886888e-06
000030 8b 46 ab 39 69 b2 21 b3 bb de 06 bb d8 87 73 b9
       0.0003266822 -3.7647997e-08 -0.0020579535 -0.00023224892
000040 6b e7 da b0 d7 b0 75 37 a5 c7 fa ba c3 88 53 3b
       -1.592736e-09 1.4644312e-05 -0.0019132985 0.0032277561
000050 95 5e 8a ba 16 7d a4 34 39 e3 4a bb d9 10 2c 35
       -0.0010556752 3.0638392e-07 -0.003095819 6.409951e-07
000060 b0 c4 ad ba 24 04 af ba 7b 47 a0 38 7f 39 29 35
       -0.001325747 -0.0013352674 7.642709e-05 6.3041074e-07
000070 f8 b5 ca 39 1b db 9a b9 62 96 99 34 73 6a 85 33
       0.0003866402 -0.00029536415 2.860789e-07 6.212658e-08
000080 d4 5c e5 b2 50 9e 0e 3b 99 09 9e ba 3c 66 b8 37
       -2.6701322e-08 0.0021761842 -0.0012057304 2.1982116e-05
000090 6d 41 74 ba 59 43 02 ba 99 ad 05 3a c0 22 e2 33
       -0.00093176105 -0.0004969142 0.00050994154 1.0530266e-07
0000a0 21 63 38 3c b5 d5 37 3c d1 5e d0 3c 59 33 cb 3c
       0.011254103 0.011220385 0.025435837 0.024804758
0000b0 3c 90 31 b4 74 28 0e b2 1a 81 11 3d 2f 34 b5 3c
       -1.6536882e-07 -8.274686e-09 0.03552351 0.02211961
0000c0 07 13 2c b3 fd 96 8c 3c 3d ac b5 3c 82 04 75 b7
       -4.0064176e-08 0.01716184 0.022176856 -1.46041875e-05
0000d0 b4 f6 9b ba d7 56 04 35 a5 5c db 3c 10 7d 77 3b
       -0.0011899085 4.93002e-07 0.026777575 0.0037763752
0000e0 a2 e0 8a 33 16 49 08 28 6f 0b ba 3c 2f 94 a4 3c
       6.466986e-08 7.5653646e-15 0.02271053 0.02009019
0000f0 4e 61 e8 3c 5d 6d 40 37 19 14 b5 3c e2 69 bd b6
       0.028366711 1.1469555e-05 0.02210431 -5.6449653e-06
000100 8e 15 04 3d cd 5a 55 3c 06 59 ad b9 c6 00 99 37
       0.03224712 0.013022137 -0.0003306346 1.8239381e-05
000110 36 9f 51 ba ea cd c3 3b 5a f4 5c b5 74 63 9b b4
       -0.00079964416 0.0059754746 -8.2311965e-07 -2.8943361e-07
000120 f1 da 07 b5 c9 7d 98 3c ad 1e 58 3c b6 c1 a9 b8
       -5.061002e-07 0.018614667 0.013190907 -8.0946294e-05
000130 4f a0 36 3c 88 ca 07 3d 71 08 ff ba 4b 86 d8 b5
       0.011146619 0.033152133 -0.0019457472 -1.6132338e-06
000140 a4 86 82 3c 6b 22 85 3c fa b0 0f 3d 9f a9 0f 3d
       0.015933342 0.016251763 0.035080887 0.035073873
000150 cb e3 52 b4 05 a4 47 af 46 df 53 3d bc 18 03 3d
       -1.9640645e-07 -1.8157216e-10 0.051726602 0.03200601
000160 27 c7 b7 b6 0f 2a cc 3c 9b 46 ff 3c f0 40 b4 b7
       -5.4770094e-06 0.024922399 0.031161597 -2.1487911e-05
000170 74 fe f6 ba 0f 23 65 b8 7c 7a 19 3d b4 f9 b1 3b
       -0.0018844143 -5.4630505e-05 0.037470326 0.0054313783
000180 df df 88 33 49 3e 6b b7 84 11 05 3d 99 1e ea 3c
       6.3737154e-08 -1.4021593e-05 0.032487407 0.028579043
000190 7f 6a 23 3d a2 90 21 37 bd 51 00 3d 0b b2 a3 b6
       0.039896484 9.630023e-06 0.03132795 -4.8785055e-06
0001a0 e9 93 37 3d 1b 79 99 3c 92 e6 4c ba a8 a5 3b b6
       0.044818792 0.018734505 -0.000781634 -2.7961596e-06
0001b0 6f e1 9e ba 24 d4 0d 3c d9 c2 a7 b5 e4 bd 08 b5
       -0.0012121628 0.008656535 -1.2499178e-06 -5.0940275e-07
0001c0 26 7f 76 35 31 77 d4 3c 63 b0 9c 3c 49 08 30 b9
       9.1827167e-07 0.025935741 0.019127076 -0.00016787754
0001d0 0d fc 88 3c d4 d8 32 3d 4b a2 39 bb c7 61 03 b6
       0.01672175 0.043663815 -0.0028325494 -1.9577435e-06
0001e0 63 25 d6 b8 31 e9 c1 38 84 19 18 3b d9 43 f0 b9
       -0.00010211279 9.2463924e-05 0.0023208568 -0.00045826918
0001f0 4f 57 7a 31 7c f1 7f 2d 70 63 1a ba b9 08 25 b9
       3.6429417e-09 1.4548692e-11 -0.0005889451 -0.00015738876
000200 4e ac 0b 31 06 ae 9b b9 e3 38 e8 b9 2c 25 30 34
       2.0325106e-09 -0.0002969356 -0.00044292872 1.64048e-07
000210 87 a3 6e 37 98 bc 16 b2 5f 8e 0c ba eb 02 31 b8
       1.422398e-05 -8.77403e-09 -0.0005361791 -4.2202806e-05
000220 14 21 cb b0 f6 f2 b0 a9 8e 64 a8 b9 31 83 8b 39
       -1.4779595e-09 -7.858117e-14 -0.00032118376 0.0002660989
000230 d6 cc c8 b9 05 6b 83 33 a5 fc 9e b9 99 cd b3 33
       -0.00038299587 6.1196296e-08 -0.00030324343 8.372735e-08
000240 b8 5c 09 ba c6 0c f2 b8 76 59 1a 38 49 5a 64 b3
       -0.00052399514 -0.000115418385 3.6799778e-05 -5.31675e-08
000250 5f 37 4a 37 75 aa 84 b8 3c bb 2f 38 c0 f0 a6 b5
       1.205303e-05 -6.3260006e-05 4.1897627e-05 -1.2438031e-06
000260 ad f0 fa b1 28 5d d1 b9 a4 ad 1a b9 ba e2 3a 36
       -7.3033193e-09 -0.00039932993 -0.0001475127 2.7848132e-06
000270 45 cf a2 b8 d2 f7 da 3a c9 28 dc 37 b0 0d c8 32
       -7.763369e-05 0.0016705936 2.6245036e-05 2.3289289e-08
000280 19 1b 11 3d 7f ea d2 3c de bb b5 3d 9a c5 a0 3d
       0.035426233 0.025746582 0.088737234 0.078501895
000290 72 ab 0e b3 ef b1 ed b0 98 97 0b 3e 98 4e 83 3d
       -3.321788e-08 -1.7294591e-09 0.13632047 0.06411475
0002a0 4a 1d 68 35 81 b2 40 3d e3 a3 84 3d 1c 70 73 b8
       8.6469356e-07 0.047045235 0.064765714 -5.8040125e-05
0002b0 0b f9 69 bb 14 21 27 b2 8a 7f 7f 3d 07 12 35 3c
       -0.003570142 -9.7282005e-09 0.06237749 0.011051661
0002c0 6f 82 8e 34 f4 0b c4 ab de 50 86 3d ac ed 22 3d
       2.6544464e-07 -1.3929955e-12 0.06558393 0.039777443
0002d0 ad d3 b5 3d 38 ca bd 37 00 1f 8a 3d d6 3c 25 b7
       0.088782646 2.2624721e-05 0.06744194 -9.848931e-06
0002e0 6c 32 a0 3d 04 b2 23 3d 56 71 d1 ba 90 f9 d2 b7
       0.07822117 0.03996469 -0.0015979211 -2.5150162e-05
0002f0 1d 7e 6a bb 8d 4c 97 3c 74 93 dc b5 48 f3 70 b5
       -0.0035780736 0.01846912 -1.6434192e-06 -8.976099e-07
000300 b9 d1 f0 35 78 fa aa 3d fb 6a 1e 3d 98 d0 6e b9
       1.7942431e-06 0.083485544 0.038676243 -0.00022775156
000310 05 d4 09 3d b2 1d e5 3d 77 1e cf bb 5a 2d 1a b6
       0.033649463 0.111873046 -0.0063207704 -2.2974186e-06
000320 47 f3 9a b9 1d da 28 b9 fc 50 ce 39 ec 1a b3 b9
       -0.00029554425 -0.00016102982 0.0003935172 -0.000341616
000330 eb ec 12 32 56 45 99 30 28 d6 28 b9 15 3b 1f ba
       8.552187e-09 1.1151922e-09 -0.00016101508 -0.00060741726
000340 f5 6d 89 31 c3 3a fa b9 57 55 84 b9 66 e5 c9 35
       3.9997254e-09 -0.00047727497 -0.00025240585 1.5042431e-06
000350 16 01 54 38 9f 1f ef 32 1a bc 77 b9 3e a2 97 b8
       5.054575e-05 2.7837642e-08 -0.00023625829 -7.230461e-05
000360 56 e7 ad b3 9a 84 3e 35 a0 03 db b9 e6 9d 36 b9
       -8.09802e-08 7.0973476e-07 -0.00041773636 -0.00017415694
000370 55 4b 9d b9 f5 a5 96 37 72 3b 72 b9 2a ee 46 b7
       -0.000300015 1.7958673e-05 -0.00023101064 -1.1857172e-05
000380 a2 18 89 b9 cc a7 9e b9 3a 82 ce 37 4d b8 c1 b4
       -0.0002614903 -0.00030261127 2.4617755e-05 -3.6083148e-07
000390 7e b3 97 38 e7 9a 00 b9 b6 2e 59 33 5c e7 39 36
       7.233674e-05 -0.00012264737 5.0566733e-08 2.7701817e-06
0003a0 63 24 72 b2 f7 7f 07 b9 58 40 9e b9 a2 20 d0 36
       -1.4094527e-08 -0.00012922274 -0.00030184048 6.202682e-06
0003b0 74 49 a1 b9 7e 65 60 b9 4e 41 95 39 eb 3c 57 33
       -0.0003076304 -0.00021400113 0.0002846815 5.0113993e-08
0003c0 9e cd 1c 31 00 38 ae b3 39 0e 17 b6 f9 90 b6 b4
       2.2817868e-09 -8.112693e-08 -2.2509032e-06 -3.4005623e-07
0003d0 de c3 c0 36 04 f3 fc b1 4b 7b 61 b5 ca 4b 03 b6
       5.744848e-06 -7.361793e-09 -8.3998447e-07 -1.9564636e-06
0003e0 e8 a0 21 ad ed 77 16 b3 7e 43 73 b4 26 83 1e 31
       -9.187519e-12 -3.503367e-08 -2.2655692e-07 2.3066575e-09
0003f0 04 ca b0 33 f6 99 91 2c 54 98 b9 34 b3 14 b4 32
       8.232385e-08 4.138241e-12 3.4569769e-07 2.096417e-08

fc2.bias f4 [20]
000000 65 75 0d 3c 73 60 dc 3b 9b 46 1c 3c db 07 ae b9
       0.008633946 0.006725365 0.009538318 -0.0003319372
000010 1b e0 ce 3c 76 31 1c 3b ad 59 a2 b4 17 6d fb 3b
       0.025253346 0.0023833192 -3.02401e-07 0.0076729166
000020 53 dc 10 3a da ea 2a bc d2 96 ba 36 26 8c 8c 39
       0.0005525995 -0.01043197 5.5607898e-06 0.000268073
000030 84 1e 54 a8 b8 45 45 3c 7b ef 26 2a fe 93 01 3c
       -1.1774981e-14 0.012040548 1.4826848e-13 0.007908819
000040 e5 b8 52 3d f7 89 d6 3c b7 95 42 3b e9 0f 91 3d
       0.05144586 0.026188834 0.0029691288 0.07083113

fc3.weight f4 [1, 20]
000000 03 01 58 bc dd 7a a8 3d fc b7 f6 3d ff 25 4f ba
       -0.013183835 0.08226559 0.12046811 -0.0007902085
000010 79 80 6d 3e be 76 72 bb 13 f3 a9 39 60 18 da 3d
       0.2319354 -0.0036997045 0.00032415296 0.106491804
000020 71 c4 79 bb 19 59 82 3e 67 9d 82 b6 31 ef 88 3e
       -0.0038111473 0.254586 -3.892626e-06 0.2674499
000030 c6 0c c1 ad e0 35 f9 3d 96 b5 c5 29 03 ff e2 3d
       -2.1947232e-11 0.12168479 8.7800576e-14 0.11083796
000040 04 b5 99 3e 63 10 59 3e 76 0a 16 bc 63 0f 91 3e
       0.30020916 0.21197657 -0.0091577675 0.28332052
